lstm_cleaned.pth (torch, 374629 bytes, 18 tensors)

encoder_lstm1.weight_ih_l0 f4 [256, 13]
00000000: a096 8fbe 48bb c03d 084a 1dbe a7be 60bc
00000010: 6f5b 46bd 32c6 3bbd a84a de3d aa88 633e
00000020: 7d77 2abd 716a 18bd 239b b4bd 410d 293e
00000030: aa98 433e 66f6 bb3d a5c9 3c3d 5f04 20be
00000040: 07b7 a8bc 5834 15bd 8846 c23c 3827 413d
00000050: dd4f fbbc 5124 49bd 3a3d 143e 3fe2 0e3d
00000060: 251f 57bd 5121 343e f41c efbd 73c4 363e
00000070: 6350 3dbd b77c 963d 12d8 53bd 9436 79bd
00000080: 9b1c 953d f7fb 283e d85a b3bd c002 77bd
00000090: 84ca 963d d2c5 5bbd be10 d23d 085d 2e3e
000000a0: c7bc 1abe af4e 583d f45e 613d 6792 443e
000000b0: ac2d 1f3c 6396 503d b556 c0bc 1640 0c3e
000000c0: 55bd bf3c 518c 9d3d b95c bdbd e481 113e
000000d0: ccea 313d da35 fd3d acda f93c 2803 28bc
000000e0: 7b21 0cbc 26c1 233d 6395 50bd 07ed 483c
000000f0: 780c c73d c06a b73c 0a43 93bc f680 43bd
00000100: 8626 663c 98dd b8bd b55c dc3c 94f4 74bc
00000110: 9e9e d93c 92bc f13a 47d6 33bc c988 ea3c
00000120: e4c5 d0bc bb88 553d 582f 133d 0c96 d73d
00000130: 6bcb d83d 359e f43c e4ed 70bd 3931 b43d
00000140: 9fbe d7bd cf99 293e c9d2 66bd c96d 4cbe
00000150: af45 e0bd 5041 0d3e f15d 88be 5ead 883d
00000160: 7455 90be c475 313d c991 edbb 1790 c33d
00000170: 062f 8fbd 364e 533e 7c9d dcbb 7e36 a7bd
00000180: 5cb0 d6bc b243 643d b651 483b b858 c13d
00000190: b742 06be 0182 1e3e b0e5 50be 26a2 823c
000001a0: a98f 123d b7fc b43c 85e8 ae3c 72b0 32bc
000001b0: b631 ecbc 15f7 ccbd 5e77 003d 0093 3fbd
000001c0: 07ff bcbb 153b 113e eb86 f03b a2ad ebb9
000001d0: 0637 59bd 046e 0c3e fc20 bebd 17c8 9bbe
000001e0: 3839 353d 18a1 533e d226 41bd 9279 523e
000001f0: 903f ddbd 9501 ba3d 6ef1 993a 08fb 6c3e
00000200: 43ff 26bd 9d3d 3cbd c0a4 08be d76d 713d
00000210: a626 8d3d acfb 7a3d 94f1 01be e6ee 4e3e
00000220: 697e 5e3c d922 8cbd 5376 65bd 2245 2abe
00000230: e117 19bd d2fe ce3d e562 fc3c c052 f9bd
00000240: 7cc3 f4bd 6ab5 113e e670 8abe c5b5 a5be
00000250: f695 e8bd 2c76 35bc 7702 b6bd abd5 523e
00000260: 98b4 aa3c a61b eb3d 75ab c53e e143 32be
00000270: fc35 a5bc c79c 603b 2aed 85be c701 733b
00000280: b532 d23d 476d d53d 2b70 cbbc 9b13 d93d
00000290: 8563 de3c d17b 343e d292 8e3b a4d7 0b3d
000002a0: c588 f03c c5ba 013c 4435 99b9 9ca3 25bd
000002b0: e06c d93b 6da8 ce3c baa0 54bd 696e 4dbc
000002c0: 8456 4d3c 6a06 31bc 4f45 7d3c 4ca8 df3c
000002d0: 6539 afbd 9d90 153d 79d5 4c3d 107a 2a3d
000002e0: 2de5 6c3e ffb4 43bd 69c7 92bd ff58 733c
000002f0: 6fc9 bfbb e4a3 12be 66fa 8e3c ed19 223e
00000300: 64c5 f83c b844 74bd d496 88be 671e bbbc
00000310: f724 72be c723 23bd 1cfb b2bc e0c4 783d
00000320: 07df ed3c 4be5 9f3d 686b 7fbd 7a88 ae3d
00000330: 08a0 8b3d 4074 7dbd b42b aaba 6698 283e
00000340: 8aaa 05be 6306 af3d 68d7 37be df77 dd3c
00000350: 4e81 933d 6f13 e63d ef16 74bc 82c1 233e
00000360: 0232 063d f364 54bd 358b 06be bc8f 553d
00000370: f96a 383e 4f8d 7a3d 92de 103d 8791 333e
00000380: 36a0 77b7 a4eb 99bd a564 c23d 0bf7 0d3d
00000390: 2022 0cbe e724 413e 87c2 c4bc 9f19 f53c
000003a0: 9045 2bbe 75d6 abbe 964e 163e 16d4 ee3d
000003b0: bff4 973d 2c6c 07bd 50fc dbbb f2cd e5bd
000003c0: 8354 d0bd 0ccb 1a3d 92dd d5bd b56e b2bd
000003d0: 35a7 fbbd cfda 59be 0177 c73d 206d 3f3e
000003e0: d454 933d 803a 663d 937e e9bc ef44 abbc
000003f0: bbc5 3abe d088 68bd 6f58 56bc 4415 79bd
-0.28044605 0.09410721 -0.15360272 -0.01371733 -0.04842704 -0.04584331 0.10854083 0.22220102
-0.04161786 -0.037210885 -0.088186525 0.16508962 0.19101205 0.09177856 0.04609074 -0.15626667
-0.020595087 -0.036426872 0.023715273 0.047156543 -0.03067773 -0.0491069 0.14476481 0.034883734
-0.052519936 0.17590834 -0.11675444 0.17848377 -0.04621924 0.07348006 -0.051719733 -0.060843065
0.07280847 0.16502367 -0.087575614 -0.060305357 0.073628455 -0.053655453 0.102570996 0.17027676
-0.15111075 0.052809414 0.055022195 0.19196473 0.009715479 0.05092467 -0.023478845 0.13696322
0.02340571 0.07692779 -0.09246201 0.14209706 0.04343681 0.12363787 0.030499779 -0.010254659
-0.008552904 0.039979123 -0.050923716 0.012263543 0.09719175 0.02238977 -0.017976303 -0.04773041
0.014047271 -0.09026641 0.026899675 -0.01495089 0.026564892 0.0018443039 -0.010976381 0.028629677
-0.025484987 0.05213235 0.035933822 0.10526666 0.10585674 0.029860595 -0.05882062 0.08798451
-0.10534405 0.1656258 -0.056353364 -0.19963755 -0.10950791 0.13794446 -0.26634172 0.06673692
-0.28190196 0.0433252 -0.007250045 0.09548967 -0.06991391 0.20635304 -0.006732641 -0.081646904
-0.026207142 0.05572862 0.0030566282 0.0944075 -0.13111387 0.1547928 -0.20400119 0.015946459
0.035781536 0.02209316 0.021351108 -0.010906326 -0.028832298 -0.10008065 0.031363837 -0.04677105
-0.0057677063 0.14182694 0.007340302 -0.0004495206 -0.05303099 0.13713843 -0.09283635 -0.30426094
0.04424402 0.20666921 -0.047156163 0.20554188 -0.10803139 0.09082333 0.0011744925 0.23142636
-0.04077078 -0.045957197 -0.13344097 0.058942642 0.06892137 0.06127517 -0.12689811 0.2020832
0.013579943 -0.06842584 -0.056021046 -0.16627935 -0.03737629 0.10107197 0.030808875 -0.121739864
-0.11951348 0.1422936 -0.2703926 -0.32365242 -0.11356728 -0.011075538 -0.08887189 0.2058932
0.020838067 0.11479883 0.38607374 -0.17408706 -0.020167343 0.0034273134 -0.26157504 0.0037079917
0.10263578 0.104212336 -0.02483376 0.105994426 0.027147064 0.17625357 0.0043509984 0.034141198
0.029362092 0.0079180645 -0.0002922212 -0.040439233 0.0066352934 0.025226796 -0.051911093 -0.012538531
0.012532834 -0.010804752 0.015458419 0.02730193 -0.08555869 0.036514867 0.05000827 0.041620314
0.23134299 -0.047780033 -0.07166941 0.014852761 -0.00585287 -0.14320332 0.017453384 0.15830202
0.03036756 -0.059635848 -0.26677573 -0.022841645 -0.23646913 -0.03982904 -0.021848254 0.06073463
0.029037012 0.07807406 -0.06235829 0.085221246 0.06817633 -0.061878443 -0.0012982995 0.16464385
-0.13053337 0.0854614 -0.17953265 0.027034698 0.07202397 0.112341754 -0.014898046 0.15991786
0.032762535 -0.051854085 -0.13139041 0.05213903 0.18009557 0.06116992 0.03536851 0.17535983
-1.4759649e-05 -0.07515648 0.09491853 0.034659427 -0.13684893 0.18861733 -0.02401854 0.029919444
-0.16725755 -0.33562055 0.14678416 0.11661546 0.074197285 -0.033062145 -0.0067134276 -0.112209216
-0.10172369 0.037791297 -0.10442652 -0.08712522 -0.122877516 -0.21274875 0.09739495 0.18693972
0.07193914 0.056208134 -0.028502738 -0.020906894 -0.1823949 -0.0567711 -0.013082608 -0.060811296

encoder_lstm1.weight_hh_l0 f4 [256, 64]
00000000: ed6d 16be 884e 203c 7b7c 383e 1630 563d
00000010: 0a12 07be 1c43 1bbd 5535 00be f093 983e
00000020: bca0 22be 52e1 4cbe 2bde 403e b316 06be
00000030: 8ab9 a83d 2901 82bd 4601 eabd 6ca1 08be
00000040: 2159 ba3d 022f 033d a10d 9abe 593a 173d
00000050: 1e93 223e 4e18 f0bd 1e01 c03d e308 1ebd
00000060: c96d cf3d 026d 5d3e 66e9 d33d 27ba 7f3e
00000070: 0fe5 693e 65e8 01be f431 0d3e fcb3 073e
00000080: 1e9d 323e 0159 803e 4150 ba3d e3e6 6ebe
00000090: 71a9 c73d 9182 9c3d 620c 543e d75b bcbd
000000a0: e90b e4bd 035c 2c3e 27eb 08bd ef4c 393d
000000b0: 81bf b73c 53c8 4dbe 44b9 a83b d1dd 65be
000000c0: 2b12 05be 213b 643d 3594 5dbe 0a54 3d3e
000000d0: d241 613e a91a 803e 4685 bb3d f3b1 af3d
000000e0: 2ffc 80be bd78 cf3d 65ce 1ebe ccc4 e33b
000000f0: 8ca3 a9bd 8a15 983d 19ed 86bd 455f ca3c
00000100: e703 333d 62b0 13bd 1774 143d 8ca7 fa3d
00000110: 9269 04be f79f 9fbd 7705 dabd e48e f63c
00000120: ccee 75be b9a3 49bd 351c 4a3e c390 1bbe
00000130: b039 e43c f01e 0e3d 5fca fabd 73fa b8bd
00000140: f5c5 85bd 47e4 253e 26e7 1a3d 214c 3b3e
00000150: db19 2c3e 77e7 aabd 715d 82bd 750b 90bd
00000160: 8c8a 2b3d c95a 283e 9eac e9bd 7589 f03d
00000170: a5c0 633e fc0a 463d 0402 653e 6fb5 063e
00000180: affa 0a3e 1294 753d f07f 2e3d ebde a33d
00000190: eaac 3bbc d1aa ed3c fe5b ee3d b080 ae3d
000001a0: 78b5 82be d649 d13c 8036 0ebd b0bf 213e
000001b0: 714e 1abe f35b 0cbd 298f 3fbe 66de 56be
000001c0: d0ac a5bc 9cce b13d 5425 87be 5560 243d
000001d0: eac0 213e ffce b43b c2b6 6cbd 936e ca3c
000001e0: 8ec1 ffbc 4dfe 793c 5dfb 8d3b fc53 473d
000001f0: bde2 2dbd a882 25bd 3242 8e3c 5ff9 a1bc
00000200: 9d45 973e 0a4d 073e 074c 723d 845c a33e
00000210: 3c85 6bbe 0302 95be 7914 f7bd 07ac 133e
00000220: 5399 9bbe bd2d 8fbe ac28 8f3e 53e5 38be
00000230: 587b 383e 363e 853c b75a 88be e760 3fbe
00000240: 6c51 de3d 04ef cc3c d7cb 97bd ca8f c43e
00000250: 46cb 303e f90e acbd f204 96bc 07a8 93be
00000260: c289 6b3e dce9 9c3e ba77 fcbe 937a 183e
00000270: 5b6f bb3e 35f1 95be fa15 f23d 8515 073e
00000280: 7c5c b03e 83b2 073e ea02 7f3e 4e8b f6ba
00000290: 7fa0 673e 0b1b 2d3e 8c28 3b3e f47d 92be
000002a0: 3444 e1bd 91fc 543d 5398 51be f804 8f3e
000002b0: 145b 92bd 3333 cbbd 0d9e 2a3e c78e 18be
000002c0: a7f9 a3be b469 143e c8ae 47bc d0d5 0a3e
000002d0: e918 9f3e ef86 633e a301 f33e fbc3 fbbd
000002e0: b799 74be 568b 523e 1b81 243d c6c6 2c3c
000002f0: be0d b7be 7f75 963e fc2a ddbd 09da 2c3e
00000300: ee9d 9a3e c040 013e 3ec6 a53e 9e1c ba3d
00000310: 6184 25be 9987 67be 021d 9bbe bcb7 913d
00000320: 3c18 2ebe ed91 32be a608 1a3d c464 53bc
00000330: db45 d73d a46d a73e 93f6 cebd ace4 83be
00000340: e462 073e 5677 723e 7d4c 51be 376a 133e
00000350: 1301 543e 6eb3 73be 7fa2 1fbe 7b82 ffbd
00000360: 539e 633e c49b 3e3e f646 efbd 2771 85bd
00000370: f0c3 4d3d 3efa 583e 8caf c13d 90f7 453d
00000380: 66ed b13d 4141 a23e 43ea 943d 6f65 053e
00000390: 88de f33d 186c 043e 6094 133e 689b 18be
000003a0: 0867 60be 4ff2 eb3d b1be 8bbe 5e61 84bc
000003b0: 34e9 f0be 6d11 d3bd bf0d 6cbe ed9b 8dbe
000003c0: 6768 9abe 4905 623e 3770 d4be 1d1d 303e
000003d0: 0a04 8dbc dcb1 4b3d aafe 4abd 9fbe 723d
000003e0: fc2a ba3d e625 7c3e 7887 a73e 2a8f 643e
000003f0: e733 f5bc e61e c53d 3f22 2ebe a128 7f3e
-0.14690371 0.009784348 0.18016236 0.052291952 -0.13190475 -0.037905797 -0.12520345 0.29800367
-0.15881628 -0.20007828 0.1883475 -0.13094597 0.08238514 -0.063478775 -0.11426024 -0.13342828
0.09099031 0.032027252 -0.30088523 0.03692088 0.15876433 -0.11723386 0.09375213 -0.038582694
0.10128362 0.21623614 0.103472516 0.24973355 0.22841285 -0.12686308 0.13788587 0.13252252
0.17442748 0.25067905 0.090973385 -0.23330264 0.09749115 0.07642091 0.20707849 -0.091972046
-0.11135084 0.16831975 -0.033427384 0.045239385 0.022430183 -0.20095949 0.0051490385 -0.22447897
-0.12995212 0.055720452 -0.21638568 0.1848909 0.21997765 0.2502034 0.09156279 0.08578863
-0.251924 0.10130451 -0.15508421 0.0069509503 -0.08283147 0.07425983 -0.065881915 0.024703631
0.043704893 -0.036056884 0.036243524 0.12238988 -0.12930897 -0.07794183 -0.106455736 0.030097432
-0.24016875 -0.049228404 0.19737323 -0.15191941 0.027859539 0.034697473 -0.122456305 -0.090321444
-0.06531898 0.16200362 0.037818097 0.1829076 0.16806738 -0.0834493 -0.06365479 -0.07033435
0.041880175 0.16440882 -0.11409877 0.11744968 0.22241457 0.04835032 0.2236405 0.13155149
0.1357219 0.059955664 0.04260248 0.080015026 -0.0114548 0.029012116 0.1163864 0.08520639
-0.25529075 0.025547903 -0.034719944 0.15795779 -0.15068986 -0.034267377 -0.18706955 -0.20983276
-0.020224005 0.08681986 -0.26395667 0.040130932 0.15796247 0.00551784 -0.05779148 0.024710929
-0.031220224 0.015258384 0.0043329434 0.048664078 -0.042452563 -0.040407807 0.017365549 -0.01977223
0.29545298 0.13212982 0.059154537 0.3190652 -0.23000044 -0.29103097 -0.12064452 0.14421092
-0.30390415 -0.27964583 0.27960718 -0.1805623 0.18015802 0.016265016 -0.2663171 -0.18689309
0.10855374 0.025016315 -0.07411926 0.38390952 0.17265043 -0.08401293 -0.018312905 -0.28839132
0.23001769 0.3064717 -0.49310094 0.14890508 0.36608395 -0.2928559 0.11820598 0.13191803
0.3444556 0.1325169 0.24903455 -0.0018809827 0.22619818 0.16904847 0.18277186 -0.2861172
-0.10999337 0.05199868 -0.20468263 0.27933478 -0.07146278 -0.09921875 0.16661854 -0.14898215
-0.32026407 0.14493448 -0.012187667 0.13558125 0.31073692 0.22219442 0.47462186 -0.1229324
-0.23886763 0.20560965 0.040162187 0.010545438 -0.35752672 0.29386517 -0.10799214 0.16880049
0.30198616 0.12622356 0.3237781 0.090874895 -0.1616378 -0.2261032 -0.3029557 0.07115123
-0.17001432 -0.17438479 0.037605904 -0.012902442 0.10511371 0.32700837 -0.10105624 -0.257604
0.13221318 0.23678336 -0.20439334 0.14395986 0.20703535 -0.23798916 -0.15589331 -0.12476059
0.22228365 0.18614107 -0.116834566 -0.06515723 0.05023569 0.2118921 0.09457311 0.048331797
0.08687858 0.3169041 0.072712444 0.13026975 0.11907679 0.1293186 0.1441207 -0.14903033
-0.21914303 0.11520826 -0.27293923 -0.01615971 -0.4705292 -0.10306058 -0.23052119 -0.27658024
-0.30157778 0.22072329 -0.41491863 0.17198606 -0.01721384 0.049730167 -0.049559273 0.05926382
0.0909023 0.24623832 0.32720542 0.22320238 -0.029931976 0.09625034 -0.17005251 0.24917842

encoder_lstm1.bias_ih_l0 f4 [256]
00000000: e79b 103f c591 e53e 58a2 8f3e 89b0 023f
00000010: 0a32 ac3d 5b44 4e3e 00d8 003f b306 a03e
00000020: eef1 c03e a061 103f 9ae9 193e 0f2a 313f
00000030: 733c c43e ff4f e13e 23c4 433e 9125 993e
00000040: af62 0c3e e4bf 283e c296 763e 1aaf d23e
00000050: eb29 d13e b877 803e 2e22 c73e c19a 613e
00000060: f898 bd3e 2a15 f53e 72ae 4d3e 7e14 983d
00000070: bf09 cd3e ca3f 353e 3a17 e73e 384c c73e
00000080: 4f15 c63e e9e1 ee3e 2bfd 9a3e 81d3 963e
00000090: 3aa9 c73e 21b6 d23d 06a8 f23e 3fab 873e
000000a0: 2b36 c03e 2e41 3a3f e352 7a3b f8ea 493e
000000b0: 094c fb3e c425 143e 6d61 523e 9db7 6c3e
000000c0: a7c1 193e f8c9 673e 2d54 073c dc36 fb3e
000000d0: 17d1 3c3d d1df e53d 9cfa 4d3e fb46 593e
000000e0: df55 693e 39c1 c13e 11b9 263e 18ea 223e
000000f0: 7466 2c3e e455 303e fb38 4a3e 5d49 ce3e
00000100: 034c 08be ab6f 04be 7844 283d d5f7 d93d
00000110: e5a0 4dbe f658 a1be a467 6c3c 97db bdbd
00000120: 6df3 21be 1b7c 1ebd ed03 2cbe e296 51bd
00000130: 8ba5 0abd 189f 6cbe a48f 0dbd 1deb 373b
00000140: 1970 093d 9e81 18bd a8b3 c2bd 6aa1 87ba
00000150: 20fb 823d cdcb 11be e8a7 0ebe 4c47 8ebd
00000160: 66ea a2bc 2d85 913d f620 6bbe 9fa4 4ebe
00000170: ac60 66be 5800 82be 86f3 ecbd 5074 11be
00000180: 1673 d3bd ba7f 0e3d 615e a7bd 1b9f e5be
00000190: 0409 10be 849d 853c a0ac 27be c044 d7bd
000001a0: 534c adbe 4d7f 4f3d c187 08bd be04 d1bd
000001b0: c546 aabe cc35 9ebd 88c5 03be 66db dbbd
000001c0: 48b9 eebd 5705 883d 0844 4fbd 44cf 74be
000001d0: 85df b2bd 8d8d 2fbd c345 63be cf7e dbbc
000001e0: f04c 9ebb bfd8 acbd f197 78bd ab6f 78bd
000001f0: 4ebe dcbd 32cf eabd 6897 07be b572 a2bc
00000200: 2859 033f ee66 d23e e7a9 aa3e 1893 d53e
00000210: d24b 1d3e 4e38 82be feca a6be 128b cf3e
00000220: 703f debe 1bd8 0dbf 0319 bc3e e34c 11bf
00000230: 8ee3 253e c12d 3e3e 2568 a0be bfc2 b4be
00000240: 56de a03e 0269 c53e c568 00bf 80f1 793e
00000250: 7c57 e73e 654e bcbe 89e8 a4be 7051 acbe
00000260: 59d7 d63e 013e ff3e 03fe dabd bd22 92be
00000270: 12df 503e 8022 babb d269 0f3f 8932 ad3e
00000280: c898 c03e 1f28 9f3e 88e2 d83e d80d 79bd
00000290: c1fe e43e 1153 793e a6b4 e33e e24e 3abe
000002a0: 1906 1abe 972b 073f ffad e23c 9c46 d73e
000002b0: a011 67be 1bd6 353e ec76 f0bd 0f73 f9be
000002c0: 08b2 4dbe 8186 b13e cbaf 46be 4702 093e
000002d0: 9ee9 963e 3530 003e 9137 3a3e 24aa 61bb
000002e0: d248 21be 66cc f13e 17f9 fc3d bb85 bf3d
000002f0: 83c7 cabe 3d72 83bc 5c1c 47be 4f04 ce3e
00000300: 96bf a43e 3922 aa3e 46ba a83e 867a 183e
00000310: 50c7 1f3e 3d1d ec3e 7289 573e 141d 1e3e
00000320: b3c8 693e fb40 1d3e bebd 263e a3e2 3b3e
00000330: 6858 493e 39fc 7a3f 5d9a c13d b56c 8e3e
00000340: 6993 5a3e 56f3 4d3e 9d79 163e ee57 cf3e
00000350: 4f38 913e 402b ac3e 8714 873e 66aa 483e
00000360: 2ee2 dd3d b1f0 433e 319a 093f 3239 163e
00000370: df03 c53e c28c d03e fd79 9b3e fc72 6f3e
00000380: e6a1 913e 37e6 9f3e 51a7 053e 45c2 003f
00000390: d6c4 a63e cecd ab3b 823b b03e 7327 093e
000003a0: 9441 5b3f b86f 933e fd41 2d3e e43a 083d
000003b0: 37be 303f b11c 583e c6e6 d23e c744 a33e
000003c0: a834 b43e e7fa 593e e646 c6bd f566 f33e
000003d0: 0405 1c3e 912a 673e 1b6d 3a3e 6e85 323e
000003e0: c9af 9f3e 80c1 003e 37fb 043d 6195 083e
000003f0: 2141 a63d e7c0 e93e 6cb0 783d 13b5 3f3e
0.5648789 0.44837776 0.28053546 0.5105062 0.08407982 0.20143263 0.5032959 0.3125511
0.37684578 0.56398964 0.15030518 0.692048 0.3832737 0.44006345 0.19117789 0.29911473
0.1370952 0.1647945 0.24080947 0.41149217 0.40852293 0.25091338 0.38893265 0.2203169
0.37030768 0.4786771 0.20086077 0.074257836 0.40046498 0.17700115 0.45134908 0.38925338
0.38688132 0.4665673 0.30271277 0.2945824 0.38996297 0.102886446 0.47393817 0.26497838
0.37541327 0.72755706 0.0038196377 0.1971854 0.49081448 0.14467531 0.20544977 0.23116918
0.15015279 0.22635639 0.008259815 0.49065292 0.04609784 0.1122433 0.20115131 0.21218483
0.22786663 0.3784273 0.16281535 0.15909612 0.16835958 0.17220265 0.19748299 0.40290347
-0.13310246 -0.12933223 0.041080922 0.10642973 -0.20080908 -0.31513184 0.014429007 -0.09270399
-0.15815516 -0.038692575 -0.16798373 -0.051169284 -0.03384928 -0.23107564 -0.034560814 0.0028063722
0.03355417 -0.037232988 -0.09506923 -0.0010347788 0.063955545 -0.142379 -0.13931239 -0.069471925
-0.01988716 0.071054794 -0.22961792 -0.20179985 -0.22497815 -0.25390887 -0.11569886 -0.14204526
-0.10324685 0.03478978 -0.08172298 -0.4484795 -0.14065939 0.01631046 -0.16374445 -0.1051116
-0.33847293 0.050658513 -0.03333259 -0.102059826 -0.33257118 -0.07725105 -0.12868321 -0.10735206
-0.11656433 0.066416435 -0.05060199 -0.2390719 -0.08734039 -0.042859603 -0.2219458 -0.026793865
-0.004830949 -0.084397785 -0.060691778 -0.06065337 -0.10778485 -0.114653006 -0.1324135 -0.019830087
0.51307917 0.41094154 0.3333275 0.41713786 0.15360954 -0.25433582 -0.32576746 0.4053579
-0.43407774 -0.55407876 0.36737832 -0.56757945 0.16200086 0.18572141 -0.31329456 -0.3530483
0.3141963 0.38556677 -0.50159866 0.24408531 0.45183933 -0.3677856 -0.3220866 -0.33655882
0.41961172 0.49851993 -0.1069298 -0.28542128 0.20397595 -0.0056803823 0.56020844 0.33827618
0.37616563 0.31085297 0.4236033 -0.060804218 0.44725612 0.24348094 0.4447376 -0.18194154
-0.15041389 0.5280089 0.027670858 0.42046058 -0.22565317 0.17757456 -0.117414325 -0.48720595
-0.20087445 0.3467293 -0.19402997 0.13379775 0.2947511 0.1251839 0.1818526 -0.0034433687
-0.15750435 0.47226256 0.123521976 0.09351679 -0.3960534 -0.016045684 -0.19444412 0.40237662
0.32177418 0.33229235 0.32954615 0.14890489 0.15603375 0.46116057 0.21048525 0.1544078
0.22830467 0.1535682 0.16283318 0.18348174 0.1966263 0.9804111 0.094532706 0.27817312
0.21345295 0.20112357 0.1469483 0.40496773 0.28363273 0.33626747 0.2638285 0.19596252
0.10834156 0.19134785 0.537509 0.14670256 0.38479516 0.4073239 0.30366507 0.23383707
0.2844383 0.31230327 0.13052107 0.5029643 0.3257205 0.0052430397 0.344204 0.13393955
0.8564694 0.28796172 0.16919704 0.033259287 0.69040245 0.21104695 0.4119169 0.3188841
0.35196424 0.21287118 -0.096814916 0.47539487 0.15236288 0.22574832 0.18205683 0.17433712
0.311888 0.12573814 0.03246614 0.13338234 0.08117891 0.45654985 0.060715124 0.18721418

encoder_lstm1.bias_hh_l0 f4 [256]
00000000: da56 023f f09c f53e cf8a 8a3e e8d4 983e
00000010: 50a3 8c3e 8807 7a3e 7a72 c63e 5cff 6c3e
00000020: 2cb3 fe3e 7830 023f 144e 423e 7c28 333f
00000030: d6da fa3e 89e0 db3e 002e 923e 7342 fe3e
00000040: 8d51 793e 3702 943e 8bcb a53e d1f7 a23e
00000050: f3d3 983e 2ba0 113e ff18 c43e 0560 513e
00000060: 40c3 af3e 89b7 0d3f 8ef6 8e3e 20db 9f3d
00000070: 6db4 f33e 9a90 433e a2d2 023f 161f ea3e
00000080: 8b20 d03e 39aa 803e 699b 7e3e f92e c03e
00000090: bde2 ad3e 1b24 393c 3eb9 bc3e d992 a23e
000000a0: 654f d93e d289 073f 7bd7 8c3a 89af c83e
000000b0: 13a0 f93e dc95 a23d 4b43 223e 58e7 693e
000000c0: 6399 993e 2621 5f3e fc4a 08be 2c2c c43e
000000d0: c473 cf3c fb67 a1bc 320d 893e 77fe 253e
000000e0: 833c 333e 0db0 d33e 9d40 fa3d 865f 213e
000000f0: 607f 093e 3420 9f3e 0de5 fd3d 616e d13e
00000100: a1b2 4b3c fbf5 8cbd e535 093e 7641 f6bc
00000110: 3ea2 49be a9d1 b3be c5f3 943d 9327 28be
00000120: c988 fd3c f6ec 8a3b b322 00bd 26bd 8bbd
00000130: 7da3 85bd 4154 a9be cac4 28be 0065 1bbe
00000140: 2d19 22bc 8e2e 9ebc 4e1f debd 968a 19be
00000150: ff30 04be 448d d5bd 9b75 0f3d 57b5 c5bc
00000160: e891 16be a18a bc3c c2a3 27be 3b77 3bbe
00000170: 9995 5abe 5949 8abe 34c3 d8bd 958f 07be
00000180: e4fc e83c 1c08 00be 0f9d ecbc 4388 cfbe
00000190: 24dd b4bc eea1 53bd 96ce 8dbd 6041 8cbc
000001a0: 1144 bebe 64ad 9c3c 8a0c 80bc 16a1 d2bd
000001b0: a428 95be 4c95 2abe ba97 67be e6be cbbd
000001c0: 9d0e a5bd 5018 bf3c 64ad 50bd db92 a2be
000001d0: e41b 6ebd a26a 33be 6a4f b1bd 6c83 12be
000001e0: 7ffb 95bd 8fdd c0bd 1139 76be fdac 3ebe
000001f0: c69f df3c 9cc4 b2be 10f9 11be 41de 53bd
00000200: f291 dd3e 7c74 8b3e 8bcb cf3e 8015 ad3e
00000210: 88c9 e7bb c150 e8bd c935 debe 0795 ac3e
00000220: b81d 9abe eafd ebbe f14f a03e 432f 1fbf
00000230: 8078 803e 6b37 a83d c50f 6abe b047 d6be
00000240: 9e6c 973e 9815 bb3e 824d f5be b4bd 8e3e
00000250: 6702 ed3e 27e7 a6be b162 e1be 8da3 85be
00000260: 46c4 0e3f 09b4 fa3e 589f 0dbe c32a 9cbd
00000270: 617c 903e 26c7 4cbe 94d3 003f bd57 9f3e
00000280: 0ad1 b33e 9f70 603e 3a32 bf3e 3800 c13d
00000290: a9b1 ce3e 1546 a73d f4b1 d53e f9e0 d0be
000002a0: ab37 68be a47c 0b3f e39b 31bd 04c7 f43e
000002b0: 8662 22be cd9f 9a3d 8439 92be 3d81 f0be
000002c0: eef8 4bbe 2322 ae3e aa9e b6bc 4552 4e3e
000002d0: 5e34 453e b3a4 523e f8ce 323c 5ae8 37be
000002e0: 9ff2 86be 883a c13e 761a 873e 91fc cf3d
000002f0: 87c9 b4be 4db5 a03c 3753 90be b005 b03e
00000300: 0e44 f23d aab5 e03e 23da a43e c0b0 513e
00000310: 409d 1c3e 7b31 b23e d1e5 f53d e604 2f3e
00000320: e385 743e 1d42 073e 1758 f83d 1949 a83e
00000330: b0ad 203e 5628 423f 56c7 243e 8ac8 9c3d
00000340: b7ff 403e f02e 093e c643 d23d 73c0 ba3e
00000350: e641 583e 3ce0 5c3e 352a d73e 50f5 9c3e
00000360: 545d 7f3e 24bf e03d 6f8e 1a3f 5971 ea3d
00000370: 5750 e33e 5cba ce3e 794a 7e3d 6aa2 933e
00000380: cc19 803e 4e6e 983e df71 5c3e bb53 de3e
00000390: 5a45 ab3d e2c5 703d 2acf 963e adee 993d
000003a0: 2304 1f3f 0637 b73e 0073 963d d7eb dd3d
000003b0: 1f76 3b3f 57f1 4f3d 411b 4a3e 0586 963e
000003c0: 5c53 b03e e26d 033e aa9b fbbd 6be8 dd3e
000003d0: 0af6 423e a6ac ae3d 7cd7 893e 7da5 663e
000003e0: f9d7 d63e 43f3 843e c72e a13c a537 643c
000003f0: 1f8b 143e 6680 1a3f 5f49 5f3e 1f11 973e
0.50913775 0.47971296 0.27059028 0.29849935 0.27468348 0.24416935 0.38759214 0.23144287
0.49746072 0.5085521 0.18975097 0.6998365 0.48995084 0.42944744 0.2855072 0.49660072
0.24347515 0.2890794 0.32381853 0.31829694 0.29849204 0.14221255 0.3830032 0.20446785
0.3432865 0.5535818 0.2792248 0.07805467 0.4759859 0.1909813 0.5110265 0.45726842
0.40649828 0.2512987 0.24863972 0.37535837 0.3396205 0.011300112 0.3686008 0.3175266
0.42443386 0.5294467 0.001074537 0.39196423 0.4875494 0.0793874 0.15845983 0.22842157
0.29999837 0.21789989 -0.13309854 0.3831495 0.025323756 -0.019702902 0.2676788 0.16210352
0.17503552 0.41345254 0.12219355 0.15759096 0.13427496 0.31079257 0.123972036 0.40904525
0.012432725 -0.068828546 0.13399465 -0.030060511 -0.19690797 -0.35120896 0.07273058 -0.16421346
0.030949013 0.0042396737 -0.03128309 -0.068231866 -0.065253235 -0.33072093 -0.16481319 -0.15175247
-0.009893698 -0.019309308 -0.10845815 -0.14994273 -0.12909316 -0.10427335 0.035024267 -0.024134321
-0.14704096 0.023015322 -0.16371062 -0.18307202 -0.2134613 -0.27009085 -0.10584107 -0.13238366
0.0284409 -0.12503093 -0.028883485 -0.40533647 -0.022078104 -0.0516681 -0.06924169 -0.017121017
-0.37161306 0.019125648 -0.01563098 -0.10284631 -0.2913257 -0.16658515 -0.22616473 -0.0994852
-0.08059428 0.023327023 -0.05094661 -0.31752667 -0.058132067 -0.17521146 -0.08657725 -0.14307946
-0.0732336 -0.09417259 -0.24045207 -0.18620677 0.027297866 -0.34915626 -0.14255166 -0.05172563
0.4327541 0.27237308 0.40584978 0.33805466 -0.007073585 -0.113435276 -0.4340041 0.3370745
-0.301008 -0.4609216 0.3131099 -0.6218149 0.25091934 0.08213695 -0.22857578 -0.41851568
0.29575056 0.36539912 -0.47910696 0.27879107 0.46290895 -0.3259823 -0.44020608 -0.26101342
0.5576824 0.4896548 -0.13830316 -0.07625344 0.28219894 -0.19997844 0.5032284 0.31121626
0.35120422 0.21917962 0.37343007 0.0942387 0.4036992 0.08167664 0.4173733 -0.4079664
-0.22677486 0.5448706 -0.043361556 0.47808087 -0.15857896 0.07550011 -0.28559506 -0.469736
-0.19919178 0.3401042 -0.022292454 0.20148571 0.19258258 0.2057064 0.010913603 -0.17959729
-0.2635698 0.37739968 0.26387376 0.10155595 -0.35310003 0.019617701 -0.28188488 0.3437934
0.11829387 0.438886 0.32197675 0.20477581 0.15294361 0.34803376 0.120067246 0.17091712
0.23879199 0.13208814 0.12126177 0.3286827 0.15691257 0.758428 0.16091666 0.07655437
0.18847547 0.13396811 0.10266833 0.36474952 0.21118888 0.21569914 0.4202439 0.3065591
0.24937946 0.10973957 0.60373586 0.114474006 0.44397232 0.40376556 0.06208274 0.2883485
0.2501968 0.29771656 0.21527813 0.43423256 0.08362837 0.058782466 0.2945493 0.07516227
0.6211569 0.35784167 0.07346153 0.108359985 0.73227113 0.05076727 0.19736959 0.29399124
0.34438598 0.12834886 -0.1228555 0.43341383 0.19039169 0.08529024 0.26922214 0.22524066
0.4196165 0.25966844 0.019675625 0.013929282 0.14506195 0.6035217 0.21805333 0.2950525

encoder_lstm2.weight_ih_l0 f4 [128, 64]
00000000: d885 e93e e072 183e 9733 d93e 026e a23e
00000010: 9399 fdbe 9aa9 a9be 096c f7be 67e8 2a3e
00000020: 6a7c d6be 7e73 f2be 7f4b f73e f98e c9be
00000030: d3d4 9e3e 922f ef3e be23 d3be f6bf 9cbe
00000040: fc89 db3e 9486 033e 56aa e7be 87f4 cc3e
00000050: fd8d cd3e abc0 5ebe 94de a3be c7e5 aabd
00000060: d4ba 8a3e 4ab4 5a3e 4e6e f5be 37b2 843e
00000070: b0fa 58bc 3e0e 17be 4222 593e 64bc 403e
00000080: de3a ce3e 9b5a be3e 80b4 eb3e 3243 78b8
00000090: bba2 ac3e 8404 1f3e 47f4 ae3e 8446 03bf
000000a0: d81f 46be ad4d ef3e 2b67 b0be aec2 a83e
000000b0: 9b71 f2be e86e 13be 1f2b 43be 0695 30be
000000c0: 454e 7ebe 9a86 a63e b4ea fdbe 185d 333e
000000d0: 122c b63d 64c7 143e 109c e63e e21f e3bd
000000e0: 578e d4be ce77 eb3d 92a7 033e eecf 253e
000000f0: ec3d 34be adcc f53e cba6 a9be c11a 8a3e
00000100: 520b 843d 53fa a93d 922e c93e 00a3 bb3e
00000110: 18ac 78be 23a3 97bd 92f3 1abd 1b38 913e
00000120: cbe4 b9bd 551c 1cbe 115c 9f3e 9e75 c0be
00000130: c32e 7e3e 1ad0 a03e 1e11 8cbe 64f4 3dbd
00000140: a6cc 343d f138 d43e d533 c13d 945d 913e
00000150: 6617 50bb c98e 1dbe 1782 97be c658 51be
00000160: 4156 b33e 8108 0f3e 45e1 1c3d 0f3c 8e3e
00000170: e390 1c3e 2b3d cfbd d894 9b3e 6fed 8e3e
00000180: 9861 8f3e 631e 373e 3777 723e 00a6 5d3d
00000190: 5142 963e 3aa1 643e be05 823e 8937 62be
000001a0: 9a80 b7be e9ab 4f3e c016 f3bd d7c2 873e
000001b0: 6131 e8bd 192f 263d db9c 93be a00b 17be
000001c0: 7b0d 81bd b07f 293d 6846 4bbe d0d9 2dbe
000001d0: c8d9 2fbc 59b8 55bd 199c 533d bd8b 13be
000001e0: 80d3 6abd abda 143e bc1d 053e 179d 313e
000001f0: ce0f b4be 43d3 013d 89d0 8dbe f934 eb3e
00000200: 7866 393e 8758 2cbc b145 5c3e fcc0 113e
00000210: f7a7 a7bc 0152 c7be 263f e1bc 35a4 4d3e
00000220: 1347 44be 1d47 e9be 53f4 e83d f1a9 35be
00000230: 446e c93d 1aa8 af3c 1ca8 d2bd 0a12 6cbe
00000240: 2ddd c43d 32b2 953e 5af3 16be 34fc 4a3e
00000250: 6b18 3e3d 8c43 8fbe d9b1 23be 3303 53bd
00000260: 0a06 423d 7430 963e da83 e8be 13f9 a33e
00000270: 7f56 4c3e ef60 4ebe f8fc 083e 3b29 b9bd
00000280: d909 b33d 16d5 843e a7a4 893d 4006 5fbe
00000290: 304f d23e 64c0 773d 8fc4 a83d ecb2 4abe
000002a0: ddb5 cdbe 797e 8f3e f2db 9ebe d8e9 933e
000002b0: f6e7 10bd 47d7 92be afb1 a6bd 75d0 12be
000002c0: 7e80 9fbe 1e73 2f3e 20a8 e5bd a3fd c43e
000002d0: e801 6e3e 153c be3d 5c1b ab3d cfff 44be
000002e0: e6da 9c3c d717 ed3d 159e 8a3d 39f5 673e
000002f0: 221f cabd 6a90 f03e ca6a d9bd bf8c 993e
00000300: 32e9 8a3e 3813 a53e ebc1 833e 632d e83e
00000310: 0684 f5be 4b6d e9be bdc9 b1be a14a a83e
00000320: 3168 a73c d2ca 92be 3274 bd3e 2d26 82be
00000330: 8ef7 b83e cba2 b33e f012 bfbe ff98 c8bd
00000340: 754d f63e 627e ed3e 0ac6 b1be eb65 ec3e
00000350: bcc2 423e a7bd 20bd 4c35 f4be 8f5f b7be
00000360: fba7 a53e 33b6 f13e b99b 86be c7cc b7be
00000370: 8b55 91be 15bd cabe 0aeb e83e 2c4b fd3e
00000380: a41e d33e d1dd c93e cc79 d43e e6d7 37be
00000390: 56ba e53e 0cce 0b3e 606f 343e c558 55be
000003a0: b880 ecbe 8c6e ca3e 0fbe 8ebe 9ed6 ab3e
000003b0: 49af 54be 04a1 44be 9c5e ccbd 239a bebe
000003c0: 8bbf c2be 78fc 4d3e d282 1cbe 02bb f43e
000003d0: 3cd1 b63e 6780 4c3e 5872 983e 6718 f33d
000003e0: b473 f3be fcc4 bc3d 8e57 8e3d 91dc 6e3e
000003f0: 8130 76be 72df b93e b6c5 90be 1ec1 6c3e
0.45609927 0.14887571 0.42422172 0.31724554 -0.4953123 -0.33137208 -0.48324612 0.16690217
-0.41891795 -0.4735374 0.48299786 -0.39366892 0.31021747 0.4671598 -0.41238207 -0.30615205
0.4287871 0.12844306 -0.45247144 0.4003031 0.4014739 -0.21753184 -0.3200575 -0.08344608
0.27095664 0.21357837 -0.47935718 0.25917217 -0.013243362 -0.14751527 0.21204475 0.18821865
0.40279287 0.371785 0.46036148 -5.9190388e-05 0.33717903 0.15529066 0.34170744 -0.51279473
-0.19348085 0.4673895 -0.3445371 0.3296103 -0.473523 -0.14397776 -0.19059418 -0.17244348
-0.24834545 0.32524568 -0.49593127 0.17515981 0.088951245 0.14529186 0.4504094 -0.110900655
-0.41514847 0.1149746 0.12856892 0.161926 -0.17601746 0.48007718 -0.33135065 0.26973537
0.06447472 0.08299699 0.39293343 0.36647797 -0.24284399 -0.07404163 -0.037829943 0.28363118
-0.09076842 -0.15245183 0.3112493 -0.37589735 0.24822526 0.3140877 -0.2735681 -0.046375647
0.04414048 0.41449693 0.09433714 0.28391707 -0.0031752228 -0.153865 -0.29591438 -0.2044402
0.35026744 0.13968088 0.03830077 0.27780196 0.15289645 -0.10119089 0.30386996 0.27915522
0.28004146 0.17882685 0.2367829 0.054113388 0.2934747 0.22327128 0.25395006 -0.22091497
-0.35840303 0.20280422 -0.118695736 0.26515839 -0.11337543 0.04057226 -0.2883061 -0.14750528
-0.06301399 0.041381538 -0.19851077 -0.1697762 -0.010733075 -0.05217776 0.05166254 -0.14408775
-0.05733061 0.1453654 0.12999624 0.17345081 -0.35168308 0.031695616 -0.27698162 0.45938852
0.18105495 -0.010519153 0.2151096 0.14233774 -0.020465834 -0.38929752 -0.027495932 0.20082171
-0.19167738 -0.45562068 0.11374726 -0.17740609 0.098354846 0.021442462 -0.102859706 -0.23053756
0.096124984 0.29237515 -0.14741269 0.1982277 0.046410006 -0.27981222 -0.15985812 -0.051516723
0.04736904 0.29333842 -0.45413095 0.32025966 0.1995487 -0.20154165 0.1337775 -0.09041067
0.08742113 0.25943822 0.06720858 -0.21779728 0.4107604 0.060486212 0.082406156 -0.19794816
-0.40177813 0.28026178 -0.3102718 0.28889346 -0.035377465 -0.2867987 -0.08139359 -0.14337333
-0.3115272 0.17133757 -0.11213708 0.3847476 0.23242915 0.092888035 0.08354828 -0.19238208
0.019147348 0.11576813 0.06768433 0.22652139 -0.09869219 0.4698518 -0.106160715 0.29990193
0.2713104 0.32241225 0.25733885 0.45347127 -0.47952288 -0.45591196 -0.34724227 0.32869437
0.020435425 -0.28670365 0.37002712 -0.2541975 0.3612637 0.3508514 -0.37319136 -0.09794807
0.4810597 0.46385485 -0.34721404 0.46171507 0.19019598 -0.039243367 -0.47696912 -0.35815093
0.3235472 0.4720932 -0.26290682 -0.3589842 -0.28385577 -0.39597383 0.4549182 0.49471414
0.41234314 0.39427045 0.41499174 -0.17953452 0.44868726 0.1365282 0.17620611 -0.20834644
-0.46191955 0.39537466 -0.27879378 0.33562177 -0.20769991 -0.19202048 -0.09978983 -0.37226972
-0.3803676 0.2011584 -0.15284279 0.47798926 0.35706508 0.19970857 0.29774737 0.11869889
-0.47549212 0.09217259 0.069502935 0.23326327 -0.2404194 0.36303288 -0.2827584 0.23120543

encoder_lstm2.weight_hh_l0 f4 [128, 32]
00000000: 52a9 1ebe 8436 0abe 7fa8 5ebe 3604 903e
00000010: 924a 623e caad 303e b749 64be 176c 203d
00000020: cc6f 1b3d e522 16be 2305 95be c233 4f3e
00000030: c0dd 033d dfcc 873d 0925 ea3d b2bd 3bbc
00000040: fedc 603e 7454 e9bd b28a ca3d 1fb3 463e
00000050: 68f5 623d 20ba fb3d b91b 653e f919 15be
00000060: baad 103e 91c1 243e 9fdc 5cbd 9e11 7c3b
00000070: 32ac 2bbe b63b 063e 2b76 4ebd f94c 073d
00000080: 3326 96be c0dc ce3b 40cd 14be 3358 df3c
00000090: ef6e 913e f0bd 053e 0d62 61be 72c2 a8bd
000000a0: d246 8f3e fadc 53be e3b4 f1bc 989f 533e
000000b0: a2e4 923d 6ce4 993e e28f 8e3e f2b3 0e3d
000000c0: 2c65 173e eae0 81bc 1f7b 343e 13ac f8bc
000000d0: faca 58bd 7cc4 70bd 7738 fd3d c2f9 59be
000000e0: 81d7 f7bd 690e 293c d83a 3e3c 6607 ef3d
000000f0: 0cb8 13be caa6 b5bc e7af c6bd f6d2 263d
00000100: a951 223e afa9 39be a6da 423c 082f 8e3e
00000110: 4bc5 4e3e 84bc f73d 915c e2bc 2cfb b43c
00000120: e3de 113d 7789 4bbe c5c4 4fbe 3906 71bb
00000130: 4108 b43d 1c15 3cbe 1596 c23c 68fb f33d
00000140: ad6c 0e3e 6a6e 693c 320e a43d afc7 803e
00000150: 0f5f 2d3d d647 673e 8944 14bd fc3c 913d
00000160: a4f4 163e 8980 163e 9bbd 01be a6ef 95bc
00000170: b2b8 883d b551 6c3d d637 103e 9f16 65bc
00000180: 2d0e 2ebe ecca dfbd 4ef9 94be c625 233e
00000190: 1e22 fc3c 1599 503c cbd5 a6be 5eaf 37be
000001a0: 2a06 3b3e db31 a6be 9a4a 84be 9708 393e
000001b0: 27cf bf3c caa2 243e b80b 423e e1b5 233e
000001c0: c638 833c 8cee f6bc b1be 7f3d 2b83 123e
000001d0: 82c8 69be d2d0 2f3d 5fe0 2bbc d508 30be
000001e0: b72d e53c 3456 933e 9b2a 4e3e 36ee b33d
000001f0: 8e27 21bd 150d 8c3e 1d54 4dbe f992 8dbd
00000200: 06fe 27be 767f 3bbe 7ce2 70be 9126 583e
00000210: ce61 3e3e 36b8 583d c6a6 49be a63f eabd
00000220: d737 0e3e 9387 83be 0b17 d9bc 98d4 773d
00000230: 8fc0 acbd 9d6e c83c 17ec 703e d482 fb3c
00000240: 75f5 c5bb b51e 713e 235c d53d 3f9b d43d
00000250: ac66 2fbe 246b 9c3c 6db5 7c3d 541a d23d
00000260: bb83 f8bd ad58 8a3e 0ff6 243d 243d 413e
00000270: 3584 23be 1c93 e03d e172 623d 62ed 4a3c
00000280: 464e a6be 6eb3 9ebd 67ee 8bbe 5832 583d
00000290: 8fd1 d43d a185 c0bd 163d 15be 1100 a6be
000002a0: 6355 933e 3ce2 26be f292 7ebe aa81 973e
000002b0: df54 cc3c e413 0e3d fe6e 963e 5422 2d3d
000002c0: 32c2 3f3e c022 853e fb29 cf3d ee48 963e
000002d0: 89eb 3cbe 5472 03be d7a3 5a3e a9c9 32be
000002e0: f1bb 273e f807 ab3e bb99 32bc 6d91 343d
000002f0: de5d 96be 3c60 033e 1dc3 f53b 694d 4b3d
00000300: 9ca6 6fbe da67 0bbe 0330 40be 0bb1 913e
00000310: a100 d43d 9a5b 943d b59d 3ebe 4ba4 f6bc
00000320: a32e 0cbe 3a13 823d d51d cfbd 4d6f 113e
00000330: 1271 903d 9029 233e 00db 8c3c 75eb 033d
00000340: 5952 323e f508 723d 967c 8b3e 697d a63d
00000350: e1ce 3bbe 6abd ef3d 5033 1e3e 5533 383d
00000360: ab75 d3bc 4df5 653e cffa 083e 79ba 923e
00000370: 15b2 bbbd a01a 1a3d 6805 733d 54a2 c0bd
00000380: 0dec 6d3d 656a 3cbe 62ec 81be 6462 36bc
00000390: 3a1b 443e cb18 203e 80da 37bd 2041 dbbd
000003a0: 9789 b63d e2d3 6bbd af1e e53c 64b1 143e
000003b0: 3f61 113e adb8 6b3d ca35 0e3e 101b d5bc
000003c0: bb1e 413e 3fdd 8c3e b194 4a3e 1ba3 893e
000003d0: 4a23 d5bd 2575 30be 8fd5 c3bc 5b5b c5bd
000003e0: e146 dbbd 43ea a93d a004 a53e 8507 413e
000003f0: 351e 94be bd7b b53d 9a5a 88bd 77f8 1bbd
-0.15494278 -0.13497359 -0.21743964 0.28128213 0.22098759 0.17253795 -0.22293745 0.039165583
0.037948415 -0.14661749 -0.29105482 0.20234588 0.0321939 0.06630873 0.11432845 -0.011458801
0.21959302 -0.11393061 0.09889735 0.19404267 0.05540982 0.1229136 0.22373857 -0.14560689
0.14128771 0.16089465 -0.05392134 0.003846265 -0.16764906 0.13108715 -0.050405663 0.03303239
-0.2932602 0.0063129365 -0.14531422 0.027263736 0.28404948 0.13060737 -0.2201006 -0.082402125
0.2798372 -0.20689765 -0.029505199 0.20666349 0.071725145 0.30057085 0.2784415 0.034839578
0.14784688 -0.015854318 0.17625092 -0.030355489 -0.05292795 -0.058781132 0.123642854 -0.21286681
-0.12101651 0.010318377 0.011610709 0.11671333 -0.14425677 -0.022174258 -0.097015195 0.04072853
0.15851463 -0.18131135 0.01189295 0.27770257 0.20192449 0.120965034 -0.02763203 0.022092424
0.035612952 -0.19876657 -0.20289905 -0.003677739 0.08790637 -0.18367428 0.023753205 0.11913186
0.13908644 0.014247516 0.0801052 0.25152346 0.042326983 0.22585997 -0.036198173 0.0709171
0.1474176 0.1469747 -0.12669985 -0.01830275 0.06675853 0.05769511 0.140838 -0.013982444
-0.16997595 -0.10927376 -0.29096454 0.15932378 0.030777987 0.01273181 -0.32584986 -0.17937991
0.1826407 -0.32459912 -0.25838166 0.18069683 0.023414208 0.16077724 0.18949783 0.1598735
0.016018283 -0.030143045 0.062437717 0.14307849 -0.22830394 0.042923756 -0.010490506 -0.17190869
0.0279759 0.28776705 0.2013344 0.087856695 -0.039344363 0.2735373 -0.20051618 -0.069127984
-0.16405496 -0.18310341 -0.23523897 0.21108462 0.18591997 0.052910052 -0.19692525 -0.11437921
0.13888489 -0.25689372 -0.026500246 0.06050548 -0.08435165 0.024466807 0.23527561 0.030702032
-0.0060412236 0.2354687 0.10417964 0.10381173 -0.1712901 0.019094057 0.06169646 0.10258928
-0.121345006 0.2702078 0.040273722 0.1887098 -0.15968402 0.10965559 0.05528534 0.012385698
-0.32481593 -0.07749067 -0.27330324 0.052782387 0.10391533 -0.09400488 -0.14574084 -0.32421926
0.28776082 -0.16297239 -0.24860743 0.29591113 0.024942813 0.034686938 0.29381555 0.042269066
0.18726423 0.26003075 0.10115429 0.29352516 -0.18449225 -0.12836581 0.21351562 -0.1745974
0.16380288 0.33404517 -0.01090091 0.044084 -0.2936849 0.12829679 0.007500066 0.04963437
-0.234034 -0.13613835 -0.18768315 0.28455386 0.103516825 0.07244034 -0.18614848 -0.030107638
-0.13689665 0.063513234 -0.10113112 0.14202614 0.070528165 0.15933824 0.017194271 0.03220697
0.17414226 0.059090573 0.2724349 0.08129389 -0.18340637 0.1170605 0.15449262 0.04497083
-0.025812944 0.22456856 0.13376926 0.28657892 -0.09164826 0.037623048 0.059331328 -0.09405962
0.058086444 -0.18399961 -0.25375658 -0.011131857 0.19151011 0.15634458 -0.044886112 -0.10705781
0.08912962 -0.057575114 0.027968733 0.14520794 0.14197253 0.057549167 0.13887706 -0.026013881
0.18859379 0.27512547 0.19783284 0.26882252 -0.104071215 -0.17232187 -0.023905544 -0.09636565
-0.107068785 0.08296635 0.3223009 0.18850525 -0.28929296 0.08861492 -0.06657906 -0.03807875

encoder_lstm2.bias_ih_l0 f4 [128]
00000000: 2390 f63e 68b0 cb3e f74c b13e d055 c83e
00000010: b872 bb3d c3dd 993e d9d2 063e 09b7 a83e
00000020: 01ce 993e c833 d33e 8ee7 623e a879 a63e
00000030: 72be 0f3e 65df f13e eb29 c73e f0ef 083f
00000040: aebf 663e a53f fd3e f468 d83e e2b8 243e
00000050: d252 aa3e b62a 8f3e 869c c63e 6d6f e23e
00000060: fa6b 863e ee0b a73d e143 b73e 8dc5 9a3e
00000070: 979e 5b3e fde6 e53e eb62 883d 2d6d b43e
00000080: c777 8fbe e912 93bd 2251 10be c4ca 86be
00000090: ed31 163e e95a b5be 0288 d63d 4363 d2bd
000000a0: a5d9 15be 3345 6e3e 17f7 d13c 1c42 b93d
000000b0: decf 32be 2843 50bc d135 7c3c 21ef a1bd
000000c0: 042d 28be 0893 46be e743 7ebe a07c 173e
000000d0: bccc 62bd 28a4 afbe 60e5 13be 6e61 4abd
000000e0: 4e23 b13c b0a7 c5bd c5cb 4cbd 73b6 42be
000000f0: 3cc0 2d3c e423 5a3c b9fb a4bd 31f0 8cbd
00000100: a3e9 2ebe 4960 0ebe 35fd 6ebe 1d95 ad3d
00000110: 8358 9ebc a7fa 7ebc 5ff2 7cbe fbb1 d8bd
00000120: f127 603e 2319 5ebd ba84 a9be 3230 893e
00000130: 1bef 3a3e 6bd2 3f3e b33b 2b3e c72e 143d
00000140: f9ea 503e eaf6 083e f688 083e 2b3e 823e
00000150: 4668 84bd 085a 573d 7dbb b63d 7f61 9abe
00000160: 6bfb f33d ddcb 333e 2cf4 2a3b ad59 8b3d
00000170: 1065 fabc 1ebb aebc a323 8bbd c79e 533d
00000180: 2f62 ab3e bdb6 c03e 17da 393e 0598 f83e
00000190: 3216 083d b109 c33e 10cb 293e 636c da3e
000001a0: ae35 293e dcc0 783b 6558 113e bee1 c33e
000001b0: 3d8e 513e ca61 9a3e 4802 ce3e 5b6e 873e
000001c0: 2bec a53e 0194 b73e ccd2 863e ac50 9d3e
000001d0: ad72 aa3e 5c9c 9a3e 5b2f ef3d 11f7 6f3e
000001e0: 902b 093f 9742 073e 7f97 953e 2700 9b3e
000001f0: 3c5c 2e3d fb0d a53e c5a3 653e d727 0f3f
0.48156843 0.39783025 0.34629032 0.3912797 0.0915274 0.30052003 0.1316637 0.32952145
0.3003998 0.41250443 0.22158644 0.3251469 0.14037493 0.4724075 0.38899168 0.53491116
0.22534057 0.4946262 0.42267573 0.16086152 0.33266312 0.27962273 0.38791293 0.44225636
0.26254255 0.08156572 0.35793975 0.30228844 0.21447216 0.44902793 0.06659492 0.35239545
-0.2802107 -0.07181341 -0.1409345 -0.26326573 0.14667483 -0.3542092 0.1047516 -0.10272839
-0.14633806 0.23268585 0.025630517 0.090458125 -0.17462108 -0.012711324 0.01539369 -0.07906938
-0.16423422 -0.19392025 -0.2483059 0.14793634 -0.05537103 -0.3430493 -0.14442968 -0.049409322
0.02162328 -0.096511245 -0.049999017 -0.19014911 0.010604914 0.013314221 -0.08055825 -0.068817504
-0.17081313 -0.13903917 -0.23338778 0.08475707 -0.019329315 -0.01556269 -0.24701832 -0.10580822
0.21890236 -0.05422319 -0.33109075 0.26794583 0.18255274 0.18732612 0.16721992 0.036177423
0.20402135 0.1337544 0.13333496 0.25438055 -0.06465201 0.052576095 0.08922479 -0.3015251
0.119131885 0.17558236 0.002608548 0.06804214 -0.030565768 -0.021329459 -0.067939065 0.051665094
0.33473346 0.37639418 0.18149601 0.48553482 0.033224292 0.3809333 0.16581368 0.42660818
0.16524383 0.003795675 0.14193876 0.38258165 0.20464416 0.30152732 0.40236115 0.26451382
0.32406744 0.35855106 0.263327 0.3072561 0.33290616 0.30197418 0.11678954 0.23434092
0.53582096 0.13208996 0.29217145 0.30273554 0.04256843 0.3223723 0.22425754 0.55920166

encoder_lstm2.bias_hh_l0 f4 [128]
00000000: 6db0 cc3e 02c1 dc3e cc5e ca3e 20ba 8c3e
00000010: 7a88 cb3e 659e c13e f4ae bd3e a9c2 dc3e
00000020: e932 963e 7c1e 513e 3a7d ce3d d2ed 0d3e
00000030: 33e0 7a3e 13be a73e 5191 0d3e 76b4 0b3f
00000040: a0c2 a13e bae0 993e 4ac2 863e 0ec8 5b3e
00000050: 4c55 cd3e 1e15 f63e 1e18 b13e a437 1c3e
00000060: e703 903e ab68 183e 24b7 a43e 43f9 b03e
00000070: 1b05 ae3e 1167 be3e 58e1 be3e a57d 0c3f
00000080: 6099 9dbe 6f79 a5bd 204b 93bd b11d 44be
00000090: 8f24 8bbd ecbf bbbe 0875 b1bd d957 5b3d
000000a0: 43c6 44bd 1955 dcbc bd0a da3d e770 3e3d
000000b0: 4d43 34be 8711 4dbd 18bc 4bbe 802d c3bd
000000c0: 6f16 17be 119d 41be 6ba6 aebe 0aa2 093e
000000d0: b7b0 8abe 7c0c 95be ece3 2abe 2fd6 d8bc
000000e0: 8d90 a9bd bea1 343e 6579 90bd 334d 0abe
000000f0: 6c27 a6bd 40d1 39be 754c 3bbe b190 88be
00000100: 39e5 e8bb 4b4f 99be 8a41 adbe b9e0 103e
00000110: 98fc 513e 5b03 b0bd e64e 9dbe 2a10 1dbd
00000120: 9418 0d3d 9e22 8ebe e7e3 84be 07f6 4f3e
00000130: b1a8 663e 1746 263e a34c 0e3e 9640 9e3d
00000140: 84b3 e33d f456 cabd 0ed2 2c3e d3d7 8d3e
00000150: f4b9 743d 6d90 2ebe 34c1 583e e92b 39be
00000160: 0f86 9bbd fb67 2b3e 0c16 0f3e dde5 d83d
00000170: cded 79be aca9 3c3c ac31 83be 8ede 11be
00000180: 2bfc 6c3e 4c40 073e fe33 9e3d 9927 013f
00000190: 3c8e 203d 2b14 c73e faf4 0c3e c8d2 973e
000001a0: d039 ed3d b3f0 413e 337e b03e b025 a83e
000001b0: cf0d ca3e 664a 963e af71 a13e a580 ad3e
000001c0: 19ff bd3e 2a49 9a3e 258d bf3e dda0 113e
000001d0: 7d08 d23e baf3 053f 77d7 a03e 7156 893e
000001e0: 733a d93e c8b5 703e 3782 9a3e c7da 863e
000001f0: c932 3f3e 421e 813e 6744 f43e 5da9 b33e
0.39978352 0.43116003 0.3952545 0.27485752 0.3975256 0.37816158 0.3704754 0.43117264
0.29335716 0.20421785 0.10082479 0.13860252 0.24499588 0.32762203 0.13824965 0.54572237
0.315938 0.30054265 0.26320106 0.21463034 0.4010414 0.48062986 0.34588712 0.152556
0.28127977 0.14883678 0.32170975 0.34565172 0.3398827 0.37188008 0.372813 0.5487922
-0.30781078 -0.08079802 -0.07192063 -0.19151951 -0.067940824 -0.36669862 -0.086649 0.053550575
-0.04804064 -0.026896046 0.106465794 0.04649439 -0.17603798 -0.050065544 -0.19895971 -0.09530163
-0.14754651 -0.18907572 -0.34111342 0.13440719 -0.27087948 -0.29111087 -0.16688508 -0.026469318
-0.08279524 0.17639825 -0.07054404 -0.13506012 -0.08112988 -0.18146229 -0.18290885 -0.2667289
-0.0071074036 -0.29943308 -0.33839065 0.14148225 0.20506513 -0.0859439 -0.30724257 -0.038345493
0.034447268 -0.27760786 -0.25955126 0.20308696 0.22525288 0.16237675 0.13896422 0.077271625
0.11118224 -0.09879866 0.16877005 0.27703723 0.05974765 -0.17047282 0.21167451 -0.18083157
-0.07593929 0.16738884 0.13973254 0.10590718 -0.2440712 0.011515062 -0.25623834 -0.14245054
0.2314307 0.13208121 0.077247605 0.50451046 0.039198145 0.38882574 0.13765326 0.29653
0.115832925 0.18939476 0.34471282 0.32841253 0.3946366 0.29353637 0.31532046 0.3388721
0.37108687 0.30133945 0.37412372 0.1422152 0.410221 0.5232502 0.31414387 0.26823762
0.42427406 0.23506844 0.3017747 0.2633879 0.18671717 0.25218397 0.47708437 0.3509015

decoder_lstm1.weight_ih_l0 f4 [256, 32]
00000000: cda9 aabe eeec c8bd 30ff b3be 6ae1 5c3d
00000010: bd3f 833e 37f1 5c3e bca6 77be 2565 18bd
00000020: d1ae 1e3e ae09 76be 7aa7 8abe 385e 423e
00000030: 096e 213e 97de 303e 08a8 c8bd d68c 64be
00000040: dfed 393e f193 8abe 45eb a63e 8f0b 3e3e
00000050: 092a 9f3e afc5 113f 701d 913e 7281 babe
00000060: 73be f43d cf4b 573e 69f5 733e bb45 1f3e
00000070: 5294 3cbe f99d debd 0d5f 963d 2c0f 273e
00000080: 9709 a6be 2f6e 5fbe 2d79 33be f74e cebc
00000090: 47ee 833e 3aa9 31bd c511 a5be 7c3d a7be
000000a0: dff7 753d 68aa 6cbe 4367 3fbe c2b6 7c3e
000000b0: 9828 8b3e 0581 283e dbda 1abc 1786 95bb
000000c0: 660b b53e 2158 b4bc 8c22 2b3e 4e44 573e
000000d0: e916 3fbe e82c e3bd 5c1d 313e 5a80 40be
000000e0: cb21 253e 1652 713e 48f6 3e3e 9ce3 d03d
000000f0: f7fe 36be 25e1 0fbf 262a a0be 5a0b 8e3c
00000100: 3331 dfbe 376a 28be 3283 8abe 746c 89bc
00000110: e307 273e 4a40 eabe 877e 50be acc6 b2bd
00000120: 0ffb a33e 9833 b6be dd93 69be 99e1 8a3e
00000130: 5de7 2a3e fafa 313e 09c2 e63d 0c24 5d3d
00000140: a090 b33e 3c05 4f3e 32af c23d 7c84 363e
00000150: 4dea 083e f1cd a2be 04e6 c43e beac 48be
00000160: ba58 ec3c f002 c83e eb0d 303e 95b2 bc3d
00000170: 86da eabd ac3b 513e 5452 20be cec0 43be
00000180: a75a 6abe 263d 5c3d a780 e4bd 2644 783e
00000190: f703 5a3b b8b2 d33d 9ddd b3bc 17db c83d
000001a0: 6f82 283e d14d 20be fe6b 1abe 40e6 01bb
000001b0: f1cf 253e cbcb 973e 1d19 8f3e c480 a7bd
000001c0: 9b2a 9e3e b935 403e 7ea4 1d3f 5665 f03c
000001d0: 6d3d debe 9495 f93d 8596 87bd 3881 0abe
000001e0: 1f39 2a3e 197c 133e e188 443e d9d8 ff3d
000001f0: 3bff cc3c 3768 af3e 4816 a43d 6534 89be
00000200: c49f d9be bd80 acbe 780b 88bd a903 f9bd
00000210: db2e 463e 16f8 4ebe f33b 59be 0523 b5be
00000220: af97 903e 7949 93be 25cf 3fbe 3fcf 923e
00000230: a693 873e c62f b93d 2b70 6ebe 68e2 4739
00000240: facf fb3c 6b1f d5be 9647 493e b2b3 973d
00000250: 5256 9b3e 0a78 84be cc6c 9b3e 2d01 58be
00000260: 23fb 893e ab83 913e f452 49be 4834 1f3e
00000270: 2599 a0be 20e2 4abe 5c2a 5bbe be80 233e
00000280: 0f06 4ebe f76c 80be 3e8c a2be 311c 873e
00000290: fdbe 813e bdfb aa3d 97f1 91be f338 dfbd
000002a0: c814 243e 856e bebe ff32 6bbe d36a df3e
000002b0: fecf ba3e 3e41 333d 76d5 cb3c ada1 953d
000002c0: d14f 773e eab0 b83b e16b 013e dbe6 b73e
000002d0: 517f 043e 57bd 9c3e a644 223e 97ec c4be
000002e0: b928 183e 80ce 233e d81d 8b3e 7b6f 813d
000002f0: e657 a5be 7be4 81be afc0 efbd e959 043e
00000300: 42d3 dfbe 20f4 82be 5ed6 f2bd 21d1 073e
00000310: 6fbe c83e 6e91 873e 1ca9 7fbe 8647 b0be
00000320: b834 7f3e e3de b4be 56a0 b4be 8869 c43e
00000330: 5c51 6e3e 6ad0 0e3e d609 adbd bd98 8abd
00000340: a37e 5a3e 514a 3cbe 8f60 973e e902 a33e
00000350: c1a9 633e 2fbd 193e 7e90 c73e ee0d 1bbe
00000360: 2bf4 cb3d 9a81 9c3e 48c1 bd3e 4cd9 c33d
00000370: d987 aabe 1889 bfbe 3402 88be 2192 36be
00000380: cd7e 4c3d 979a adbe 3ba9 8cbe 46e8 6a3e
00000390: e270 8c3e f0be a33e 700a 57be b95d a9be
000003a0: bf9e 3f3e a316 2bbe 996f abbe 42c5 c13e
000003b0: 2386 973e 1f33 5a3e fe62 443d e144 bdbe
000003c0: cbd7 6a3e bab4 e9bd 0330 5f3e a46e 413e
000003d0: c8cd 7fbe 1ed4 efbd 9c0f ee3e fda8 d0be
000003e0: 5589 ae3e 906f 813e f4e4 ea3e 5ae7 813e
000003f0: 9583 c1be d85b a53d 1e5b a0be 444d 0cbe
-0.33332673 -0.09810816 -0.3515563 0.05392591 0.25634566 0.21576391 -0.24184698 -0.037205834
0.15496375 -0.2402713 -0.270809 0.18981254 0.15764631 0.17272411 -0.097976744 -0.2231935
0.18157147 -0.27065995 0.3260137 0.18559097 0.31086758 0.56942266 0.28342772 -0.36426884
0.11950388 0.21025012 0.23824085 0.15553944 -0.18415955 -0.10869975 0.07342348 0.16314381
-0.3242919 -0.21819375 -0.17526694 -0.025184138 0.2576773 -0.043374278 -0.3224012 -0.32664096
0.06005084 -0.2311188 -0.18691735 0.24679092 0.27179408 0.16455467 -0.009451593 -0.004563104
0.3536026 -0.02201468 0.16712397 0.2102215 -0.18661083 -0.110925496 0.17296356 -0.18798962
0.16126172 0.2356647 0.18648636 0.10199663 -0.17870699 -0.5620292 -0.31282157 0.017339397
-0.43592224 -0.16446768 -0.2705322 -0.016775347 0.16311602 -0.45752174 -0.20360766 -0.087293
0.3202748 -0.35586238 -0.22810312 0.27125242 0.1668982 0.17380896 0.11267478 0.053989455
0.35071278 0.2021684 0.09506072 0.17823976 0.13370629 -0.31797746 0.38456738 -0.19597146
0.028850902 0.3906474 0.1719281 0.09213749 -0.11467461 0.2043292 -0.15656406 -0.19116518
-0.22886144 0.053769253 -0.11157351 0.24244747 0.0033266523 0.10336822 -0.02195626 0.09807413
0.16456006 -0.15654685 -0.15080258 -0.0019821078 0.16192605 0.2964767 0.27948847 -0.08178857
0.3089188 0.18770494 0.6157912 0.029345196 -0.4340624 0.12186733 -0.06620506 -0.13525856
0.16623352 0.14402808 0.1919284 0.12492532 0.025024047 0.34259197 0.08012062 -0.26797786
-0.42504704 -0.3369197 -0.066428125 -0.12158901 0.19353811 -0.20211825 -0.21214275 -0.3537828
0.28240725 -0.28766993 -0.18731363 0.2867374 0.26479834 0.09042315 -0.23284976 0.00019062462
0.03073882 -0.41625533 0.19656214 0.07407321 0.30339295 -0.25872833 0.30356443 -0.21094199
0.26949415 0.28420767 -0.1966055 0.15547287 -0.3136684 -0.19812822 -0.21402878 0.1596708
-0.20119499 -0.25083134 -0.3174762 0.26388696 0.25341025 0.083487965 -0.2850463 -0.10899534
0.16023552 -0.37193695 -0.22968672 0.43636188 0.3648681 0.04376339 0.02488206 0.07306228
0.24151541 0.005636324 0.12638809 0.35918316 0.12939192 0.30613205 0.158465 -0.38461754
0.14859284 0.15996742 0.27171206 0.06320091 -0.32293624 -0.2536963 -0.11706673 0.12924923
-0.43715864 -0.25576878 -0.118572935 0.1326337 0.3920779 0.26478142 -0.24966854 -0.34429568
0.24922454 -0.353263 -0.35278577 0.38361764 0.23273224 0.13946691 -0.08449142 -0.06767414
0.2133737 -0.18387724 0.29565856 0.31838158 0.22232725 0.15013574 0.38977426 -0.15142033
0.09958681 0.30567628 0.37061524 0.095629305 -0.3330677 -0.37409282 -0.2656418 -0.17829181
0.049925614 -0.33907005 -0.27472863 0.22940168 0.27429873 0.3198161 -0.21000075 -0.33079317
0.187129 -0.16707854 -0.3348358 0.37845808 0.29594526 0.21308564 0.04794597 -0.36966613
0.22933881 -0.11411424 0.21795659 0.18889862 -0.24980843 -0.1171038 0.46496284 -0.40753928
0.3408915 0.25280428 0.45877802 0.2537182 -0.37795702 0.080741584 -0.31319517 -0.1370135
