lstm_optimized.pth (torch, 364437 bytes, 18 tensors)

encoder_lstm1.weight_ih_l0 f4 [256, 5]
00000000: 245c 6cbd 9e08 af3c d69e dfbd 940e 343e
00000010: b314 023e e223 bb3d 4517 aebd 539c 25be
00000020: 6f1c 7b3d d403 193d 6aee 103d 07d6 e83d
00000030: e534 d63d 8bde a73d ee16 ab3d 9cde 183d
00000040: 165d 673b 2df6 ac3d de4d a53b b620 d23c
00000050: 94c0 623d 30ed 36be 5065 d53d 758e 5cbd
00000060: f546 aebc ad65 283e ce0e 01bc 5a55 b63b
00000070: 21fb f63c 8c2b 72bd 89e5 f13c a960 a6bd
00000080: 4fba 14be ee1d 443d f712 213e ed0b 61be
00000090: a274 09be f455 2f3d ea08 84be 7455 44bc
000000a0: 30eb c7bd 3951 a9bd 4f72 9a3d c8f7 fa3d
000000b0: 5217 473e e058 65bd f11b 24bc 33d4 b7bd
000000c0: a4b4 b3bc a8a4 c8bd 1213 933c 09bc b33d
000000d0: 853e 1d3d ae08 1abe 9345 353e 5d5a 28be
000000e0: 2277 d6bb ccd1 45bc 45d8 5a3c e40b 51be
000000f0: 9a1a 2fbc 7793 aa3d 3003 b6bc 2fbe 8f3c
00000100: 40d4 f83d 18f7 893d d335 1a3e 0b0f 8dbd
00000110: d7ee 0ebe 605c e3bd d1d0 83bd 5cca ffbd
00000120: 04b7 ab3d b15d 4ebd b6dc 36bc a763 4cbc
00000130: 8c8d 9abd 3c36 493c bd9f 14be 9f81 8cbd
00000140: 0058 06be a391 27be 0549 02be 48f2 bf3b
00000150: f081 3cbd 2e41 a53d bf09 513d 1c17 a2bc
00000160: e4c2 7bbd 5342 01bd c52f 17be f809 bebe
00000170: 8606 423e d9b1 6cbe d523 10bd 0849 0dbe
00000180: eeb7 0dbe 135c 793b eb8b 813d 8275 b9bd
00000190: b944 fbbd 3843 0d3e 18a0 1abe d533 713d
000001a0: c26f 9bbd 3d2e 0c3e d723 533e 9046 f4bc
000001b0: 5eda 46b9 8d28 c93d da1e 133c 4fc7 1a3e
000001c0: 411c 393e 3ac9 1e3e 8731 1c3d 3473 4c3e
000001d0: 971b 093c 3af5 cd3d a70f 6e3d 88cc 693e
000001e0: 8c73 56bd 0029 333c 7d38 093e 3461 193d
000001f0: 35c4 4cbe 6e6e 7abe 41a6 0b3e b31e 293e
00000200: 8bae 273e 0680 39be a36e 73bd 3ac4 3d3d
00000210: 5fe1 223e a7a0 75bd 4b50 9d3c ea89 7bbd
00000220: 9a98 c8bd 3f1b d0bc 7684 35bd ea91 04be
00000230: 1d1a 05be 8f22 bd3d 2529 3ebd cb83 583d
00000240: 41e8 9c3d 0515 443e d6fd 0cbd 6072 c33d
00000250: 8073 67bd 49bf 1bbd 7fa1 5a3e f164 29bd
00000260: 996a 72bd 36af 3bbe 185c 19be e048 00be
00000270: d39d 85be 02a6 11bd 6963 753d d154 853d
00000280: cd3a 30be 0ba7 cf3d dbbe c73d d409 36bd
00000290: d89b 4cbd a5bf 93bd 0220 763d 3672 e6bd
000002a0: f24e 9b3d f65c cfb9 d282 003e 746b 93bc
000002b0: 0cf9 40bd 6fae 48bb 8a0b 23be 58d6 96bd
000002c0: ee7f 1cbb 870b 2dbe 98cc bf3c 51da ff3c
000002d0: f095 043e 5594 0ebe 2320 103e ac3b 26be
000002e0: 45d9 583e 817a 7c3e 3767 cd3d c28e a3bd
000002f0: 6716 933d 87c4 48bd 0ec2 8c3d 925b 1cbe
00000300: 9795 cbbb 1858 df3d 8e1c 1fbc effe b7bd
00000310: 2a42 1e3e 1d5d 38bd 51a0 78bd 55e9 6c3c
00000320: c3bd ecbd 042e 83bd 390b 983d 68c6 0cbe
00000330: b4d9 32bd 1478 e53c e403 a4bd 1a42 d63b
00000340: b77f cf3d 75bd 65bd 85e3 7c3d 8984 c8bc
00000350: 337a e4bc b5d7 dabd d4a6 cc3d 8ae2 42be
00000360: 439d 95be f9cd 36be 4c27 9a3d 7e94 cb3d
00000370: 23e6 bdbd 2517 253e 67a2 de3c 0d32 823d
00000380: 7c82 213e 5c73 b03d f2ae 2dbe 369d efbd
00000390: 676e 923d 7827 9ebd 384d 8d3d f091 25be
000003a0: 4081 273e d2f5 413e 7c15 94bd 62ce 0bbd
000003b0: 215d 3d3e 99f3 8ebe 6362 6d3e d91f d6bd
000003c0: caf9 f13d 811c 3d3d 6516 ca3d 49a2 ddbd
000003d0: c3b6 e63c 0cfb 9f3c 3741 c9bd 7134 113e
000003e0: ceb2 213d b07c 51be ba34 8c3d 3729 63bd
000003f0: b342 b6bd 847a 8d3d 84f1 bdbd b3c8 e63c
-0.05770506 0.021366414 -0.109189674 0.17583686 0.12703209 0.091377035 -0.08500532 -0.16172914
0.061306413 0.037357166 0.03538362 0.113689475 0.104593076 0.081967436 0.08353983 0.03732167
0.0035303286 0.08445392 0.005044683 0.025650363 0.055359438 -0.17863917 0.104197145 -0.053846795
-0.02127407 0.16445036 -0.007877065 0.005564374 0.030149044 -0.05912356 0.029528396 -0.08123905
-0.14524196 0.047880106 0.15729891 -0.21977206 -0.13423398 0.04280658 -0.2578805 -0.011983264
-0.09761655 -0.08267445 0.07541334 0.12254292 0.1944249 -0.05599296 -0.010016427 -0.08976021
-0.021936722 -0.09797031 0.01795343 0.08776099 0.0383897 -0.15042374 0.17702322 -0.16440721
-0.0065449635 -0.012073945 0.013357227 -0.20414692 -0.010687495 0.08328908 -0.022218317 0.017546741
0.121498585 0.067365825 0.15059595 -0.06887635 -0.13958298 -0.111016035 -0.06436313 -0.12489769
0.08384517 -0.05038232 -0.01116102 -0.012474931 -0.07546529 0.012280997 -0.1451406 -0.06860661
-0.13119507 -0.1636415 -0.12723167 0.0058577396 -0.046022356 0.08069073 0.051034685 -0.01978641
-0.06146516 -0.031557392 -0.14764316 -0.3711698 0.18947801 -0.23114718 -0.035190422 -0.1379739
-0.13839695 0.0038049265 0.06325515 -0.09055616 -0.12268967 0.13795173 -0.15100133 0.05888732
-0.075896755 0.13689514 0.2061914 -0.029818803 -0.000189641 0.098221876 0.008979524 0.15115093
0.18077184 0.1550645 0.03813317 0.19965822 0.008368394 0.10056539 0.058120396 0.22831929
-0.052356288 0.010935068 0.13400455 0.037446216 -0.19996722 -0.24456188 0.1363764 0.16515617
0.16375177 -0.18115243 -0.059431683 0.046329714 0.15906285 -0.059967663 0.019203326 -0.061410822
-0.097947314 -0.025403617 -0.044315778 -0.12946287 -0.12998243 0.09235107 -0.046425957 0.052860063
0.076614864 0.19148643 -0.034421764 0.095433 -0.056506634 -0.03802422 0.21350668 -0.04135603
-0.05918369 -0.18328556 -0.14976537 -0.125278 -0.26096973 -0.035558708 0.059909258 0.06510318
-0.1720993 0.10139283 0.097532 -0.044442967 -0.04995331 -0.07214288 0.06008912 -0.11252253
0.07583417 -0.00039551378 0.12549904 -0.017995574 -0.04711251 -0.0030621549 -0.1592237 -0.073651016
-0.0023879963 -0.16898929 0.023412988 0.031232031 0.12947822 -0.13923772 0.14074759 -0.162337
0.21176632 0.24656107 0.10029452 -0.07986213 0.07182007 -0.049015548 0.068729505 -0.15269306
-0.006212901 0.109054744 -0.009711398 -0.089841716 0.15454927 -0.045010675 -0.060699765 0.014459928
-0.11559632 -0.06405261 0.074240156 -0.13747561 -0.04366465 0.02801136 -0.080085546 0.0065386416
0.101317815 -0.056088883 0.061740417 -0.02447726 -0.0278903 -0.10685674 0.099927574 -0.1903173
-0.29221544 -0.1785201 0.075270265 0.09940432 -0.09272411 0.1612211 0.027177049 0.06357203
0.15772432 0.08615753 -0.16961268 -0.116999075 0.07149964 -0.07722372 0.06899494 -0.16168952
0.16357899 0.1894143 -0.0723066 -0.03413237 0.18492557 -0.27920225 0.23182063 -0.10455293
0.118152216 0.04616976 0.09867553 -0.10821969 0.02816332 0.019528888 -0.09826892 0.14180161
0.039477162 -0.20457721 0.06845994 -0.055459227 -0.088994406 0.069081336 -0.09274581 0.028171873

encoder_lstm1.weight_hh_l0 f4 [256, 64]
00000000: f583 93bd f301 febc 98bf 5c3d e7ba aabd
00000010: 3098 fd3d 7a7f e2bb ba4c 37bc 4ef9 a4bd
00000020: 664b 34bd 8a8d 963d 3161 973d e5b9 0d3d
00000030: 2c81 103e 6c35 073e f75c 92bd d590 d0bd
00000040: b341 63bd e985 753c 39f6 533c aadb a7bc
00000050: 9906 34bd dab2 9abd dd8c a13c 29c5 803e
00000060: 15ef 25bc d436 eebc 4dbe f53d 9ad3 92bb
00000070: 4d97 75bc 131a 77bd 0049 a93d 843c 37bd
00000080: fc20 f9bc 7471 cd3d 3c2a 363e cd04 cd3d
00000090: cbb7 d1bd 909e 4c3d 0371 35be c46f cebc
000000a0: d72e edbc 3e99 8abd 6f33 143d c7b7 cebc
000000b0: 784d a8bc 23ec fd3c 8d0e c03d c6a8 32be
000000c0: efd7 e63c bf71 18bd d035 103d 8714 10be
000000d0: 5cb8 043c ff8d 43bd 9a3d 8cbd be58 213c
000000e0: b471 d2bd 183a 85bd 66c4 193e 50df d2bd
000000f0: 6265 363d 3fba 55bd 3351 b7bc 8456 823d
00000100: 074f 95be 1eb4 14bd 9e17 693d 379a 1f3e
00000110: a900 97be b8f8 493e 49b5 17be 5a07 55be
00000120: da90 8bbe 6f3f fdbd 6e93 153d 8edc 5d3e
00000130: ddc2 363e e957 e3ba 8aed 6ebd e5f3 62bb
00000140: 643d 413e d7d1 4a3e 2d80 edbb 10ca 48be
00000150: 5588 d0bd 7830 f6bc 2571 003e c27c 92be
00000160: 94c1 003e 5a34 663d aa01 683d 39fc f7bd
00000170: ba1d cf3d ef9c e9bd dc09 a33c 5e77 32be
00000180: 07c6 8b3e eedf 543d a04b 76be a74b babc
00000190: 2dbe 713c 5c54 2e3e 36ba aa3e baa8 083e
000001a0: 6c09 36be 8bee 8bbd 60c4 a6ba 1e81 12bd
000001b0: 2fbd 6f3e 9928 2bbd 6776 56bd 3c30 aabe
000001c0: 6aaf b7be 5f52 06be 5235 433b 6993 933c
000001d0: ea11 6fbe 0d1f bd3d e50f 3a3e 1655 033e
000001e0: f589 3c3e 158c 8cbd cdfa 82bd 32d6 57be
000001f0: ab10 86be e97f a5b7 b485 343d 5ab0 2d3e
00000200: 453f 813c 7936 c03d fcd6 b13d 054e 113d
00000210: 5bd6 e8bd ab5b b53d 3b16 a13d b441 41bd
00000220: b253 97bd 6a17 d53c ae82 2d3d 50a1 a23d
00000230: 6dff 253d 1bb1 ebbc 42cb 1dbe 860c 26bd
00000240: d08f c5bd a27b e1bc e546 7dbd 7305 8cbd
00000250: 51fe 9b3d cf18 25bd 7f01 363d 790d f1bd
00000260: b695 683d 88aa 01be 1aea 633c 904b c43d
00000270: 9e53 55bd 775a 59ba ab0d a9bd 5453 523d
00000280: c329 28bd ebfc 623c 38ab 11be 3e39 b73d
00000290: fbbe 3dbd a38d 3a3d e6d8 0f3e 479d b7bc
000002a0: 1e26 3b3d 3a61 12be 760d 7c3d ac2b e8bc
000002b0: dd5a ab3d 7cd4 ad3d 7e0a bb3a 1e14 01bd
000002c0: e493 14be 472d 823d 0fe5 0dbc 8cfa 053d
000002d0: b932 d9bd a1ff ec3d c6b6 b6bd b56a 033d
000002e0: ceaa fa3d ebf6 a53d af0a 993d fb8c f4bb
000002f0: ee84 01be cfd9 013d 52d3 82bd 92e4 1a3d
00000300: d6f7 01be 98c4 4d3e c120 d93d 0acb 593e
00000310: fadc 41be 8351 e13d 8ad3 24be 05dd 2dbe
00000320: 6077 91be 9233 edbd 5b64 273e 0028 f93d
00000330: 0b78 53bd 11f7 003e 30bf 65be 40e9 563d
00000340: d69f 2a38 6edc a33e 03d4 d73c 19dd 62be
00000350: 4bb0 26be 4911 943d 20fe c2bc 4d07 96be
00000360: ee3b 5ebc 5fbf 1ebc 0a85 bdbd 47d3 dd3d
00000370: 296a 92bd 7576 733c 8244 8ebc 25fb e2bd
00000380: 4d88 1e3e 30b4 d83d cb57 813d e04e 59bb
00000390: 733b 27bb de99 80be 4455 b33e 959c cb3d
000003a0: 3b04 53be c55d d7bd 8351 a3bd d164 053e
000003b0: 0e5d 753e 4884 2dbe 31d3 efbd 8e9c 0ebe
000003c0: 1ded 74be d80b edbd 2870 44be 4a71 57be
000003d0: 89fc 3cbe 165e dd3b 0b11 703e 9a76 13bc
000003e0: f785 143e a0ab a23c 27a0 e0bc 4d31 e7bc
000003f0: 4806 19be c2f7 843d bc1a fdbc 59b0 8c3d
-0.07202903 -0.031006789 0.053893656 -0.0833643 0.12382543 -0.006912169 -0.011187727 -0.080553636
-0.044017218 0.07351215 0.07391585 0.03460111 0.14111775 0.13203973 -0.07146638 -0.101838745
-0.055482578 0.01498554 0.012937122 -0.020490486 -0.043951605 -0.075536445 0.01972049 0.2515042
-0.010127802 -0.029078878 0.119991876 -0.0044807913 -0.014989686 -0.0603276 0.08265877 -0.044735447
-0.030411236 0.10031405 0.17789549 0.10010681 -0.10240134 0.049955904 -0.17718892 -0.025199778
-0.028952999 -0.0676751 0.036181863 -0.025234116 -0.020544752 0.030996388 0.09377775 -0.17447194
0.028179137 -0.03721785 0.03520757 -0.1407033 0.008100595 -0.04774284 -0.06847687 0.009847818
-0.102755934 -0.06505221 0.15016326 -0.102965 0.04453028 -0.05217957 -0.022377586 0.06364158
-0.29161856 -0.036304586 0.05690729 0.15586172 -0.2949269 0.19723785 -0.14815249 -0.20803586
-0.2725895 -0.123656146 0.036517553 0.21666166 0.17847772 -0.0017344925 -0.058332004 -0.0034630236
0.18871075 0.1980661 -0.0072479458 -0.1960833 -0.10182253 -0.030052409 0.12543161 -0.28610808
0.12573844 0.05620227 0.056642212 -0.121086545 0.10113092 -0.11406886 0.019902162 -0.17428347
0.2729952 0.05197137 -0.24052286 -0.022741152 0.014754814 0.17024368 0.33345193 0.13345614
-0.17777032 -0.06832608 -0.0012723319 -0.035767667 0.23412012 -0.041786764 -0.05235901 -0.33239925
-0.35876018 -0.1311736 0.002978642 0.018014627 -0.23346677 0.09234438 0.18170126 0.12825426
0.18412001 -0.06862656 -0.06395493 -0.21077803 -0.26184592 -1.9729096e-05 0.04407282 0.16961804
0.01577724 0.0938539 0.08683583 0.035474796 -0.1136901 0.08855375 0.07865568 -0.0471818
-0.073890105 0.026012141 0.042360954 0.07940924 0.040526796 -0.028770974 -0.15409568 -0.040539287
-0.09646571 -0.027524773 -0.06183519 -0.06836977 0.076168664 -0.040306862 0.04443502 -0.11770148
0.0567834 -0.12662709 0.013910795 0.09584725 -0.052081697 -0.00082913734 -0.0825456 0.051349
-0.041055452 0.013854246 -0.14225471 0.08946465 -0.04632471 0.04554523 0.14047584 -0.022413863
0.04569065 -0.14294901 0.061536275 -0.028341137 0.0836694 0.08487794 0.0014270095 -0.031513326
-0.14509541 0.06356292 -0.008660569 0.032709643 -0.10605378 0.11572195 -0.0892158 0.032084186
0.1223961 0.081037365 0.07472741 -0.0074630952 -0.12648365 0.03170186 -0.063879624 0.037815638
-0.12692198 0.20094526 0.106019504 0.2126886 -0.18931952 0.11001875 -0.16096321 -0.16978844
-0.28411388 -0.11582102 0.16346876 0.121658325 -0.051628154 0.12594248 -0.22436213 0.05246854
4.0680017e-05 0.32004112 0.026346212 -0.22154655 -0.16278188 0.072298594 -0.023802817 -0.29302445
-0.013564093 -0.009689181 -0.09253891 0.108313136 -0.07149155 0.014859785 -0.017366651 -0.11083058
0.15481682 0.10581243 0.06315573 -0.0033158585 -0.0025517612 -0.2511739 0.3502599 0.09941975
-0.20607083 -0.10515932 -0.079745315 0.1302674 0.23961279 -0.16944993 -0.117102034 -0.13926908
-0.23918577 -0.11574525 -0.19183409 -0.2103931 -0.1845571 0.0067556007 0.23444001 -0.009000445
0.14504229 0.019857228 -0.027420117 -0.02822175 -0.14943802 0.064925686 -0.030896537 0.06869573

encoder_lstm1.bias_ih_l0 f4 [256]
00000000: 53a4 803e f000 c93e c457 443e 6c02 8e3e
00000010: 2657 593e acd1 a03e 29b2 7f3e 9ec9 b03e
00000020: 0306 6d3e 8e04 103e 207d a63e 1fd7 bb3e
00000030: afe5 6a3e c17c 9a3e 41cf 533e cb5f 313e
00000040: b87e 123e 24bc 503e fe94 f33d 01a7 6e3e
00000050: c765 013e 4a38 3b3e d018 db3d 33d8 d3bc
00000060: b353 563e 3d4c 19bd be17 843e 3a18 603d
00000070: 1752 533e 48f7 873e dd66 1e3f 37de 3f3e
00000080: 416d 573e 1c6c 963e 8e26 5a3e 1f41 883e
00000090: 42d3 953e b6ca 9d3d 7626 9e3e 20a6 9a3e
000000a0: 99ee 0f3e 0152 a63e e792 2d3f 9820 253e
000000b0: 531a 4b3e b969 1e3e 8e7d a13e f177 8dbc
000000c0: d7cc c53d 9b94 bd3b 8ce8 ba3e abcc 9f3d
000000d0: e148 c83e beca 143e 1c64 493e fbe0 bc3e
000000e0: de06 633e 5c85 093f 59e3 9a3e 98a9 203e
000000f0: 86dd 9d3e 083e 5f3e 924d 1c3e 7714 383e
00000100: c7fc 02be 462b 083e 52e3 14be b939 71be
00000110: c0f6 b5bd 91b8 6f3c d90d 54bd c7a6 c3bd
00000120: bbec 46be e7a8 2bbe e982 0c3e 834a 8a3d
00000130: 1279 52bd 007a 1abe 2634 41bd f6b2 33be
00000140: a53c 05bc db54 6abe 055e a2bd 093f a93d
00000150: 7236 f7bb 8cc5 44be c66f edbc 46c6 abba
00000160: 75a2 a1bd a5b8 a3bd 3c81 48be 6f7e 26be
00000170: 81b9 51be c25f a6bc 9a34 1c3e 3b23 c8bc
00000180: acc1 5bbe ce41 ffbd 2de6 74be 4940 c4bd
00000190: ee88 83bd 6647 61bd 7f77 b4be c036 d0bd
000001a0: ddac 4ebd 78a4 253d c9e8 97bc 9760 0bbd
000001b0: fdf8 cebd ea2c 53bd 2fb8 3dbd 01bb 3bbe
000001c0: 8707 00be 1cc9 29be 8523 37bd 932f 93be
000001d0: a761 473b 2a47 2f3d 0b16 00be 66f4 e73c
000001e0: 1991 01be f440 5bbd c450 99bd a0a4 1dbe
000001f0: 8850 2dbd 4c71 61bd 7507 09be 79fb 7fbd
00000200: 3171 9bbe 9558 f33e 61cc 343e 1798 c53c
00000210: 1f59 6cbe 86d7 e43e af0d b8be 35bb abbe
00000220: 40d8 203e 3dfa 51be f7c4 da3e 34c8 dc3e
00000230: ef87 31be 3904 4e3e ce9d 4a3c 84ec 40be
00000240: b4ca 3c3e 3656 503d 9d36 003e 92d6 3ebe
00000250: ceef 89be 7a6d 473e e238 ad3d d8da 04be
00000260: 204c c33e 74db dc3d 771f 35be c279 28bc
00000270: eb19 2f3d a968 77be b60c e7be f1cd e3be
00000280: 277f 893e 6079 513e 65b0 45be fc56 71be
00000290: 3041 a4be c6e2 a43c 0376 4b3e 8feb d03e
000002a0: b8f1 16be 6837 92be a322 a3be 9287 7b3e
000002b0: cf20 133e 740b 67be 7846 cebe 1874 b63c
000002c0: 682e 40be 1b66 a6bd 7385 16be 24d3 173e
000002d0: 2faa cabe e859 1c3e de1f 363e 9cca d23e
000002e0: ede3 2c3e 7e6e e5be e096 21be 322c 29bd
000002f0: 4421 95be dfc1 3c3e 6c36 5d3e dfcc 963e
00000300: f066 8b3e 6738 b13e 2352 973e 998a aa3e
00000310: a5bb bd3e 7389 9f3e 3cbc 1f3e 1732 de3d
00000320: 43f8 383e d8b5 843e 0eda 513e 00ef d03d
00000330: 711c db3e d166 383e ca96 3e3e 95dd 833e
00000340: 920a 083d f0f3 fb3c ea25 1fbc ab18 213e
00000350: 4c66 e53d 92a1 f13d b3b2 403e 2af9 b53d
00000360: cd8f ca3d 6826 94bd fda5 9f3e 9783 653e
00000370: 1d80 a83d 0869 063e 1d3c 803e 1ae3 423d
00000380: ec70 bb3e aaf9 b33e 3b4e be3e d014 ba3e
00000390: 7b93 903b 4a20 cfbb 4b70 2b3f 1e9f 573e
000003a0: a4aa 4f3e 9d7a 793e 88a6 da3e 2e7e a03d
000003b0: bc8d 903e 871b c13d fd89 203e a9b7 493c
000003c0: 949f d23e 4229 363e a82d 8f3e dfff 3a3e
000003d0: 3838 cf3d 009f fe3d 491a 003e 2861 673e
000003e0: f148 0a3e 7dd4 873e 73db a03d 2981 e0bc
000003f0: 225f b43e 827b 033f f33f 893d 2b03 403e
0.2512537 0.39258528 0.19174105 0.27736223 0.2122465 0.31409967 0.24970306 0.34528822
0.23146825 0.14064237 0.32517338 0.36687562 0.2293918 0.30173305 0.2068453 0.17321698
0.14306152 0.2038427 0.118936524 0.23305894 0.12636481 0.18283191 0.10698092 -0.025859928
0.20930366 -0.037426222 0.25799364 0.054710604 0.20636784 0.26555848 0.61875707 0.18737112
0.21037771 0.29379356 0.2130377 0.26612183 0.2926274 0.0770468 0.30888718 0.30204868
0.14055862 0.3248444 0.6780228 0.16125715 0.1983426 0.15470017 0.31541103 -0.017269107
0.09658211 0.0057855374 0.36505544 0.07802709 0.39118102 0.14530465 0.19667095 0.36890396
0.22170588 0.53719115 0.30251577 0.15689695 0.3083307 0.21801007 0.15263966 0.17976557
-0.1279174 0.13297758 -0.14539841 -0.23557176 -0.088849545 0.014631406 -0.05177102 -0.09553295
-0.19426243 -0.1676365 0.13721813 0.06752493 -0.051384993 -0.15085602 -0.047168873 -0.17548737
-0.008132135 -0.22883932 -0.07928089 0.08263976 -0.007544332 -0.19215983 -0.028983962 -0.0013105355
-0.07892314 -0.079942025 -0.19580549 -0.16259168 -0.2048092 -0.020309333 0.15254441 -0.024430862
-0.21460599 -0.12463723 -0.2391593 -0.09582574 -0.06422602 -0.05499973 -0.35247418 -0.10166693
-0.050457824 0.040440053 -0.018543618 -0.034027662 -0.101060845 -0.051556505 -0.04631823 -0.18333055
-0.12502871 -0.16580623 -0.04471161 -0.28747234 0.0030423196 0.042792477 -0.12508409 0.02831478
-0.12653007 -0.05352874 -0.07486108 -0.1539483 -0.04231313 -0.05503969 -0.13381751 -0.062495682
-0.30359796 0.4752852 0.1765609 0.024120374 -0.23080872 0.4469568 -0.3594794 -0.33541265
0.15707493 -0.20505615 0.42728397 0.43121493 -0.17337011 0.20118798 0.012366725 -0.18840224
0.184367 0.050863467 0.12520833 -0.1863654 -0.2694077 0.19475356 0.08458115 -0.12974107
0.38144016 0.10784045 -0.17687784 -0.010282936 0.042749327 -0.24161018 -0.45126885 -0.44493058
0.26854822 0.20456457 -0.1930557 -0.23568338 -0.32080984 0.020127665 0.19869237 0.40804717
-0.14740646 -0.28557897 -0.31862363 0.24563435 0.14367984 -0.22562963 -0.40288138 0.022272155
-0.18767703 -0.08124944 -0.14699344 0.14826638 -0.39582965 0.15268672 0.17785594 0.41170204
0.16883822 -0.4481086 -0.1578021 -0.041301914 -0.29126942 0.18433331 0.21602792 0.2945318
0.27226973 0.34613344 0.29554853 0.33308867 0.37057224 0.31159553 0.1559915 0.10849398
0.18063454 0.25919986 0.20493338 0.10201836 0.42795137 0.18007971 0.18612209 0.2575499
0.033213206 0.030755967 -0.009713629 0.15732066 0.11201152 0.11798395 0.18818168 0.08885415
0.09890709 -0.07233888 0.31181327 0.22413479 0.08227561 0.13126004 0.25045863 0.047579862
0.3660959 0.35151416 0.3716906 0.36344004 0.0044121123 -0.006320988 0.6696822 0.21056792
0.20279938 0.2436318 0.42705178 0.07836567 0.28233135 0.094290785 0.15677638 0.012311854
0.41137373 0.17789176 0.2796452 0.1826167 0.10118145 0.124326706 0.12510027 0.22595656
0.13504387 0.26529303 0.078543566 -0.027405338 0.3522883 0.5136033 0.067016505 0.18751208

encoder_lstm1.bias_hh_l0 f4 [256]
00000000: 8f76 ad3e f44a ea3e 8c9f 303e ad12 993d
00000010: bb18 ab3e d2e0 873e 4807 343e 2a45 893e
00000020: 5bc4 7e3e db0a f63d 9ec0 c53e ebcf 993e
00000030: d907 423e c51f 843e 97bf 3f3e 9fd4 1d3e
00000040: e692 303e 8017 313d 4f80 ad3d 9466 873e
00000050: 1145 623e 62f5 cc3d b782 0f3e 9fc0 323e
00000060: d5fb 9b3e de6c c7bd 4869 f23d 415e 323e
00000070: 9df1 1e3d e027 b23e b922 093f 1176 653e
00000080: c643 b63e f716 bf3e 54c0 5c3e f645 993e
00000090: fdd2 403e acea 0c3d 4c29 903e e0e8 9a3e
000000a0: 58c6 803e a535 933e 6483 093f ba7b 9ebc
000000b0: d1db ae3e 4190 143e d0a4 6d3e 2864 a73d
000000c0: 2362 c83d 871a 303e 91a5 0b3e eb60 093e
000000d0: 6d95 cb3e 4fbf 423e 6997 0cbd cc34 573e
000000e0: 5a29 1d3e 5656 fa3e a70e 763e ae46 273e
000000f0: d895 873e d893 963e cc8b 533e b39b 893e
00000100: 7308 29be df40 153d 4858 0bbe 9593 42be
00000110: fe53 b8bd 9d8c d7bd e3bc b2bd 1e30 f83c
00000120: 1b4c 04be abad 8a3b 27e2 a73c 5b28 14bd
00000130: 640a 26be 0f4d b1bd 63ac 62be ece6 c6bd
00000140: 3db1 ed3d 0789 e8bd de92 0abd 7042 16be
00000150: a0d3 bc3b de47 24be 47aa 1bbe e96f 58bd
00000160: 48fc fb3d 77df 6dbd f3b9 7abd 3188 38bd
00000170: 94b5 41be 3afd 88bd 762a 9b3d 4115 0e3d
00000180: 0091 f1bd d10a b0be 5a25 82be 52cf 023c
00000190: 9c79 9e3d ede8 e8bb 5ef4 8bbe 134d 4bbd
000001a0: 2495 923c 407e 90bd f19c 23be c4a2 8bbd
000001b0: 9263 20be 2a70 ce3d aab1 b73d 7900 0c3c
000001c0: f312 26be 71fe 99bd 209c 60be 436c 76be
000001d0: eb72 22bd f014 983d 9182 f6bb 8988 23be
000001e0: d7cc cdbd c743 a3bd 74e3 123b f3fd 88bd
000001f0: ac68 343c 503b 60be f995 0dbc f1ea f6bb
00000200: 49a1 b2be d931 003f 2e41 873e e764 18be
00000210: 6952 34be e0d5 f93e 4453 d0be 4918 bbbe
00000220: 3997 85bd 9ed3 20bd 25fe f33e 82eb 753e
00000230: 192b 013c 430c 5b3e 03cf 44be f956 d8bb
00000240: 848d a93e 0ae7 8d3c 0581 c73d 58f9 73be
00000250: c4d5 62be 466a 163e 048e 183e 508a 8e3d
00000260: 0940 8e3e fae7 e03d 1cd5 92bd 6fd9 86bd
00000270: e702 813d a900 6fbe 91b7 0cbf d1f4 eabe
00000280: ffa4 5d3e 7004 2a3e 37fa 69be 9e93 d3be
00000290: 5768 c7be 6064 5c3c 89c9 483e f184 ee3e
000002a0: 35c6 82bd ea6a abbe 4488 d2be fcde 213e
000002b0: 579a 5e3e e35d 8ebe 56a2 e9be db71 20bd
000002c0: 85a6 cebd 41f2 31be 0533 adbd e262 5dbd
000002d0: fd99 a6be 00e7 643e ae92 5d3e 19c0 823e
000002e0: 21dc 443e d0b8 dabe c41a 46be 8b92 26be
000002f0: 454b 5cbe e88b ae3d 3d70 8a3e 4a92 9b3e
00000300: fac1 0a3e 8925 513e be73 4b3e 8d70 983e
00000310: bb1c c63e 3845 913e 545b 7e3e f24f 293e
00000320: b58d 8c3e 35e6 5d3e ee74 793e 14d8 af3d
00000330: fde4 983e ca41 ac3e 7e66 953e 155f 623e
00000340: 1c5d 023e ae58 623e 2e6e db3d 838d 973d
00000350: ac72 ac3d 15f8 503e c30d 2f3e 9801 943d
00000360: 235a 013e e32a b23d 7a30 433e b388 813e
00000370: 97d9 da3d 2a4d 333e efdd 873e ca02 f93c
00000380: c8ab af3e 54e5 df3e 4e4e e93e 1cdd 9a3e
00000390: c3d3 183e 1f30 c13d a006 0d3f 3924 7b3d
000003a0: 0ce4 123e 9791 c13d 2c42 c53e 22e9 283e
000003b0: 9295 bb3e 029d 0e3e a711 5e3e 917b 5ebc
000003c0: 39df 563e d2ec cf3d f2b1 d23e 9f86 873e
000003d0: 3c3e 0e3e b78e 5b3e 188d c13a 2f49 843e
000003e0: 1471 cd3c c218 323e 5af4 4e3e 8397 ed3d
000003f0: 520a ac3e 0b04 ce3e 7987 c53d 8389 ff3d
0.33879516 0.4576031 0.17248362 0.07474265 0.33417305 0.26538712 0.17580903 0.2681058
0.24879591 0.12013789 0.38623518 0.3004144 0.18948306 0.25805488 0.1872543 0.1541314
0.17243537 0.043235302 0.084717385 0.26445448 0.22096659 0.100077406 0.14014708 0.17456292
0.3046557 -0.09737562 0.11836487 0.17418768 0.03880464 0.34796047 0.5356861 0.2240832
0.35598582 0.37322208 0.21557742 0.29936188 0.18830486 0.034403488 0.28156507 0.30255795
0.25151324 0.28751865 0.5371611 -0.019346107 0.34152082 0.14508153 0.23207402 0.081734
0.09784343 0.1719762 0.13637377 0.13415878 0.3976244 0.19018291 -0.034324083 0.21016234
0.15347806 0.48893994 0.24029027 0.16335556 0.2648151 0.2940967 0.20658797 0.26876602
-0.1650713 0.03643882 -0.13607895 -0.1900161 -0.09000395 -0.10524867 -0.087274335 0.030296382
-0.12919657 0.0042321286 0.02049358 -0.0361713 -0.16214901 -0.08657276 -0.22136073 -0.097120136
0.11606071 -0.11354261 -0.03383147 -0.14673781 0.0057625324 -0.1604304 -0.15201674 -0.0528411
0.12303978 -0.05807444 -0.06121249 -0.045051757 -0.18916923 -0.06688924 0.07576458 0.034688238
-0.11795235 -0.34383252 -0.25419122 0.007983999 0.07738039 -0.007107845 -0.27334875 -0.04963405
0.017893381 -0.0705533 -0.15977837 -0.068181545 -0.15662983 0.10079987 0.089694336 0.008545035
-0.16218166 -0.07519234 -0.21934557 -0.24064736 -0.039660376 0.074258685 -0.007522889 -0.15970053
-0.10048836 -0.07971912 0.0022413405 -0.06689062 0.011011284 -0.21897626 -0.008641713 -0.0075353314
-0.34888676 0.5007606 0.26416916 -0.14882241 -0.17609562 0.48795986 -0.40688527 -0.36541966
-0.06522984 -0.039264314 0.47654834 0.2401562 0.00788381 0.21391396 -0.19219594 -0.006602165
0.3311578 0.017322082 0.097414054 -0.23825586 -0.22151858 0.14688978 0.14897925 0.06959975
0.2778323 0.10981746 -0.07169554 -0.06584441 0.06299382 -0.23340096 -0.549676 -0.45889905
0.21644972 0.16603255 -0.22849356 -0.4132356 -0.38946792 0.013451666 0.1960813 0.465858
-0.06385461 -0.33480006 -0.41119587 0.15807718 0.21738563 -0.27806005 -0.45631665 -0.03917108
-0.10090355 -0.17377569 -0.08456997 -0.05404938 -0.3253936 0.22353745 0.21637985 0.25537184
0.19224598 -0.42719126 -0.19346148 -0.16266839 -0.21513088 0.08522779 0.27038756 0.30385047
0.13550559 0.20424475 0.19868371 0.2977337 0.38693795 0.28373122 0.24839526 0.16534403
0.27451864 0.21669848 0.24361011 0.085861355 0.29862204 0.33643943 0.29179758 0.22106583
0.12730831 0.22104141 0.107143745 0.07400038 0.084203094 0.20407136 0.17095093 0.072268665
0.1263204 0.08699586 0.19061461 0.25299606 0.10686033 0.17509905 0.2653651 0.030396838
0.34310746 0.4372965 0.45567554 0.30246818 0.1492453 0.094330065 0.55088234 0.06131384
0.14344805 0.09451597 0.38527048 0.16495183 0.3663755 0.13927081 0.21686421 -0.013579265
0.2098359 0.10152592 0.41151386 0.26469895 0.13890928 0.2144116 0.0014766781 0.25837085
0.025078334 0.17392257 0.202104 0.11601164 0.33601624 0.4023746 0.0964498 0.124774

encoder_lstm2.weight_ih_l0 f4 [128, 64]
00000000: e64f cbbe bcfc d53e df45 063f 2cf4 6cbe
00000010: fc07 81be a14c fd3e 1900 a6be 1729 93be
00000020: 9b3c dbbd 09b6 dbbd 317e 823e 9aed 423e
00000030: 0387 84bc 3fdb a63e 795f 54be 5313 3a3e
00000040: d161 9a3e dcc5 463e 4aa7 ba3e 1410 8fbe
00000050: 455f 5abe d109 903d 68d1 a93e 4f21 bdbd
00000060: 9ddc 3b3e d9f0 9e3e 6ead 47be eba0 773e
00000070: 084e 303e 5c47 bebe 5c36 acbe 93ad 43be
00000080: 9a19 623e 96e3 e13e dbd0 7cbe 349e 55be
00000090: 0fde b8be 37b8 013f 8f1c ac3e 8b56 b53e
000000a0: 6eb3 a6be efa0 92be 80ab 8ebd e629 933e
000000b0: 72c5 7a3e 2641 cdbe 9bd9 d5be 34e4 2cbe
000000c0: d5e6 bcbe b4c8 ccbe 1106 d0be 46a1 713d
000000d0: 6023 d9be ef93 7d3e fc7f d73e ac05 813e
000000e0: d19a 5e3e 6269 b9be a47b bebd b1c5 4cbe
000000f0: d92a 8abe e7df 493e ec8c a53e fa60 333e
00000100: 3026 3abe fa2e 693e 86f7 353e 6fe5 c9be
00000110: 2008 abbe 8931 933e 7c06 e0bd 508f 2abe
00000120: 0b3d 77be 488e 54be 161e d13e 2786 9c3e
00000130: eac2 ddbe fa36 413c 9d0b 24be dcae babc
00000140: 3422 b33e 07fd f43e f799 c53e d47a 8ebe
00000150: 4f4b 09be 098c b53d e4e1 a43e f188 f5be
00000160: e7ad 533e 844e 883e f072 77be 7d41 023e
00000170: 968e 933e 49d8 4e3d f2dd 6cbe 537f c3bd
00000180: ba08 a03e 1cf2 3dbc 0132 76be 2c0f f0bd
00000190: f9eb 07be 28f9 603f 6a86 c73d 8a6b 033e
000001a0: e518 a4be 7061 f0bd c249 65be 66d9 793e
000001b0: f7f1 863d a169 b3bd 5b25 2bbe 2ae4 a1be
000001c0: 4569 c4be 289f c6be 1b94 743d ad71 92be
000001d0: 0fe6 9ebe 6186 db3d 0b35 a13e 1062 bfbd
000001e0: 1eae a33e 87eb 1fbe e465 97be 3a83 29be
000001f0: f73c 9bbd a647 f83c 5a8d 833e 014a d33d
00000200: 73c4 823b a1fc bb3d 9efd 073e 9142 203d
00000210: 6112 75be 781b 3a3e 33e5 c93d 0bd9 02be
00000220: c851 27be f2cb 93bd 8c8c 293e d5c5 b93e
00000230: 441f 2cbe 87a7 b03d c37b 16be 6e09 9abe
00000240: 02c4 2f3e 3838 3d3e 3334 d03e 88e9 a7be
00000250: 2e34 75be 3bcf b2bd 8066 d33e 8b3a 36bf
00000260: c0f6 b33e 9d7a 853e a35b 79be aa53 593e
00000270: 602c a83e 2d88 383e cdb7 9abe e8b2 4cbe
00000280: 961b 8f3e 01f7 2f3e 2fea 1fbd d53a cfbd
00000290: 4cd9 cebd 22ad e23e a226 4f3e 1a09 bc3e
000002a0: a92d 37be ddba 10be 9465 dabd 8787 633e
000002b0: ea47 c73e c1e9 d0be fafa 80be acd9 e5be
000002c0: 7166 51be 748c b1be 279b 9f3a 571c c2bd
000002d0: d3c5 88be 3854 943e 6e2e e63e 1938 0ebb
000002e0: e2e8 2f3e 3742 27be 909e 1bbe 4193 b6be
000002f0: b686 9cbd ea65 2ebd ec6e 9f3e 1885 b03e
00000300: e4e7 98be cd86 cd3e 9093 da3e 7fa9 77be
00000310: ce9f acbe 07b6 a83e a1bc 1dbe 613a dcbe
00000320: b395 8abd 5b9d 85be 4cda b43e b7c8 dd3e
00000330: 2a2b 9abe 695f 503e e6fa 83be 647e 76be
00000340: d692 c73e a60e 623e 8eb9 6a3e 5e55 f1be
00000350: 14b7 c8be 057c 6c3e d62f ca3d ec57 aabe
00000360: b383 aa3e fde3 c33e 56a7 e0bd f816 903e
00000370: ce03 033e e130 73be 8bcb 8cbe 6409 d0be
00000380: 999e 693e 54a7 9b3e 24f7 32be c5ba ddbe
00000390: 3abd 88be e74e 313d f2ef a53e c6e1 de3e
000003a0: d5e1 a0be 14c9 77be 23af 32be c3f4 523e
000003b0: cf22 f53e 8545 74be dee9 c7be edc3 7dbd
000003c0: 5173 ddbe a8c4 68be efe7 72be c1e5 b7bc
000003d0: 9d25 8cbe 2090 2e3d b366 2b3e 1211 323e
000003e0: 0247 813e c8c0 a6be a34b acbe ce1e 57be
000003f0: b443 16be adc1 f53d 854c bc3e 5026 8f3e
-0.39709395 0.41794384 0.52450365 -0.23140019 -0.25201404 0.49472526 -0.3242195 -0.28742287
-0.10704919 -0.1072808 0.254869 0.1903595 -0.01617766 0.32589146 -0.20739545 0.18171434
0.30152753 0.19411415 0.36455756 -0.27941954 -0.21325405 0.07033122 0.33167577 -0.09234869
0.18345876 0.31043127 -0.19499752 0.24182479 0.17217267 -0.37163818 -0.33635223 -0.19109182
0.22080079 0.44118947 -0.24689047 -0.20861131 -0.36106917 0.50671715 0.33615538 0.3541759
-0.3255877 -0.28638408 -0.06966305 0.28742903 0.24489382 -0.40088767 -0.41767582 -0.16883928
-0.3689486 -0.39996874 -0.40629628 0.058991693 -0.424098 0.24763463 0.42089832 0.2519964
0.21738745 -0.36213213 -0.09300926 -0.19997288 -0.26985815 0.19714318 0.32334077 0.17517462
-0.1817863 0.22771826 0.17770204 -0.39432856 -0.33404636 0.2874873 -0.10938737 -0.16656232
-0.2414438 -0.20757401 0.40843266 0.305711 -0.4331277 0.011792893 -0.16020055 -0.022788458
0.34987032 0.47849295 0.38594028 -0.27828085 -0.13407634 0.088646 0.3220359 -0.4795604
0.20671807 0.26622403 -0.24164939 0.12720294 0.28819722 0.050499234 -0.2313154 -0.095457695
0.31256658 -0.011593368 -0.24042512 -0.11721644 -0.1327361 0.8788018 0.09742434 0.12833992
-0.32050243 -0.11737335 -0.22391418 0.24399337 0.0658912 -0.087603815 -0.16713469 -0.31619388
-0.38361564 -0.38793302 0.059711557 -0.28602353 -0.31034896 0.1071899 0.3148578 -0.09344876
0.31968778 -0.1561719 -0.29569924 -0.16553965 -0.075799875 0.030307602 0.2569378 0.103168495
0.0039907037 0.091790445 0.13280341 0.039125983 -0.23932792 0.18174541 0.098581694 -0.12778108
-0.16339791 -0.07216634 0.1655752 0.36283746 -0.16808802 0.08625703 -0.14695649 -0.3008532
0.17164615 0.18478477 0.40664825 -0.32795358 -0.23945686 -0.08730932 0.4128914 -0.7118308
0.35149193 0.2607011 -0.24351363 0.21223322 0.32846355 0.18020697 -0.30218354 -0.19990122
0.27950734 0.17184068 -0.039041694 -0.10118643 -0.1010004 0.44272715 0.20229581 0.36725694
-0.17888512 -0.14133783 -0.10663906 0.22219668 0.38922054 -0.4080334 -0.2519148 -0.44892633
-0.20449235 -0.3467747 0.0012176976 -0.09478062 -0.26713428 0.28970504 0.44957298 -0.0021700917
0.17178681 -0.16333853 -0.15197206 -0.3565922 -0.076428816 -0.04257766 0.31139314 0.34476542
-0.29864419 0.40141907 0.42690706 -0.24185751 -0.3371567 0.32951376 -0.15403987 -0.4301329
-0.06766834 -0.26096615 0.35322797 0.43317196 -0.30111057 0.20348896 -0.25777358 -0.24071652
0.38979214 0.220759 0.22922346 -0.47135442 -0.39202178 0.23094185 0.09872405 -0.33270204
0.33303604 0.3825988 -0.10969417 0.28142524 0.1279442 -0.23749115 -0.2749904 -0.40632164
0.22814406 0.304011 -0.17477089 -0.43306556 -0.26706868 0.043288138 0.32409626 0.43531626
-0.31422296 -0.24197799 -0.17449622 0.20601182 0.4787812 -0.23854645 -0.39045614 -0.061954428
-0.43252042 -0.22731268 -0.23721288 -0.022448422 -0.27372447 0.042617917 0.16738395 0.17389324
0.25249487 -0.32568955 -0.33651456 -0.21007845 -0.14674264 0.11999831 0.3677713 0.27958918

encoder_lstm2.weight_hh_l0 f4 [128, 32]
00000000: 6b4c 89be 72e9 c5bd 786b e7bd bcf9 933d
00000010: c85c 753e fa2d 633e fcd9 83be 4850 133b
00000020: fc7d 2e3e 60dc 84be c98f aabd a833 2fbd
00000030: f15e 85be 270d 553e cd96 3a3d 8207 bc3d
00000040: 877f b23d 7b29 d03c 4611 0c3e a7a1 2fbe
00000050: 082b 8b3d d7f6 843e 078a 35be 24f5 cc3d
00000060: ad1b 86be 7df7 d6bd 63d7 b83a d6ad 93be
00000070: 2ca5 6dbe 083c 8f3d bea5 31be 3b02 0fbd
00000080: b78b 7bbd 6e06 e73d 8fa6 aebd 50f3 0ebd
00000090: 9f92 543e 9f5f 2a3e 1f1e d6bd d7c5 3fbe
000000a0: 3a98 593e fedf 95bd b825 f9bd 65d8 273e
000000b0: caf9 85be 8a9c 1b3d e860 48be b8cf 5a3e
000000c0: 8dca 0d3e 664e 683d f47b 823e 5965 683d
000000d0: a3e5 8fbd ca01 a23d f279 793d 67c4 993a
000000e0: 8ad5 6dbe f7bd 763d 7c62 14be 4a25 91be
000000f0: 8b03 743d c404 2ebe f942 07bd 7a34 933d
00000100: dc05 5cbd c339 13be 6158 533e 31b8 443e
00000110: 9439 d03d ba34 b63d 9c8d 8e3d 41e2 2c3d
00000120: 2478 ca3d 6eb4 14be 3677 cfbd 33d1 363e
00000130: fa2d 9f3c 75aa cc3d 9af6 ddbd 5ddf e63c
00000140: 5181 4e3e 11bd f7bc 622f 073d 44e1 4cbe
00000150: 5d81 14be aaac 963d 6d46 0cbc e5f1 4dbd
00000160: c1b4 d0bd 41ae 84bd fcde 61be 0891 88be
00000170: ca26 703d fa8c 873d 70b3 f13b 62a6 5b3d
00000180: 6145 5ebd 80df a6bc deb4 483d 13f9 06be
00000190: 2892 153e a0fa 34bc 541b 44be 2e78 28be
000001a0: 5b0a 1e3e c9dc 2d3e 7036 963d 902f f93d
000001b0: ab52 d0bd 7ff3 86bd 2ebb 22be 5ac3 6a3e
000001c0: c517 253e 340c 41bd a7d7 6a3d c7d1 06be
000001d0: 3918 d6bd 09a9 853d 80d3 10bd 2a04 ab3d
000001e0: 0e07 81be c229 10bd f4d8 4dbe 462f 9cbe
000001f0: ed84 73bd 7917 01bd f601 73be 59db 373e
00000200: e5a1 d1bd b8ef bc3b 5c41 403e df28 723c
00000210: ce4c 613d 2b1b e13c 37c7 46be 68ae 9b3b
00000220: 76b0 793e d161 f6bd 7086 313e e3e2 e03c
00000230: 29c4 8ebe 56ac 0bbe 4a6f 773d 97bb c83d
00000240: 8d49 b63d 8867 453d 7216 02bc c0a5 433c
00000250: b485 9abe 95b7 8c3e 4a98 d03d 0633 afbd
00000260: f79d 963d e75b 0abd 6a67 db3b 7b00 abbd
00000270: 3d9b 8dbd 30a1 3e3d 5138 30be 5d27 2e3e
00000280: 89ac f8bd c4f8 a9bd 069d 323c 734e 6c3e
00000290: 8dd6 6a3e 738f 503e b24e a9be aef8 69be
000002a0: 7cde 913e 85e4 ebbd 985b 3dbe ea11 933d
000002b0: 66a4 283c 2617 c53d 9c6d a9bd 9ee8 853e
000002c0: 09ba 823e f047 b3bd 1582 5d3e 39b9 91be
000002d0: 69ac 23bc eae8 f8bd e71c 37be 72b1 e6bb
000002e0: 66df 0ebe ac8c 71bd 594f 90be 184c 0dbe
000002f0: e976 a9be a9a7 cf3c 7aa9 55bd c334 983e
00000300: ae29 293d d3f4 ad3d 0eab 5a3e 8b73 9c3c
00000310: 0cc5 6dbd 8855 adbd 37d2 453d 7d4a 32be
00000320: 7931 afbd 548f 5abd 9974 06be 4e57 0dbe
00000330: 615d 0ebe d86a fbbc 3bf6 053d aa2a f8bd
00000340: 989f 91bd 5163 953d 53a7 703e 03bb 403d
00000350: c162 e13a 77ac 033d 66ea 173e 629d c6bc
00000360: 7c62 7ebc 5e68 dd3c 66c6 9b3d 5388 bb3d
00000370: 1271 7a3d dae8 dbbd dbdd c1bd 2d46 95bd
00000380: f654 6abe 0868 0ebe 9abf a73d 1e2d 563e
00000390: 9de6 cb3d 26b5 803e 8fef 9b3d 9e2c 1e3d
000003a0: 0ede 5d3d 530b ee3d b6b3 e1bd 130d 6bbe
000003b0: baa1 55be 892c a53d a7aa 01bd 6964 d73d
000003c0: 7473 603c 9cfd 88be 3d7a 743e 87b8 19be
000003d0: eb02 83bc c971 8dbd ae0a f8bd 1e71 013b
000003e0: 9f99 6fbe b405 373d 3453 f5bd 59a8 8cbe
000003f0: fe91 00be 3c6a 1cbe edd8 49be dbf8 4ebd
-0.26816115 -0.09663667 -0.11299795 0.072253674 0.23961174 0.22185507 -0.25752246 0.0022478271
0.17040247 -0.25949383 -0.08328206 -0.042773873 -0.26048997 0.20805798 0.04555397 0.091811195
0.0871573 0.025410404 0.13678464 -0.17151509 0.06795317 0.25969574 -0.17728435 0.10007694
-0.2619299 -0.104964234 0.0014102276 -0.28843564 -0.2320754 0.06993872 -0.17348382 -0.034914237
-0.06141254 0.11280523 -0.08527862 -0.03490001 0.20759057 0.16638039 -0.10454964 -0.18727814
0.21249476 -0.07318114 -0.121653974 0.16391142 -0.26167136 0.037991084 -0.19568217 0.21368301
0.13846798 0.05671539 0.25485194 0.056737278 -0.070262216 0.079104975 0.06090731 0.0011731506
-0.2322599 0.06023976 -0.14490694 -0.28348762 0.05957369 -0.16994005 -0.033022854 0.071877435
-0.053716525 -0.14377503 0.20639183 0.19210888 0.10167232 0.088967755 0.069606036 0.04220796
0.09886196 -0.14521953 -0.101301596 0.1785324 0.019431103 0.099934496 -0.10838051 0.02818268
0.20166518 -0.030241521 0.033004172 -0.20007807 -0.14502473 0.07357152 -0.008561713 -0.050279517
-0.10190726 -0.06478549 -0.22057718 -0.2667315 0.058630742 0.06618686 0.007376127 0.053625472
-0.054265384 -0.020370245 0.049000613 -0.13180952 0.14606535 -0.011046082 -0.1915105 -0.16452095
0.15433638 0.16978754 0.07334602 0.12167275 -0.10172018 -0.06589412 -0.15891716 0.22926083
0.16122349 -0.04713078 0.05733457 -0.13165961 -0.10453839 0.065263815 -0.035357952 0.083504036
-0.25200695 -0.035196073 -0.20102292 -0.30504817 -0.05945294 -0.031516526 -0.23731217 0.17954768
-0.10235957 0.0057658814 0.18774933 0.014780252 0.055004887 0.027478775 -0.19411932 0.0047510155
0.24383721 -0.12030376 0.1733644 0.027451938 -0.27884033 -0.1363996 0.060408868 0.09801405
0.089007474 0.04819444 -0.007939922 0.011941373 -0.30180132 0.27483812 0.10185297 -0.08554654
0.07354348 -0.03377905 0.0066956775 -0.08349701 -0.06914375 0.04654044 -0.17208983 0.17007203
-0.121422835 -0.082994014 0.010901695 0.23076801 0.22933407 0.20367222 -0.33067852 -0.2284877
0.28490055 -0.11518196 -0.18491971 0.07181151 0.010293102 0.09623556 -0.082728595 0.26154035
0.2553256 -0.08753955 0.21631654 -0.28461626 -0.009989836 -0.121538 -0.17882119 -0.007040196
-0.13952407 -0.058972046 -0.28185537 -0.13798559 -0.33098534 0.025348501 -0.05216358 0.29727754
0.041299514 0.08493962 0.21354315 0.019098064 -0.058049247 -0.084635794 0.04829618 -0.17411228
-0.08554358 -0.053359345 -0.13130416 -0.13802835 -0.13902809 -0.030690596 0.032705527 -0.121175125
-0.07110518 0.07294334 0.23501329 0.04705335 0.0017195569 0.032146897 0.1483551 -0.024244968
-0.01552641 0.027027305 0.07606201 0.09156861 0.06114299 -0.10737772 -0.09466144 -0.072887756
-0.22883973 -0.13906872 0.08190842 0.20915648 0.09956095 0.25138205 0.076140516 0.03861677
0.054166846 0.11623254 -0.11020605 -0.22954206 -0.20862475 0.08065135 -0.031656887 0.105171986
0.013699401 -0.2675599 0.23874755 -0.15011798 -0.015992602 -0.069064684 -0.12111412 0.001975126
-0.23398446 0.044683173 -0.1197876 -0.2747219 -0.12555692 -0.152749 -0.19711657 -0.050530296

encoder_lstm2.bias_ih_l0 f4 [128]
00000000: a20f 823e 22e9 e43d 7a4c 173e 36ba 843e
00000010: 79eb d83e df87 c33e a3ef 403e 8b8f 363e
00000020: 5d24 8b3e c670 b03e aef3 c63e c3c1 8a3e
00000030: 7961 313e b336 883e 7437 c53e 5588 123e
00000040: 4acc ec3d 84b2 943e 7a7b 8e3e 859c 443e
00000050: d85c 453e 780b 5a3e 27d0 893e c6c2 4f3e
00000060: adb3 c03e a900 b03e 8c01 fb3d 6b7b 2e3e
00000070: 87e3 2d3e e562 973e 4598 a63e e770 b53e
00000080: 77a2 073d b5c5 55be be99 df3b a554 42be
00000090: b31d 0b3e f7da 6fbb 5adc 16be 1dac 08be
000000a0: ad3b 893d f29e 0dbe 3545 5dbe 873d b43b
000000b0: f373 4cbe 0ee9 0bbe 6242 0abd 37e9 ddbc
000000c0: 0488 123d 957b 933d e19d 6cbe 1faf cfbd
000000d0: bd86 e0bd fa9d efba c33b 59be 069a 293d
000000e0: 3f67 92be b599 22be 46c0 fd3d 5205 e1bd
000000f0: 0159 17be c672 32be a1f1 543c 9957 15bd
00000100: ebd0 25be 262b 8abd 26a9 fc3d d1f4 993d
00000110: b8a0 623e a08c fd3d 1a19 a7be f8d6 4ebd
00000120: 1a97 183e f501 58be f252 bc3d 8801 06bc
00000130: 5714 2dbc 8a09 a83d c8e3 b1be 5c4d 893e
00000140: 4442 943e a96c 4dbe e8e0 4c3e 427d 87be
00000150: 016b 85bd 594a a7bc 4f3f f5bd 942f 923e
00000160: a426 5dbd cc5e a8be 99ce 9abe c6d2 c1bd
00000170: 5706 7ebe 261c 76be 4d18 79bd 6c50 a53e
00000180: dc81 5c3e 9a9e 2d3e e795 e63e b8f4 df3e
00000190: 04b7 ba3e 23c7 163f 69a6 8b3e 5e06 913e
000001a0: 79f5 ca3e 5cda df3e b95e 2a3e 170d b83e
000001b0: adaa 6b3e daca 983e 1f52 b93e 89c4 4b3d
000001c0: 9bcd 663e 5241 103f 7550 ba3e d318 433c
000001d0: b4fd c53e 3279 7a3e d4bf 073e 5957 903e
000001e0: 7f0d 453e 2c35 223e e661 643e 981e a83e
000001f0: 9d4d bc3e 6b31 823e 962f bb3e 77f8 2b3e
0.25402552 0.11177279 0.14775267 0.25923318 0.4236715 0.381896 0.18841414 0.17828195
0.2717618 0.3446104 0.38857788 0.27100953 0.17322339 0.26604232 0.3851887 0.14309819
0.115624025 0.29042447 0.2782858 0.19200332 0.19273698 0.21293437 0.2691662 0.20289144
0.37637082 0.34375504 0.122561544 0.17039268 0.16981326 0.29567638 0.32538047 0.354377
0.033113923 -0.208762 0.0068237474 -0.18977602 0.13585548 -0.003659902 -0.14732495 -0.13346906
0.067008354 -0.13830164 -0.21608432 0.0055004987 -0.19966106 -0.13663122 -0.033754714 -0.027088745
0.035774246 0.07201306 -0.23107101 -0.101408236 -0.10963199 -0.0018281334 -0.21214204 0.041406654
-0.28594396 -0.15878947 0.12390189 -0.10987343 -0.14780046 -0.17426595 0.012997062 -0.036460493
-0.16192977 -0.06746511 0.1233695 0.07517398 0.22131622 0.12380338 -0.32636338 -0.05049798
0.1490139 -0.21094497 0.09195508 -0.008179076 -0.010563931 0.082049444 -0.34744096 0.26816833
0.28956807 -0.20060982 0.2000767 -0.26462752 -0.0651455 -0.020421194 -0.11974966 0.28551924
-0.05399193 -0.32884824 -0.30235747 -0.0946403 -0.24807106 -0.24034175 -0.06081419 0.3228792
0.21533912 0.16955033 0.4503624 0.43741393 0.36467755 0.5889761 0.27275398 0.2832517
0.39640406 0.43721282 0.16637696 0.35947487 0.23014326 0.29842263 0.36195466 0.049747977
0.2253937 0.5634967 0.3638951 0.011907774 0.38670123 0.24460295 0.1325677 0.2819164
0.1924343 0.15840596 0.2230297 0.3283584 0.36777964 0.25428328 0.36559743 0.16794

encoder_lstm2.bias_hh_l0 f4 [128]
00000000: 4cb9 963e c058 c93e da31 533e bfa9 bc3e
00000010: 9721 9f3e 1b98 cd3e f93b 5f3e 3bf7 453e
00000020: 68c7 af3e 44fa 7b3e 74ee 1b3e 52ad 9f3e
00000030: 8021 c93e 493c b83d 4a45 403e a88e 923e
00000040: fb3a 293e 074e 0d3f efcc 923e 4d69 8a3e
00000050: b2b2 de3e 864d 7b3e 4dac 4e3d ff8f b23e
00000060: f3a4 f43e 2499 353e f23f 4e3e e17f be3e
00000070: dcb3 5d3e 20bd d53e f8b3 843e f4a8 a53e
00000080: bca7 d2bd 5088 aabe d48b 83be 7dcd 02be
00000090: 39be 923d 1bd0 46be 0e94 82bb 23c9 95bc
000000a0: 7c33 f1bc 0227 c63b 6c80 a6bd 1983 90be
000000b0: cd24 4b3d bb4d 94bd c1a0 973d c5e6 863c
000000c0: baf6 12be d183 1abe bf00 6bbe 6346 82bd
000000d0: ff58 88be 9733 91be 3341 17be 9501 10be
000000e0: 0b63 273d 4a29 df3d 6180 a33b b50e 67be
000000f0: c748 adbd ffda 54bd 8b4e dcbc 4616 223e
00000100: af17 6abe 7ee4 65bd 6ac5 34bc ac50 9b3e
00000110: 3e22 a73e 7474 b13d bddf 5dbe b948 97be
00000120: 9b91 833e 5530 db3c 0777 70be 9f5a 113e
00000130: 54c7 5dbe 672e 5cbc 503f 49be d363 1a3e
00000140: 4ae5 3f3e 3ad7 9abe 1895 983d 10e7 d9bd
00000150: b1be 01be f82c 92bd a1da 24bd 004e 403e
00000160: 6d0e 58be f83d 5ebe c8e1 87be e0b0 01be
00000170: 7f38 7ebe f960 21bc c348 aa3d 6005 273e
00000180: 766c d13e 30f0 893e 73ca e23e 8b98 6d3e
00000190: 0402 a83e e775 d33e 8fe7 a23e 27d5 223e
000001a0: f17d b73e c57e e63e e896 dd3e 57d0 063f
000001b0: 97b2 df3e eeb5 c33e 0ada 4a3e 6cd4 843e
000001c0: f7d0 7f3e 7ad2 803e 7d00 b93e 6829 873e
000001d0: 5e38 833e b80b 863e 938c 4f3e d955 b13d
000001e0: 298a e73e 3a89 b53e fa63 db3d af79 9e3e
000001f0: 16ab 5f3e 87d5 9a3e 7fd7 633e 6c24 983e
0.29438245 0.39325523 0.20624486 0.36848256 0.31080315 0.4015511 0.21800222 0.19332592
0.34331822 0.24607188 0.15227681 0.3118692 0.3928337 0.089958735 0.18776432 0.28624463
0.16526406 0.55197185 0.28671977 0.27033463 0.4349571 0.24541292 0.050457288 0.34875485
0.47782096 0.177342 0.2014158 0.3720694 0.21650642 0.41745853 0.25918555 0.32355464
-0.10285899 -0.33307123 -0.25692618 -0.127737 0.07165188 -0.19415323 -0.0039849347 -0.018284386
-0.029443495 0.0060471306 -0.08129963 -0.2822502 0.049595643 -0.072413884 0.07403708 0.016467461
-0.14351931 -0.15089346 -0.22949503 -0.063610815 -0.266304 -0.28359672 -0.14770965 -0.14063103
0.04086594 0.10896547 0.004989669 -0.22564204 -0.08461147 -0.051966663 -0.026892921 0.15828809
-0.22860597 -0.05612611 -0.011033395 0.30334985 0.32643312 0.0866479 -0.2166738 -0.2954767
0.25697026 0.026756445 -0.23482905 0.14194725 -0.21658069 -0.013438798 -0.19653058 0.15077142
0.1873981 -0.3024233 0.074503124 -0.10639775 -0.12670399 -0.07137483 -0.040247563 0.18779755
-0.21099253 -0.21703327 -0.26539445 -0.12665129 -0.24826239 -0.00984978 0.083146594 0.16310644
0.40903062 0.2694106 0.44295081 0.23202722 0.32814038 0.4130089 0.3181729 0.15901624
0.35838273 0.45018592 0.43279195 0.5266165 0.4369094 0.3822474 0.19809738 0.25943315
0.24982058 0.2516058 0.36133185 0.26398778 0.25628942 0.26180816 0.20268469 0.08658952
0.45222595 0.35456258 0.107124284 0.30952212 0.21842608 0.30241033 0.22250174 0.29715288

decoder_lstm1.weight_ih_l0 f4 [256, 32]
00000000: 8262 9cbd 0882 a0be 3b0c a43e 1856 143e
00000010: 5e05 a03e 7bc7 d23d 0abd 9fbe fb53 95be
00000020: 75ad 6a3e badb 08be 4a1f 0a3e 8198 4b3e
00000030: 6e8a 4abe 78a3 63bc e990 42be 27ed 643e
00000040: 8216 293e 30b9 51be 65c5 053b ae12 9bbe
00000050: 7ba6 10be 00c5 f23b a0c7 813d 81eb b83e
00000060: 8162 0dbe 6292 9fbe 1d78 88be 85ff 28bd
00000070: e2a7 a8be acb7 4ebe cc5e 923d cce6 bd3e
00000080: 91ee eabd c30b 99bd 84fc c63d 8297 a3bc
00000090: 3b17 95bc 3539 7b3e 8100 23be 25ae 52be
000000a0: ecf5 debc f719 853e 8509 0c3e e288 3b3e
000000b0: 2676 9bbd 3b42 04be 370c 073d 3049 3f3e
000000c0: 2aef 193e bcef a9bd eabf 6cbd 0f8e 3bbe
000000d0: 337f d53d 9750 8fbc 5435 fe3d 017d 473d
000000e0: ec51 43be 2449 e0bc 849c 43be 819f a3bd
000000f0: 2073 45bd 81f1 11be 3696 083d 35f4 2b3e
00000100: e879 62be 10b4 053e 52f8 39be ed04 9a3e
00000110: d10a 9d3d 90be 863e 8210 36be 202e 8cbe
00000120: ed53 353e 2c4f b7bd 2c44 083e 3c2e 863e
00000130: 962d 0f3d c2da 473e 7d2a 78be f067 393e
00000140: 1e72 be3e fb30 95be 348a f0bc c81c 9bbe
00000150: cc76 77be d3d2 663d 600c 0e3e 5107 643e
00000160: 2991 d1be e375 6ebe 1943 9bbe 93a8 85be
00000170: 0560 bebe 9384 a1be 6097 b53e dc8b 1f3e
00000180: cc39 8fbd 38ea 55be cf4b 3a3e 3e1f 8f3e
00000190: 8548 073e b3e4 7bbd ebf2 38be 4d3c cebe
000001a0: 0285 9b3e f002 6cbe e158 0f3d 280e 0a3e
000001b0: 8138 35be 9dd2 5c3e 562f a7be b006 593e
000001c0: cc8a 7b3e d9d6 3fbe 701d ba3e 4c93 ecbd
000001d0: 74f2 97be 639c 463d a997 4f3e f6b4 be3e
000001e0: fa82 9dbe adfa 2abe 7e1f 77be b4ba a1be
000001f0: 63d4 94be ee74 01be ed96 353e 4212 af3e
00000200: d228 23be a367 d23d c7d9 813d da99 653e
00000210: 3882 9e3e 1a53 7c3e 7546 8fbe fc5b 9abe
00000220: 221b 6a3e 2057 433c 58eb b4be c221 4e3e
00000230: 7265 2ebe 7c66 e23d 5743 6fbe ad8c 943e
00000240: 3187 ce3e 503c bbbe 2927 4f3e 8d36 83be
00000250: 9ba2 dcbd 5701 4fbd e8a7 1e3b 932e d03e
00000260: 16de 96be ab34 debe 3a33 d1be 54f2 43be
00000270: 15a2 c9be 1e08 70bd a4c4 bbbd 9b8f 9b3e
00000280: d261 cebe 386d 8c3d f794 92bd e233 8f3e
00000290: 68ea 8f3e aae1 113e 6467 9ebe 710c 25be
000002a0: e37a a93e e30e 88bc fcaa 08bc 28f4 0b3e
000002b0: 7141 1cbd 6682 083d b433 10be 7efb 1d3e
000002c0: 3988 b53e 92b4 f1be 9a57 dc3b 0cbc a0be
000002d0: 24dd 963d 2583 0abe 03ae 50bd 1350 773e
000002e0: 6436 a8be 1c0a 88be 7289 a2be c22e f4bd
000002f0: ad79 cabe ac7c 83be 1498 973e c595 9c3e
00000300: fd2b b1be 5152 4dbd eaa0 ac3e c9a6 9c3e
00000310: b540 713e 29ff d63d 27c1 57be f5f5 66be
00000320: 625a 413e 0806 443e 90a7 ab3a ff09 b23e
00000330: 00b6 febd 4050 9ebd 17dc e4bd 17b3 913e
00000340: 7fa5 8c3e bf3d 1abe 404a 273e 9a2e 7dbe
00000350: 835a 6bbd 0950 22be 1578 273d 12ea 333e
00000360: 51a0 5cbe 6452 c4be 958c edbd e68f 6dbd
00000370: 8878 89be c8b6 2dbe 4b71 843e 9f67 833e
00000380: f4bb 82be eea0 40be 6618 ef3c 473f 383e
00000390: 15af 803e a05a a13c 1ee8 babd 472b 8ebd
000003a0: 1df9 923d 451d 82bd 7aca c13d 61b2 af3c
000003b0: f680 65be d935 91bd 2c5a 05be 0016 b23d
000003c0: 41d1 643c 8c87 fdbd d26d 723d 4cfa b3bd
000003d0: fc37 13be 89b3 1a3e 29fc 43bd 4b81 583c
000003e0: d3ce 6ebd 3f1d 70be b981 37bd 27d2 3bbc
000003f0: 81b4 07be 047a dbbd 5e48 ef3d 5b98 543e
-0.076359764 -0.31349206 0.3204058 0.14485967 0.31254095 0.10291954 -0.31198913 -0.29165635
0.22917731 -0.13365069 0.13488498 0.19882394 -0.19779369 -0.013893954 -0.19000591 0.22356091
0.16512492 -0.204808 0.0020411846 -0.3028769 -0.14126007 0.007408738 0.063369036 0.36117175
-0.13807108 -0.3116637 -0.2665414 -0.041259307 -0.32940584 -0.20187253 0.07146987 0.37090147
-0.11471284 -0.074729465 0.09716132 -0.019969705 -0.018199554 0.24533542 -0.15918161 -0.20574243
-0.027216874 0.25996372 0.13675506 0.18313935 -0.075908944 -0.1291589 0.032970633 0.18680263
0.1503264 -0.08297679 -0.05780021 -0.1831591 0.10424652 -0.017494483 0.12412515 0.048703197
-0.1907422 -0.027378626 -0.19102675 -0.07989407 -0.048205495 -0.14252283 0.033346377 0.16792376
-0.22116816 0.1305697 -0.18161133 0.30081883 0.07668079 0.26317263 -0.17779735 -0.2737894
0.17707796 -0.08950648 0.13307256 0.2620715 0.034955584 0.19517043 -0.24234958 0.18106055
0.3719644 -0.29138932 -0.029362775 -0.30295396 -0.24166411 0.0563534 0.13871908 0.22268416
-0.4093106 -0.23287158 -0.3032463 -0.26105174 -0.37182632 -0.3154646 0.35467052 0.15580696
-0.06993446 -0.20890129 0.18192981 0.27953523 0.13211258 -0.0614974 -0.18061416 -0.4028038
0.30374914 -0.23047996 0.03499687 0.13481963 -0.17697336 0.21564718 -0.32653302 0.21193957
0.24564666 -0.18734302 0.36350584 -0.11551532 -0.29677165 0.048488986 0.20272698 0.37247437
-0.3076399 -0.16697188 -0.24133107 -0.31587756 -0.29068288 -0.12642261 0.17733355 0.34193617
-0.1593354 0.102736734 0.06340366 0.22421971 0.30958724 0.24641076 -0.27983442 -0.30148304
0.22861913 0.011922628 -0.35335803 0.20130065 -0.17030886 0.110547036 -0.23365532 0.29013577
0.40337518 -0.36569452 0.20229782 -0.25627556 -0.10773202 -0.050538387 0.0024208967 0.40660533
-0.29466313 -0.43399557 -0.40859395 -0.1913541 -0.3938147 -0.05860149 -0.091683656 0.30383
-0.40309006 0.06856769 -0.07157319 0.2796927 0.28108525 0.1424624 -0.30938256 -0.16118027
0.33101568 -0.016608661 -0.008341547 0.13667357 -0.038148347 0.033327483 -0.14082223 0.15427968
0.35455492 -0.47208077 0.00672431 -0.31393468 0.07366398 -0.1352659 -0.0509472 0.2415164
-0.32853997 -0.26570213 -0.31745487 -0.11922981 -0.39545956 -0.25681055 0.29608214 0.30583015
-0.34603873 -0.05012733 0.33716518 0.30595997 0.2355984 0.10497887 -0.21069776 -0.22554763
0.18882135 0.19142926 0.0013096202 0.3477325 -0.124370575 -0.0773015 -0.11174791 0.28456947
0.27470013 -0.15062617 0.16336918 -0.24724808 -0.057459366 -0.15850843 0.040886004 0.1756976
-0.21545531 -0.3834411 -0.115990795 -0.05799856 -0.2684977 -0.16964257 0.25867686 0.25664994
-0.25534022 -0.1881139 0.029186439 0.17992888 0.25133577 0.019696534 -0.09126304 -0.06941848
0.07176421 -0.06353239 0.094624475 0.021447362 -0.22412476 -0.07090349 -0.13022679 0.086956024
0.013965906 -0.12379369 0.059186764 -0.08787975 -0.14376825 0.1510755 -0.0478479 0.01321442
-0.05830271 -0.23448656 -0.044801448 -0.011463678 -0.1325245 -0.10716632 0.11683725 0.20761244
