lstm_forecast.pth (torch, 143973 bytes, 10 tensors)

encoder.weight_ih_l0 f4 [256, 2]
00000000: bc0d e13d 1051 fdbd b803 34be dbfb c5bd
00000010: 4992 dbbd f7fd 0ebe 2725 573c 401d 7bbd
00000020: 7217 63bd 7925 acbd 0ecc 303d 4d6e a03d
00000030: d642 ed3d f073 893d 26ac 01be f66d 17be
00000040: 3395 bb3d 4f40 fbbd 1d6b 02be 15f2 bb3c
00000050: b629 1f3d a207 3c3d d7e4 8e3d cc5a d9bd
00000060: c404 b9bd 9cab 18bd 890b c8bd 751b ec3c
00000070: ad93 b3bd 4c68 a9bd 8879 953d 2be0 703d
00000080: 7429 443d 86ed ac3d 6f86 e9bd d076 d3bc
00000090: 5631 07be 4f68 96be 5f66 75bd 082a 16be
000000a0: 94c0 76bd 036b 75be 3ef3 fcbd 4fc2 5dbe
000000b0: 6a7a e63c 101b 623d 2308 a63d a9d6 c0bb
000000c0: 67ce d53d 6223 0dbe a96a 9c3d a46f c8bd
000000d0: ae2b 05be d8e5 38bd cc51 673d 428b ef3d
000000e0: b105 8fbd aef2 2fbe 2910 77bd 73ed 0ebd
000000f0: ffae aabd 939a 893d b43c 9abc 580e 893d
00000100: 7a7e 8ebd b21c 2bbe 7bb5 903d 086a a3bd
00000110: 2596 b4bd e48a 833d bc6f 03be 9395 01be
00000120: e9ea 4bbe b596 53be 637f 813d 7205 11be
00000130: 0e94 36bd 3576 403d 4fdd 71bd 73f0 893c
00000140: ce7a 123d c4b9 5338 5b2f 983d 2fbb e0bd
00000150: 2f4e 66bb 1a9e aebd 841e 173c ef0d f3bd
00000160: 1070 e13d 5c2d e4bd 288c 03be 18be 2ebd
00000170: 6759 bebd cfde a2bd c27b 83bd e47f 01be
00000180: 2697 20bc ca12 b83d 2499 853d 7335 a5bd
00000190: e9dd 183d 01c4 a2bd 4cb0 ed3d 5424 153d
000001a0: 0b40 403d 99d0 b7bd 7101 14bd 97bd c4bd
000001b0: d68f 20bd f328 5f3d a5f4 453d 4a53 a53d
000001c0: f0e1 22bc e1da b0bd 4fe5 863d 5045 643d
000001d0: 0e6a d5bd c925 05be 538e 8abd 52d8 e53c
000001e0: 3a2e d33d a1c2 c7bd acf6 f7bc c96a b13d
000001f0: a90b 1c3c 9819 713d 89f4 b9bd 6b2a 5ebe
00000200: 5fd8 38bd 3dc6 06bd ba10 bdbd 09dc 1fbe
00000210: bb82 103d 32ed da3c 5fa2 e1bc c5b5 9d3d
00000220: 2083 e1bd 5b03 a6bd a17c 01be 78a8 853d
00000230: 966c 6dbc 57ad 233c b1a4 433d 4704 1cbe
00000240: 9fa7 793d ade1 7b3c 0268 75bd 5583 54bc
00000250: b4b6 11be 9a27 a83d fa16 bdbd fbaf cb3b
00000260: 8de0 07be 6f65 03be 6869 a13d 9e96 2cbc
00000270: ee0f 5ebd d471 883d ae2f 82bd 3481 c13d
00000280: 2b8e c63d 7188 363d 218a 90bd ff03 21be
00000290: ae28 57bc 7dec 24bd 3447 a5bd 5c65 9b3d
000002a0: afc6 49be 52bf acbd 32cb 54bd b1c8 06be
000002b0: 054a 803d 1a86 5dbc 78d4 93bd a5a2 1dbe
000002c0: 2642 be3c cd32 03be ddaf 303d f646 76bd
000002d0: 9b83 93bd 1af6 f43c db40 363d 3576 693d
000002e0: 7703 9dbd da89 debd f835 73bd 9a51 e6bc
000002f0: 2ae9 00be 8251 35bd 9498 363d cf9d 09bd
00000300: 6cac 8fbc 91d4 8cbd 523e 993d d0c9 d1bb
00000310: 80cb 0fbe f3a8 ab3d b036 f8bd af3d 9bbd
00000320: 8f24 30be 1fa4 d4bd cbb3 bfbc 28c5 22bd
00000330: b7fd 90bd 8a09 833d 88ec 973d bec0 f1bd
00000340: ea0c efbc e3fd 66bd 410e ca3d 4a37 233d
00000350: 62a1 91bd 280c 43bd 3f2d 12be 0181 1bbe
00000360: 6fbb afbd 37ed cdbc e01e 7bbd d0bb d3bd
00000370: 57b3 4c3d 2325 64ba 0a69 f83c 6f30 ecbd
00000380: 586c 7a3d e504 843d 442e 1cbe 94df 75bd
00000390: c04e 993d aaf9 24be 3286 f9bd 8cda acbd
000003a0: 511d a9bc dc64 23bd f659 82bd f665 47bd
000003b0: 7285 993d 3325 6e3d 7ae7 e03d 9bf3 b1bd
000003c0: 9fa4 253d 4a64 5e3c 267a b83d dfb9 08bd
000003d0: 9543 05be 4ebe d03b bfa4 493c 002c 18bd
000003e0: fa5b e8bb b8e7 a43c 0d09 643d c96e f5bd
000003f0: 8d9e 403d 25f9 62bc e44c 44be ada4 b8bd
0.10988948 -0.12368977 -0.17579544 -0.09667178 -0.10721261 -0.13964067 0.013131416 -0.06130719
-0.05544228 -0.08405585 0.04316335 0.07833538 0.115850136 0.067115664 -0.12663326 -0.1478804
0.09159317 -0.12268125 -0.12736173 0.022942582 0.038858138 0.045905717 0.069772415 -0.10613021
-0.09034112 -0.037273034 -0.09767825 0.028821686 -0.08768401 -0.08271846 0.07298571 0.058807533
0.047891095 0.084437415 -0.11402594 -0.02581349 -0.13202414 -0.29376456 -0.05991208 -0.14664471
-0.06024225 -0.23966603 -0.12351082 -0.21656154 0.028134543 0.05520159 0.08107021 -0.0058849645
0.10439759 -0.13783029 0.07637531 -0.09786919 -0.13004944 -0.04514107 0.056474492 0.11696483
-0.069835074 -0.17182419 -0.060318146 -0.034894418 -0.08334159 0.06718936 -0.018827774 0.06692189
-0.06957717 -0.16710165 0.07065865 -0.07979208 -0.088177 0.06422976 -0.12835592 -0.12654714
-0.1991383 -0.20662959 0.06323125 -0.14162233 -0.04457479 0.04698773 -0.059048947 0.016838288
0.035761647 5.0479328e-05 0.07430907 -0.109732024 -0.0035141816 -0.08526249 0.009223584 -0.11867892
0.11007702 -0.11141464 -0.12846434 -0.042661756 -0.09294396 -0.079526536 -0.06420089 -0.12646443
-0.009801662 0.08987959 0.0652335 -0.08066835 0.037321005 -0.07947541 0.116058916 0.0364116
0.046936076 -0.08975334 -0.036134187 -0.09606474 -0.039199673 0.05448241 0.048329014 0.08072527
-0.009941563 -0.08635498 0.06586706 0.055730164 -0.10420619 -0.13002695 -0.067654274 0.028057251
0.103115514 -0.097539194 -0.03026899 0.08662946 0.009524264 0.0588623 -0.090798445 -0.21695869
-0.045128223 -0.0329039 -0.09231706 -0.1561128 0.035280924 0.026724432 -0.027543245 0.077006854
-0.11011338 -0.08106109 -0.12645198 0.065262735 -0.014491221 0.009990058 0.047764484 -0.15236007
0.06095087 0.0153736295 -0.059913643 -0.012970765 -0.14229852 0.082106784 -0.09232898 0.006216047
-0.13269253 -0.12831663 0.07881433 -0.010533957 -0.05421441 0.06662336 -0.063567504 0.09448472
0.09695085 0.044563714 -0.07057596 -0.1572418 -0.013132257 -0.040264595 -0.080702215 0.07587692
-0.19704698 -0.08434929 -0.051951595 -0.13162495 0.06264118 -0.013520742 -0.072182596 -0.15394075
0.023224901 -0.12812348 0.043136466 -0.060126267 -0.07202836 0.029902507 0.044495445 0.056997497
-0.076666765 -0.10866137 -0.05937764 -0.028115083 -0.12588945 -0.044267185 0.044579104 -0.033597764
-0.017538272 -0.06876481 0.0748259 -0.0064022318 -0.14042473 0.08381834 -0.12119806 -0.075801246
-0.17201446 -0.10382866 -0.023401162 -0.039738804 -0.07079642 0.06398304 0.07418162 -0.11804341
-0.029180963 -0.05639447 0.09866 0.03984765 -0.071108595 -0.047619015 -0.14275073 -0.1518593
-0.08580672 -0.025137527 -0.06130874 -0.10338557 0.04997572 -0.00087030436 0.030323524 -0.115326755
0.06113848 0.06446246 -0.15252024 -0.060027674 0.074857235 -0.16110864 -0.12183799 -0.08440122
-0.020643862 -0.03989111 -0.06364815 -0.048681222 0.07496156 0.058140945 0.10981651 -0.08689042
0.040440198 0.013573715 0.09007673 -0.033380385 -0.13014062 0.0063703423 0.012307345 -0.037151337
-0.0070910426 0.020130023 0.055672694 -0.11984021 0.047026206 -0.013853346 -0.19169956 -0.090157844

encoder.weight_hh_l0 f4 [256, 64]
00000000: 2c6e cf3d 63bd 7b3c d341 083e 3910 18bd
00000010: 8da9 a5bd 4d77 c4bd cc6f ff3d 980b b43d
00000020: cfc9 e6bd 275f 693d 1d2a 9abd cd85 cebd
00000030: f747 923d deac ab3d 17cd acbd c525 29bd
00000040: 6443 a43d e737 eb3b ff16 513d 8f7b ddbd
00000050: 58d5 1b3d 6fe9 3cbd b00b d7bc c022 fc3d
00000060: 7375 78bd 9b4b 3cbd 3414 3e3d 555d c63d
00000070: 493c a7bc 23f0 873d 494b 12be 4dd6 81bd
00000080: 6fef c6bd 5ba3 c33c 1cec 39bd 4464 f03c
00000090: 1f95 e2bd de55 57bb 6bfc 893d 2cc9 b5bc
000000a0: c3ec ddbd ffc5 11ba fb95 a5bd af1c c6bd
000000b0: 5787 133e 1f4c 0dbe 9a51 853d b98c 10be
000000c0: 707a 8b3c 2092 b3bd 1f5a fe3b 64f5 b73d
000000d0: b5f8 c2bd 3b0b 14bd a069 b5bd 142e 9e3d
000000e0: 6910 f2bd aab2 1e3d 6fd3 e9bd 9088 a1bc
000000f0: 43ac abbd 7fc3 4b3d eda6 943c db11 c0bd
00000100: bb7c 973d d50f 063d aaf1 433c 2e33 a8bd
00000110: c3c3 363e 45fa 35bd 56dc 26be c811 0abe
00000120: 397d 1f3e 9e7c d73d 12aa 4dbd 4d1a 8c3d
00000130: 7217 b2bd eb3e 873c 41ee 253e dcd7 2b3e
00000140: 7316 b53c fb9e 1bbd 1b2c fe3c 9f3a 793d
00000150: bf1c 01be 3c59 e3bc d33d e23d 9f24 993d
00000160: aeef e63d 57ff 813d 2c15 08be 3ebc 703d
00000170: 51f8 17bd 35d2 163e 2b9b 173e 1f45 0f3e
00000180: b049 dbbb 6d71 ac3b 8f7d dd3d cd54 043e
00000190: 80a9 963d 9907 97bc 60d0 df3d a1c2 09be
000001a0: c623 0cbe 15db 1c3d f535 72bd 8b40 073d
000001b0: 8807 25be 971e 0d3e 2a7d 723d 571e 6f3d
000001c0: f16f 053e 94e8 0e3e 4b92 cf3a 91d1 51bd
000001d0: 334b 8bbd 7a99 db3d e798 b03d aaa3 8cbd
000001e0: 3354 39bd b80a b23d e02a 13be 8c03 07be
000001f0: 7d7a 11be 75ee 883c 11c6 5a3d 91dd 10be
00000200: 1c5b 9bbd 4a60 85bc c943 983c 59b0 8abd
00000210: 9e22 963d 464e 75bd 3a86 bebd 9242 c5bd
00000220: f29b 073c 481c 0f3d 0d54 f8bd e7c6 54bd
00000230: 9a9a e93b af55 09be c331 0c3e d3f9 40bd
00000240: a86c e83c 32aa f23d c1db e83d a087 63bd
00000250: 1f85 1bbe 787d 84bd fc05 9dbd 2861 9dbd
00000260: 7a41 af3d 1365 81bd dc4d a8bd bec1 a13d
00000270: 2fe6 613d 483f 2e3d b8d0 dc3d 24e9 4bbd
00000280: f2cf 93bd 4650 af3d c51d 8f3d 15ad 90bd
00000290: 9afb ecbd 1eb8 23be 5301 60bd ff0b e8bd
000002a0: a311 33ba af09 823d 2f88 59bd d4c4 293d
000002b0: 8d11 bcbd 6af7 6bbd b309 e03d 5841 783d
000002c0: 4378 33bc 3593 873d 8a23 a4bc 66dc 013c
000002d0: 6c11 bcbb 9ea3 0abe 2b3b 1d3e bd19 b0bd
000002e0: fc41 99bc 2fcb f03d ff21 47bd 10fe 6b3c
000002f0: 232b a7bd cad2 f53d 1576 6d3d 9973 553c
00000300: 5d9d 713d 30ed e03d f747 563d d8e1 003e
00000310: 52f8 95bd abeb 013c dbcb 3ebd b408 d73d
00000320: 1316 e63c 3ace ab3d de80 b8bd 3fb0 76bd
00000330: abb5 bbbd 096e a6bd 6f41 14bd 8230 643d
00000340: 858a fa3d 6e15 e03d 478c ddbc a24e 503d
00000350: 53e0 dcbd fc1c 873b ce87 fc3d 9c63 bdbd
00000360: 4307 a1bd 9766 61bc ed95 813d 4054 b5bd
00000370: aee8 613d b885 8bbc ea94 e73c b667 a13d
00000380: 368e 0cbc e018 c23c 3e5a a5b9 66c4 43bd
00000390: 1b35 01be 39ee f2bd bc49 eabd 2b24 6ebd
000003a0: d6ca 053d 2dfa 8d3c 8190 4bbd a7eb 423d
000003b0: 9814 b4bd 63f3 0fbd 406a 1f3d 2d5f e6bd
000003c0: ca05 efbc b0e5 abbd ed28 a53d a6c1 38bc
000003d0: 0f3f bb3d f7a1 3f3d 6f93 213d 18eb 703d
000003e0: 8b30 b7bd 7b7a c33d 6547 8c3d b96d 783c
000003f0: 72b7 f7bc f1c3 ecbd 2c9e 91bd 9e2a 82bb
0.101284355 0.0153649775 0.1330636 -0.037124846 -0.0808898 -0.09593067 0.124724954 0.08791274
-0.11268961 0.05697551 -0.07527564 -0.10084114 0.071426325 0.08382581 -0.08437555 -0.041295785
0.08020666 0.007178295 0.05104732 -0.108145826 0.038045257 -0.046121057 -0.02625069 0.123113155
-0.060658883 -0.04597054 0.046405986 0.096857704 -0.020414488 0.06637599 -0.14286532 -0.06339703
-0.09713637 0.023881605 -0.045391187 0.029344685 -0.11063599 -0.0032857577 0.06737598 -0.022190653
-0.10836174 -0.0005560815 -0.08085247 -0.0967344 0.14407097 -0.13798569 0.06509705 -0.14116181
0.017026156 -0.087681055 0.007762208 0.089823514 -0.09520093 -0.036143523 -0.08858037 0.077236325
-0.11819536 0.038744606 -0.11417281 -0.019718438 -0.08382466 0.049746986 0.018146003 -0.09378406
0.07396837 0.032729942 0.011959473 -0.08212887 0.17848115 -0.04442813 -0.16294989 -0.13483346
0.15575112 0.10521816 -0.05021102 0.06840954 -0.08695878 0.016509494 0.16204168 0.16781563
0.022105431 -0.037993412 0.03102689 0.06084692 -0.12608622 -0.027752511 0.11046948 0.07477688
0.11276184 0.0634753 -0.13289326 0.05877327 -0.037102047 0.14728625 0.14805286 0.13991211
-0.006692134 0.005262545 0.10814964 0.12922974 0.07356548 -0.01843624 0.10928416 -0.13453151
-0.13685521 0.03829487 -0.05913349 0.033020537 -0.16116154 0.137812 0.059201397 0.058378544
0.13030984 0.13955909 0.0015836445 -0.05122525 -0.068014525 0.10722633 0.08622914 -0.06867154
-0.045246314 0.08693451 -0.14371824 -0.13184947 -0.14206882 0.016715268 0.053411547 -0.14147021
-0.07585737 -0.016281266 0.01858701 -0.06771917 0.073308215 -0.0598891 -0.093029454 -0.09631838
0.008276926 0.03493908 -0.121254064 -0.0519475 0.0071290256 -0.13411592 0.13690858 -0.04711325
0.028372124 0.118488684 0.1137004 -0.055549264 -0.151875 -0.06469244 -0.07667157 -0.07684547
0.085574105 -0.063181065 -0.082179755 0.078982815 0.05515116 0.04254082 0.107819974 -0.049782887
-0.07217397 0.08560233 0.069881 -0.07064263 -0.11571427 -0.15988204 -0.054688763 -0.11330413
-0.0006830936 0.06349503 -0.05310839 0.041447476 -0.09183035 -0.057609 0.1093935 0.06060919
-0.010953966 0.066198744 -0.020036478 0.007926082 -0.0057393815 -0.13538978 0.15354602 -0.08598659
-0.018708222 0.11757504 -0.048616406 0.014403835 -0.081625246 0.120030954 0.05797394 0.013028049
0.058987964 0.1098274 0.052314725 0.12586153 -0.07322754 0.007929723 -0.04658113 0.10499707
0.028086698 0.08388944 -0.090089545 -0.060226675 -0.0916551 -0.08126456 -0.036195215 0.055710323
0.12233452 0.109415874 -0.027044429 0.05085624 -0.10784974 0.0041233283 0.1233059 -0.092475146
-0.07862713 -0.0137573695 0.06327424 -0.0885396 0.05515354 -0.017031536 0.02826925 0.078811094
-0.008578828 0.023693502 -0.00031538488 -0.047794722 -0.12617914 -0.118618436 -0.11439845 -0.05813996
0.032664143 0.017331207 -0.049698357 0.047588017 -0.087929904 -0.03514422 0.038919687 -0.11248622
-0.029177565 -0.08393419 0.080644466 -0.011276638 0.09142887 0.04678532 0.039447244 0.058817953
-0.08944806 0.09544846 0.06849555 0.015162879 -0.03023884 -0.1156081 -0.07110247 -0.0039723655

encoder.bias_ih_l0 f4 [256]
00000000: f7db d13d b0fb dfbd 33c5 eebd a9ae 883d
00000010: 266b 8c3c 5ecd 183e f3ca 1d3e f2c8 e53b
00000020: 593e febd e40f 13bd 7cd1 0e3d 1fc4 62bd
00000030: d5e3 f8bc f9b0 fdbc 8920 cdbc d202 b23d
00000040: a045 ab3d c4cb 43bd 5128 aabd 8388 693d
00000050: 5332 dbbd 7578 d83d d7ae 173d 4fe1 03bd
00000060: ce7a d5bb cab5 823c fb6d de3d 2448 e8bd
00000070: 2f9a 1cbe 31f7 18be afc3 cebc 6ed8 32be
00000080: f875 1b3d e513 363d d1ea e7bd 70cf 2d3d
00000090: 9640 30be 71d1 4abd 1ef4 773c d9f7 023d
000000a0: acbf 5fbd 539d c43c 043c 243d 3a78 f6bd
000000b0: c11b be3d aaf5 e3bb 9000 44bd a852 b9bd
000000c0: 26d1 a33c 7d15 bd3b 536e 8dbc 1928 bbbd
000000d0: ce38 db3c 366c c1bc d590 d13d 8bf0 993d
000000e0: cee1 6fbd 7e93 ee3c be81 723d 4dc9 fabb
000000f0: c9c2 eabc 169f ae3d 3546 053e 8a4c ffbd
00000100: af85 3f3d 6682 a1ba 2bdc 243d 5b0a c1bd
00000110: 38bd e8bc 3d9a 5e3d 4493 40bd 847c 91bd
00000120: 980e 2a3d 346d 4dbd 1c22 d2bd b8b0 49bd
00000130: d4b9 8a3d 116d b6bd 1c91 36bc 9d7a 273d
00000140: dd84 323c a616 903d e759 e7bd ec8c f6bc
00000150: 2f44 5cbd a897 ea3d 88bb b43d 959f a73b
00000160: 4c0a 8ebd c328 233d 3d17 ab3c 7f54 c13d
00000170: 1224 65bd f487 e1bc fd32 9abc 7d35 2ebe
00000180: 5846 a8bd ba5b ccbd 41f5 59bd 753e c1bd
00000190: e88c cfbd b467 adbd a385 15be 8ed5 01be
000001a0: 50c2 5d3d e4b9 273d 2dfd fa3d 05df 063d
000001b0: adda df3d 15ae efbd 3535 dabc 435a cb3d
000001c0: 176c b5bd acbb 04be bb46 8a3d 0ccf 12bd
000001d0: 28ae edbd 9d2e 693d 359e 92bd 9f1b 8ebd
000001e0: 1ad9 c8bc 2e8b f13d b122 003e 8aa4 92bb
000001f0: 2ec9 c8bd 9e51 aab9 217d 033e 2f28 7bbd
00000200: 1ff3 c9bd 8e4e 513d 48bf 933d 3227 b1bd
00000210: 8578 0fbd 408c d33b b6e2 133e dda0 4e3d
00000220: 89cc 573d 5ba0 11be 43c6 0b3d daae 29be
00000230: c8d8 ed3d 25ac f23d ca2b f4bb c5bf 0bbe
00000240: 1e7a dbbc 44d8 ddbd af51 803d 6096 143e
00000250: d46c ebbc fe07 9c3a 490b 22bd 2abd 20bc
00000260: 98be adbd 692a 00be bcc5 dd3d 418a dfbd
00000270: a7ed 87bd ccc1 813d b288 04be 5f36 f1bd
00000280: ea5f 7a3d d6c8 afbd af70 0bbd 11fd 18be
00000290: d6c2 b23d a23d 113e 9f74 c5bd 2bbf a8bd
000002a0: f30a 0d3e a330 cf3d fc6e 8fbd d216 9c3a
000002b0: e195 1f3e b3d4 d43c 0b5b 0fbd 733b edbd
000002c0: 4a2f 01be 69d6 39bd 7de7 b7bd e551 8dbd
000002d0: 880c cd3d 282e f03d c770 bbbc 7144 713c
000002e0: be9b fe3d 5e37 44be 3ce4 233d e741 7ebc
000002f0: 03b8 913c f8e5 1abe b129 70bd 82ed 93bd
00000300: 3992 903d a9cd 2d3d 8486 0dbd 738d ee3d
00000310: d8f7 90bd 1ddf b13c 8802 873d 7e6e 38bd
00000320: 8f5e 80bd b3a7 5c3c fbb9 a2bd 0e62 f6bc
00000330: 29b6 0ebe a85d 5e3d 1ab6 ebbc aa0c 10bd
00000340: ca61 e43d 4323 5d3c 12a8 d93a f0e6 b7bd
00000350: 7b14 d7bc 9b17 9dbd b3ad 1c3d 4bb9 2c3d
00000360: cea6 2e3d 8964 91bd c1d8 fa3b 086b bbbb
00000370: 3598 183d 16df cebc 2cfe af3c e31c dcbd
00000380: df30 41bc 82dd a0bd 5d36 1f3c 3c3b 8fbc
00000390: 5451 b9bd b8f2 813d 99e3 4ebd d8a7 7dbd
000003a0: 9c8f 3ebd b53e e4bd f91a 573c e431 5bbe
000003b0: 37fd 8f3d b9d2 42be 5e98 f33d 6286 ddbd
000003c0: 0a01 97b9 86ab 0d3e edf6 4fbd ec66 44be
000003d0: 1da9 68bc e988 913d 5fe3 0bbd 54f5 96bc
000003e0: 06cf 963c 8e3f 073d e7e9 ad3d 6b9c abbd
000003f0: dada c0bd 4672 7ebc a0d2 cf3d 19e6 b2bd
0.10247033 -0.109366775 -0.116587065 0.06673939 0.017140936 0.14922091 0.1540945 0.00701248
-0.124142356 -0.035903826 0.03486775 -0.055362817 -0.030382076 -0.030968176 -0.025039928 0.08691944
0.08362889 -0.047801748 -0.08308471 0.057014953 -0.10702958 0.1056985 0.037031975 -0.032197293
-0.0065148836 0.015955824 0.10860821 -0.11341885 -0.15293191 -0.14938046 -0.025239794 -0.17465374
0.0379543 0.044452567 -0.113240846 0.042434156 -0.17212138 -0.049516145 0.015133886 0.031974647
-0.054626152 0.0240008 0.040096298 -0.1203465 0.092826374 -0.0069567757 -0.0478521 -0.090489686
0.01999719 0.005770384 -0.01726452 -0.091385074 0.026760485 -0.02361117 0.10232703 0.07516583
-0.058564954 0.029123064 0.059205763 -0.0076533915 -0.028657334 0.08526437 0.13015063 -0.124657705
0.04675835 -0.0012322187 0.04024903 -0.09425803 -0.028410539 0.05434631 -0.047015443 -0.071038276
0.041517824 -0.050152972 -0.10260412 -0.049240798 0.06773725 -0.089075215 -0.011142995 0.040888418
0.010895935 0.0703557 -0.112964444 -0.030096494 -0.053775962 0.114547074 0.08824831 0.005115459
-0.06935558 0.039833795 0.020885104 0.094399445 -0.055942602 -0.027530648 -0.018823141 -0.17012592
-0.08216542 -0.09978433 -0.053212408 -0.09435741 -0.101342976 -0.084670454 -0.1460176 -0.12679121
0.05414039 0.040948763 0.12255321 0.03292753 0.10930381 -0.117031254 -0.0266367 0.099293254
-0.08858507 -0.12962216 0.06751772 -0.035841987 -0.11605483 0.05692922 -0.07159082 -0.06938862
-0.024517585 0.117941245 0.12513234 -0.004475181 -0.09803997 -0.00032485736 0.12840702 -0.06131762
-0.09860825 0.051100306 0.072142184 -0.08650054 -0.035027046 0.006455928 0.14441952 0.05044638
0.052685294 -0.14221327 0.034124624 -0.16570607 0.11613613 0.1184924 -0.007451509 -0.13647373
-0.026791628 -0.10832265 0.0626558 0.14510489 -0.028738417 0.0011904237 -0.039561544 -0.009810725
-0.084836185 -0.12516178 0.108287305 -0.10915042 -0.066371255 0.06335792 -0.1294277 -0.117779486
0.061126627 -0.08583228 -0.03404301 -0.14940287 0.08728568 0.14183667 -0.09641384 -0.082395874
0.13773708 0.101166986 -0.070035905 0.0011908656 0.15584518 0.02598033 -0.034998935 -0.11583605
-0.12615696 -0.045370493 -0.089797 -0.06900386 0.10012156 0.117275536 -0.022880925 0.01472579
0.12432049 -0.19161746 0.040012583 -0.015518642 0.017787939 -0.15126789 -0.05863351 -0.072230354
0.0705914 0.04243246 -0.034552112 0.11648073 -0.070785224 0.021712834 0.0659228 -0.04502725
-0.062680356 0.013467717 -0.07945629 -0.030076053 -0.13936676 0.054288536 -0.028773356 -0.035168327
0.11151464 0.013497177 0.0016605875 -0.08979595 -0.026254883 -0.07670518 0.03825159 0.042168897
0.042639546 -0.07099254 0.0076552336 -0.005719546 0.03725453 -0.02525286 0.021483503 -0.10747697
-0.011791437 -0.07854749 0.009717551 -0.0174843 -0.09048715 0.06345123 -0.050510023 -0.061927646
-0.046523675 -0.11144773 0.013128989 -0.2140575 0.07030719 -0.19025697 0.11894296 -0.10816647
-0.00028801739 0.13834962 -0.050772596 -0.19179887 -0.014200476 0.07106192 -0.034152385 -0.018427528
0.018409263 0.033019595 0.08491879 -0.08379444 -0.094167426 -0.015530175 0.101475954 -0.08735294

encoder.bias_hh_l0 f4 [256]
00000000: 835f 8a3d 269a 663d 7fb9 403d 2f73 153e
00000010: b576 173e 2a84 f33d 3bf8 d33d f2a5 dbbc
00000020: 8459 79bb ebde b2bd 8561 833d c82d ef3d
00000030: a881 24bb 6a78 81bb ffe3 c03d ec78 4f3d
00000040: 16bc 5dbd 47e1 e5bd f5f7 41bc 7281 f7bd
00000050: bc6e 4f3d 5b1a 87bd e5e2 29bc 2b60 cabb
00000060: 3514 5e3d f358 9b3d a542 f9bd 709c da3d
00000070: c0bb 4bbd bdb3 b5bd e9ff 873d 8681 c1bd
00000080: 034e ecbd a779 d2bd e532 15be b4f6 023e
00000090: 9426 7ebd 2e28 083e 0d04 c63c 6885 2dbe
000000a0: fdfe b83d 7fc8 7d3d e830 00bd f0bc 8e3d
000000b0: 16cc 003e 13bf 1b3d f2be 613c 463a 25bd
000000c0: 83d2 023e 3f21 a93d c8ce 153e 7cad 833c
000000d0: 84f1 fabd d03e e23d aae6 2a3e 3748 203c
000000e0: 350f ab3c 6ce3 6fbc 4780 083e 3ad6 3dbd
000000f0: 6263 273c f022 ae3d 174f c1bd 6f22 edbd
00000100: a2ef 05bd 698d fc3c a4ea 0abe b775 c2bd
00000110: 3574 163e 2ca2 063a a146 b73c e159 adbc
00000120: 54cd 6ebd 97e2 773d b6ee e4bd 0fc1 df3c
00000130: 46d0 0f3d ed7f 063d 0d57 f6bc 7877 c8bc
00000140: cd18 b5bc de16 03be 8a4d cdbc bace 673d
00000150: 3e0a f7bd 94f2 e93d 0a05 e63d 055e 02be
00000160: 02ac 853d 5cd8 d13d 2bf3 81bd 5c75 96bc
00000170: ab73 87bd afb8 453c 9709 ab3b 01c2 a73c
00000180: 2001 873d 2a9d 463d 5b8c abbd 3528 ac3d
00000190: 0a9a a7bc 40bd dfbc d8c2 5a3d c413 c33c
000001a0: 53dc af3d 5ac9 0fbd eed6 3abd 2f26 85bd
000001b0: d9ab 473d 89bd 28be c820 d73d 75c5 f43d
000001c0: 5870 563c 6910 77bd 77e0 d0bd 81ff 90bd
000001d0: 5a8f e9bd ce27 a3bc 145c 523d 8dc8 71bd
000001e0: 5999 9e3d 97ed 56bd 4d63 043c 8b40 37bd
000001f0: 246e c43d 6f1f 153b 13e1 12bd 2bb9 ff3c
00000200: 0e52 3ebe 03a0 16be 5e07 d43d e25d ccbd
00000210: 42a2 a2bd 2d82 263e 140a 243e 4005 0b3e
00000220: d2bb 96bd e8c0 4a3d 0f72 35bc a68f 00be
00000230: 25ca 99bc 570a 66bd c05b 7abd 657d 8fbd
00000240: d57b 20be d466 0abe bef0 9dbd 8212 92bd
00000250: 4c02 5abd 64fe f1bd ca09 3bbe 6b08 ff3d
00000260: 5f21 2cbe 77dd 0dbc 89e5 16bd a4a7 cb3b
00000270: 066c c1bc 5334 bcbd 494c 0d3d f3f3 723d
00000280: 642b 43bd 4e83 17be 2743 50bd d405 72bd
00000290: 1614 d1bd 1bb6 123e 0319 b33d 4507 aebd
000002a0: cdb2 a63d 73fd 0c3e f66b c13c 9c7d c83d
000002b0: 86cc dc3d 03a7 f03c 474f 1cbe 45e7 3abe
000002c0: ec0c 2dbe d1a2 63bd 95ea 96bd f569 15be
000002d0: 62ff ca3d c9dc 0f3d 56c0 3dbe f238 ca3d
000002e0: 2f25 583b a508 463c 6ad8 123e 3658 91bd
000002f0: c600 f13d a26d 1bbe eb47 d83d c876 bd3d
00000300: 45ff dcbd 2773 c8bd 2ea4 68bb 2913 c53d
00000310: 0f44 cb3d 7a44 94bd 6634 ba3d 554f fabc
00000320: 2f2e dfbd 3ed4 9b3c 2ac2 8a3c e338 003e
00000330: c450 8cbd 66db 0abd d46e 003e 2cba 343c
00000340: 439b 04be 4156 293c 2573 debb 5e7f 44bd
00000350: fafd afbd f483 d3bd e05b 9fbd a25e b63d
00000360: de4d 80bd ac4e 72bd b194 cdbd 3f4d ea3b
00000370: b6ed 803d 610e 09be 427c e9bd 9313 b13d
00000380: 7c84 acbc b1c0 4f3d 5373 b9bb 56e4 8c3d
00000390: de8a af3d ae42 acbd 2d78 cbbd 4052 473d
000003a0: fd47 983d 2ff8 ddbd 29cd 61bd 79ee e1bd
000003b0: b979 9f3d c55a d4bd 4232 ee3d 4213 003e
000003c0: 0614 8d3b 5e81 9c3c 6584 ea3d 1abd 3abd
000003d0: fac3 95bd 07ae 1e3c f4a0 263d 7a5e c3bd
000003e0: 3eb1 913c 8ea1 b43c 6b01 bd3d a3c1 783d
000003f0: e8c7 99bd 97e4 f53c 2f22 143d 9302 a7bd
0.06756499 0.05629935 0.047051903 0.1459472 0.14791377 0.11890443 0.103500806 -0.026812527
-0.003804774 -0.087339245 0.06415085 0.11678654 -0.0025101695 -0.003951122 0.09418487 0.05065243
-0.05413445 -0.11224609 -0.011838903 -0.120852366 0.050642714 -0.06596824 -0.010369037 -0.006176015
0.05421849 0.07585325 -0.121709146 0.10674369 -0.0497396 -0.08872173 0.06640608 -0.09448533
-0.11538317 -0.102771096 -0.14570196 0.12789422 -0.06204851 0.13296577 0.024171853 -0.16945422
0.0903301 0.061958786 -0.03129664 0.06969631 0.12577853 0.03802402 0.013778435 -0.040338777
0.12775616 0.08258294 0.14629662 0.016073935 -0.12253097 0.11047137 0.16689554 0.009782842
0.020881275 -0.014641624 0.13330184 -0.04634688 0.010216566 0.085027575 -0.09438913 -0.11578833
-0.032699235 0.030829148 -0.13566071 -0.094951086 0.14692767 0.000513586 0.022372546 -0.021161022
-0.058301285 0.060518827 -0.11178343 0.027313737 0.035110734 0.032836843 -0.030070806 -0.02447103
-0.022106552 -0.12801692 -0.025061388 0.056593634 -0.120625004 0.11423221 0.1123143 -0.12731178
0.065269485 0.102463454 -0.06345209 -0.018366508 -0.06613859 0.012067958 0.005219649 0.02047825
0.065920115 0.048489727 -0.0837638 0.084061064 -0.020459194 -0.027311921 0.053408474 0.023813136
0.085869454 -0.035104133 -0.04561513 -0.065014236 0.04874787 -0.16478552 0.105042994 0.119517244
0.013088308 -0.060318384 -0.10199063 -0.070799835 -0.11404295 -0.019916441 0.051357344 -0.05902915
0.077440925 -0.052472677 0.008080316 -0.044739287 0.0959132 0.0022754332 -0.03585918 0.031216225
-0.18585989 -0.14709477 0.10352968 -0.09978844 -0.079411045 0.16260596 0.1601947 0.13576221
-0.07360043 0.049500376 -0.011074557 -0.12554798 -0.018773148 -0.056162205 -0.061122656 -0.07006339
-0.15672238 -0.13515788 -0.077119336 -0.07132436 -0.053224847 -0.11816099 -0.18265453 0.124527775
-0.16809605 -0.008658758 -0.036839996 0.0062150527 -0.02361108 -0.091896676 0.03449658 0.05931468
-0.047648802 -0.14796183 -0.05084529 -0.05908759 -0.10208909 0.1432728 0.08745005 -0.0849748
0.08139572 0.13768558 0.02361105 0.09789583 0.10781197 0.029376512 -0.15264617 -0.18252285
-0.1689946 -0.055575196 -0.07368962 -0.145912 0.09911992 0.035122667 -0.18530402 0.09874143
0.0032981148 0.012087022 0.14340368 -0.07096903 0.11767726 -0.1517854 0.10560592 0.09251171
-0.10790876 -0.097875886 -0.003549825 0.09622795 0.099250905 -0.07239623 0.090920255 -0.030555407
-0.10897481 0.019022103 0.016938288 0.125217 -0.06851342 -0.03390064 0.12542278 0.011030715
-0.12949853 0.010335506 -0.0067886286 -0.04797303 -0.08593364 -0.103279024 -0.07781196 0.089047685
-0.06264852 -0.05915706 -0.10038126 0.0071503217 0.0629534 -0.13384391 -0.114006534 0.086463116
-0.021059267 0.050720874 -0.0056594997 0.06879489 0.08571409 -0.08411156 -0.09935031 0.048662424
0.07435606 -0.10838353 -0.055127297 -0.11031813 0.07786889 -0.103688754 0.1163068 0.12507346
0.0043053655 0.019104656 0.114510335 -0.045590498 -0.0731277 0.009685046 0.04068084 -0.09539504
0.017784711 0.022049692 0.09228786 0.06073154 -0.07508832 0.030016227 0.036165413 -0.08154788

decoder.weight_ih_l0 f4 [256, 2]
00000000: e4e4 90bd 0b76 923d 8c41 453c dd92 56bd
00000010: fdba efbd 11dd cabd 13aa dbbd 58e0 dcbd
00000020: e7c5 32bd d84a f7bd 383a 76bd 4651 b43c
00000030: c6a9 463d 97ad b7bd 295c 05bd 0bc3 9ebd
00000040: f20b 3fbd 54ed 46bb b6f9 ca3d 1772 bd3d
00000050: ceca 343d 6295 c93d 9c7b a83d 8ae6 04be
00000060: 28c8 653d 4bd9 bcbb 3fb4 5d3c 1052 abbd
00000070: 9249 8c3d 4cb9 9abd 949a 3e3c 9aba 05bb
00000080: e9a4 c3bd 3a4d d4bd fd05 bf3d 67d7 f43b
00000090: f9b1 4b3d 9087 a8bd 7fe5 293d bc9a 273d
000000a0: 14f9 363d c627 f63d 11fd c1bd 016b 04bd
000000b0: 598e 61bd 303d aabd 46bb 1dbe 95f0 d5bd
000000c0: 26e6 4f3d f911 c9bd 4fe3 6fbd 5849 e2bd
000000d0: 630f ac3d 89b6 823d d2d7 88bd cc68 d1bd
000000e0: 46be 773d 2f2f 883d 744c 9dbd 8f75 18be
000000f0: d53c 8e3d b835 c6bd eca5 b53d f56c 5d3c
00000100: 0559 34be 3039 e7bd 5a4d c93d 889c c9bd
00000110: e350 7fbd 4d3a cbbd 8a52 673d 35d8 c2bc
00000120: 3db6 aebd 7ac9 ddbd 202d 183d 07b5 d93c
00000130: 3819 6a3d 4947 023d b21c 0cbe 55e3 863d
00000140: ae3e dd3d c74d 773d de0f fbbd c649 543b
00000150: 562d 4c3d aefe 013d a3be 853d c16b d8bd
00000160: ab87 423d 206c 37bd 82bb 96bd 33ef 92bb
00000170: 3375 90bc d779 d6bd 2b83 30bc b463 e6bd
00000180: 84ab 303d 7873 6a3d 7b5a e93c 3bbc d2bd
00000190: 8d33 d3bd 264e 6abd 9f8e c5bd 0057 983d
000001a0: c0de 263d 293c 6fbd c002 8fbd 336f 92bb
000001b0: 33fb 4bbd 534d 31bd 5e43 713d 54c2 dcbd
000001c0: 0572 c9bd 10ce b63b ffb6 b5bd 885b 2dbd
000001d0: c382 edbb 99f4 cb3d 8805 31bd c791 8ebd
000001e0: 349a 133d ced6 b2bc 378b 8b3c ac98 a53d
000001f0: 68a8 71bd 3242 ff3c 6dc0 c63d a062 eb3d
00000200: 5817 833d fd48 d6bd 50bf 41bd b94a 85bd
00000210: 09fc 0bbe 4264 6f3d 12af 39bd 534e 12bd
00000220: b525 4f3d 8d72 a5bd 9322 f3bd 83dd 50bd
00000230: 0a62 1d3b 567d 4fbd 268a 3dbd ac4a 03be
00000240: 0cdc 02be 920f a0bd 9a9d 0d3d da12 ad3d
00000250: 6be3 9c3c 8023 0cbe 5196 90bd fb62 9d3d
00000260: 69e6 9c3d 88e6 52bc 2d7b 94bd ad8f a7bd
00000270: 3859 d13c 341a c0bd d824 ae3d 83ef 8c3d
00000280: 09b2 8abd 65ac 663d 146a 333b 0998 e9bd
00000290: ace6 00be d46a f93c 6383 c93d 4514 d7bb
000002a0: caf9 973d 7693 4fbb 288b 39bd 3702 8d3d
000002b0: 6a2d 98bd 6354 b7bd e50a debd a878 28bd
000002c0: 1abc fbbd af8a 4e3d 1aea 86bd d8c1 70bd
000002d0: e986 debd 1bbc e43d 7ac5 91bd 583d f1bc
000002e0: 2f31 c53d 5eb1 ae3b fabe d7bd 4540 07be
000002f0: 6de5 c6bd 2b9b 09be aadf e6bc 9ad6 a73d
00000300: 8527 21be 766b c3bd e418 91bd 2c39 0ebe
00000310: c849 16be 0658 abbd 807c 263c 6e83 a7bd
00000320: 2a2d 6f3d 80a7 bcbd db53 60bc b17d 2f3c
00000330: ba91 5c3d 39f9 ae3d 26f3 64bd ba1a cfbd
00000340: 42bc 6dbd 12ee 91bc 7459 d43c 6eca 75bd
00000350: 9908 87bd c7d8 0c3d 951d a93d eb69 d43d
00000360: 0dae 5c3d d500 643d 8c98 02be 48a2 913d
00000370: 412a b93d b841 863d 3554 db3d e372 3bbc
00000380: c35c cebc 7e32 a13d 7c92 b6bd e49f 18be
00000390: bb74 e3bd 5c3f aa3d 0252 0abe 23ff 1fbc
000003a0: 21a3 513d e8cf debd 0f38 04bc 0ed5 b23d
000003b0: a937 1abd 95b3 a4bd 56e6 26be 44fb b83d
000003c0: 7b27 d33d fca4 79bd 38b4 edbd 8f33 1cbc
000003d0: 1306 b83c 556b b3bd 81ef be3d 71cf 2abc
000003e0: 3591 b83d 2f49 503d df32 00be f2d1 9c3d
000003f0: 727d 6cbd d73c 55bd 7611 7dbd a344 ce3c
-0.070749074 0.07151421 0.012039553 -0.052386153 -0.11705587 -0.09905446 -0.107257985 -0.10784978
-0.043645766 -0.12074822 -0.060114115 0.02201141 0.048501752 -0.089686565 -0.032558594 -0.07752045
-0.04664225 -0.003035386 0.0991091 0.092502765 0.044138722 0.09842946 0.082267016 -0.12978569
0.056099087 -0.005763208 0.013531744 -0.083652616 0.0684997 -0.07554874 0.011633534 -0.0020405413
-0.095529385 -0.10366292 0.09327314 0.007471967 0.049730275 -0.082289815 0.04147863 0.04091905
0.044671133 0.12019305 -0.09472097 -0.03232861 -0.055067394 -0.08312452 -0.1540347 -0.10446278
0.050756596 -0.09817881 -0.058566388 -0.110491455 0.08401372 0.06382472 -0.066817895 -0.102250665
0.060484193 0.066496246 -0.07680598 -0.14888595 0.069451965 -0.09678215 0.08869538 0.013514747
-0.17612083 -0.112902045 0.09829207 -0.09844309 -0.062333 -0.09923229 0.0564752 -0.023784736
-0.08530853 -0.10829444 0.03715241 0.026575578 0.057152957 0.031806264 -0.13682821 0.06586329
0.10802971 0.06037691 -0.12258886 0.0032392605 0.049847923 0.031737022 0.06530502 -0.105674274
0.047492664 -0.04478085 -0.07359983 -0.004484081 -0.01763401 -0.10472458 -0.01077346 -0.112494856
0.04313232 0.057239026 0.028485527 -0.10289808 -0.10312567 -0.057203434 -0.096463434 0.07438469
0.040739775 -0.058406983 -0.069829464 -0.0044688224 -0.04980011 -0.043286633 0.058902137 -0.10779253
-0.098362006 0.005578764 -0.08872794 -0.04232362 -0.007248254 0.09958763 -0.043218166 -0.069613986
0.03603573 -0.021830942 0.017034156 0.080857605 -0.058998495 0.031159494 0.09704671 0.114934206
0.06400937 -0.1046314 -0.04730159 -0.06508393 -0.13670363 0.058445223 -0.045332976 -0.035719227
0.05057307 -0.080784895 -0.11871829 -0.0509925 0.0024014735 -0.05065664 -0.046274327 -0.12821454
-0.12779254 -0.0781547 0.03457413 0.08450861 0.01915141 -0.13685417 -0.070599206 0.07684895
0.07661135 -0.012872346 -0.072500564 -0.08181701 0.025555238 -0.09379998 0.08503121 0.06881621
-0.06772239 0.056316752 0.002737646 -0.114059515 -0.12587994 0.030446447 0.09839513 -0.0065636956
0.0742069 -0.0031673587 -0.045298725 0.06885188 -0.07430537 -0.08951642 -0.10841922 -0.04113069
-0.12291737 0.050425228 -0.0658762 -0.058778614 -0.10865576 0.11168691 -0.07117744 -0.029448196
0.09628522 0.0053312024 -0.10534473 -0.1320811 -0.09711728 -0.13438098 -0.028182823 0.08195229
-0.15737732 -0.09541981 -0.07084826 -0.13888997 -0.14676583 -0.083663985 0.010161519 -0.08179365
0.05839268 -0.092116356 -0.013691868 0.0107111195 0.053849913 0.08543629 -0.055895947 -0.101125196
-0.058040865 -0.017813716 0.02592156 -0.060007505 -0.06593437 0.034386422 0.082575954 0.10371765
0.053876925 0.055664856 -0.12753505 0.07111031 0.090412624 0.065555036 0.107094206 -0.011440965
-0.025190717 0.07870959 -0.089146584 -0.14904743 -0.11106249 0.08312866 -0.13507846 -0.009765419
0.051180962 -0.10879499 -0.008070006 0.08732043 -0.037650738 -0.08042065 -0.16298804 0.090323
0.10310265 -0.060948357 -0.116066396 -0.009533777 0.022463834 -0.08760706 0.093230255 -0.010425434
0.09012071 0.050851043 -0.12519406 0.076572314 -0.05773682 -0.052059975 -0.06178423 0.025179213

decoder.weight_hh_l0 f4 [256, 64]
00000000: fdb6 05bc b345 db3d 6c73 503d 4863 b53d
00000010: c112 c13c c543 b73d 4cfa e2bd d307 a73d
00000020: 9aa2 d33d 61cf 683d 0e34 d0bd b1ac 013d
00000030: 2271 abbc d0b2 d1bc b3f5 043c 5c28 6d3d
00000040: 7864 0d3d 2d5d 57bd 03af c73d df73 023c
00000050: 852d 8f3d d5af a13d d665 893d 0f25 aaba
00000060: e247 3fbd 4c9d c63d d30c 80bb 5607 c23d
00000070: 7bff 26bc 44a1 a63d be5b 1d3c 1df1 d4bd
00000080: e1e7 4f3c 9543 c7bb 78ba 233d d252 2d3d
00000090: c6ec d93c 206f 033e e4c7 aabc d4c5 dc3d
000000a0: 3c08 b4bd 099f eaba 85c2 cebd 85c9 d83d
000000b0: bd98 bdbd 43fa 88bd 5ddc a13d cd64 95bc
000000c0: 3cb7 bdbd c022 c93d 4388 e33d 54e8 543d
000000d0: ff7c f93d debc adbd e012 953d 8785 1fbe
000000e0: c6ef e5bd 18c5 c6bd b7d6 903d ea7a a6bd
000000f0: f812 5ebc b74b 4dbd c1a8 71bc 690f 8abd
00000100: 6fdf 4a3b 0013 dabc 5eca 0e3d 6599 9d3d
00000110: 8dab 73bd 8208 6fbd bec8 793d 2d1a 773d
00000120: 2ee4 34bc 417a a6bc d78f 19be c200 433d
00000130: 762d 51bd 0c37 f2bc 0f06 10bd 24c0 aabd
00000140: cd10 033e a485 7f3d 2fb3 d63d bd21 113d
00000150: d559 c73d b553 d93d cf50 34bb c603 f83d
00000160: 8f3d 483c dfb3 bdbd 651c e13d 222d 083e
00000170: b08a 4b3d 95fa ddbc 0664 c03d 6585 a3bd
00000180: dc42 95bd c0b3 8f3d 95f0 1abd fad6 963d
00000190: 6270 b93c add2 d73d 9c69 dc3d a5df 9bbd
000001a0: dbc6 ecbd c477 b2bd 2bd6 ef3c 2f45 89bd
000001b0: 4e68 923c e009 3dbd b0f5 823d d0c5 1a3d
000001c0: 7132 2dbd 0cb3 983d 2f30 db3d 417d d13d
000001d0: 9e4a cf3d 5191 043c bc08 d03b 6d2b 33bd
000001e0: 2c69 4f3d 4b83 033e a7ca e7bd 4d4a b6bd
000001f0: ae1d be3d 62c4 2cbd 44bf ccbc 2c09 abbd
00000200: cc61 873d 0db9 513d 82df 683d 5ffd 993a
00000210: 49dc b2bc 771a 933d bc03 a73d ae1f 04be
00000220: a32d b83c f333 013d d38e 82bc 1a94 d63d
00000230: 1f43 e1bd d976 10bd 14fa 8bbd 0746 af3d
00000240: f6f1 51bd de64 bd3d c7db 2fbd 28eb 163d
00000250: 2015 07be 6f9b 483d 7517 2fbc 7757 c5bd
00000260: c69c cb3d 1db2 c03d 34e5 c3bd bcb6 0dbe
00000270: 8a40 0b3e 6532 73bd 9307 97bd e337 99bd
00000280: 3205 e5bd 687c 53bb 4586 b63d 6bb4 20bd
00000290: c06c 5d3c cb87 ebbd dd0a ef3d 213e 9ebd
000002a0: 778a 7e3d 0955 febd 4539 a7bd 096b d33d
000002b0: d932 043d 06c5 9f3d 13af a6bd 7da1 153e
000002c0: ea5f 033d dad0 bdbd 4edb 5dbc da93 66bd
000002d0: 0511 90bd 1a8e 05be d00f dfbb 83d6 ddbd
000002e0: 61cf 9f3d 030b 3ebd bbec 98bd d9ee 7f3d
000002f0: b8c2 24bd 0af7 563d 0fa7 02bc 36d6 fbbd
00000300: 6672 ccbc ba1a 08bd e08c fb3d 0ba7 d93d
00000310: 9e4e d6bd 26b9 dc3d b23a d2bd a7a8 85bc
00000320: e9ad 36bd d405 5c3d 9c8d c7bd 1a95 ae3d
00000330: 127f f1bd 63a8 883d ed64 1f3c be3c d5bd
00000340: e068 1a3d 3595 ca3d 59e3 b03d 3037 813d
00000350: 80ac 85bc f665 2cbd d273 8fbd 8c57 ca3d
00000360: 86d4 ad3d 6e7c a3bd 80b7 1bbd e02c b23d
00000370: ebb1 22bd 76d0 ff3d fa1f c93d a10c f23d
00000380: b95b 7c3d deb6 cc3c 0ae5 d7bc 3a28 94bd
00000390: ac5f 913d 79a5 963d a7e9 483d 3268 51bc
000003a0: dfae 65bc fb3f 4b3d 128e bdbc da33 72bd
000003b0: 2d91 41bb 3caa 87bc 0476 623d 0b37 2d3d
000003c0: b4bb 80bd 5ee5 243d 075e 60bb dea8 85bd
000003d0: 75fd 2e3d f3be 3ebd 7c2b 5e3d 7f85 753d
000003e0: d0c5 083d c037 3ebd 8cad 543d 430c 5d3d
000003f0: e461 7fbd b79a a43d 669e 093c 1465 363d
-0.008161304 0.107066534 0.050891325 0.08856827 0.023568513 0.08948473 -0.110828966 0.08155789
0.10333748 0.056838397 -0.10166179 0.031658832 -0.02092797 -0.02559796 0.00811522 0.057899818
0.034519643 -0.052579094 0.09750178 0.007962196 0.06991104 0.078948654 0.06708877 -0.0012981015
-0.046699412 0.09697971 -0.0039077788 0.094740555 -0.010192747 0.08136228 0.009604393 -0.10397551
0.012689562 -0.0060810545 0.039972752 0.04231531 0.02660216 0.1283536 -0.020847268 0.1077992
-0.08790633 -0.0017900179 -0.100956954 0.10585312 -0.09257648 -0.06688359 0.07903359 -0.018236542
-0.09263465 0.09821081 0.11109974 0.051979378 0.12182044 -0.08483289 0.07278991 -0.1557828
-0.11227374 -0.097055614 0.070722036 -0.08128913 -0.013554327 -0.050121035 -0.014749707 -0.067412205
0.003095593 -0.026620388 0.03486096 0.07695273 -0.059489775 -0.058357723 0.06098246 0.060327698
-0.01104073 -0.020321967 -0.14996277 0.047608145 -0.051068746 -0.029567264 -0.035162028 -0.08337429
0.12799378 0.06238331 0.10483395 0.035432566 0.09733931 0.10611669 -0.0027513986 0.12110095
0.012221708 -0.09262823 0.10991744 0.13298467 0.04969281 -0.027097026 0.09394078 -0.07984427
-0.07288143 0.070167065 -0.037827093 0.07365222 0.022636596 0.1053823 0.10762331 -0.07611016
-0.11561366 -0.0871425 0.029276928 -0.06702649 0.017872002 -0.046151996 0.063945174 0.037786305
-0.042284433 0.074560255 0.1070255 0.102289684 0.10121654 0.008091287 0.0063486975 -0.043742586
0.05063741 0.12843053 -0.1131795 -0.089008905 0.09283005 -0.042179473 -0.024993546 -0.08351359
0.0661045 0.05120187 0.05685378 0.0011748484 -0.021833556 0.07182782 0.08155009 -0.1290271
0.022482699 0.031543683 -0.015937245 0.10477467 -0.109991305 -0.035269592 -0.06834808 0.085582785
-0.051256143 0.092477545 -0.042934205 0.036845356 -0.13191652 0.048976358 -0.010686745 -0.09635823
0.099420115 0.094089724 -0.095652014 -0.13839239 0.13598838 -0.05937423 -0.073744915 -0.07481363
-0.111826316 -0.0032270197 0.08912329 -0.03923456 0.013514698 -0.1150051 0.11671994 -0.07726694
0.06214377 -0.12418563 -0.0816522 0.1032315 0.032275055 0.07801251 -0.081388615 0.14612384
0.032073893 -0.09268351 -0.013541056 -0.056293346 -0.07034496 -0.13042489 -0.006807305 -0.108319305
0.07803226 -0.04639722 -0.07467028 0.062483642 -0.04022476 0.05248169 -0.0079744 -0.12296717
-0.024956893 -0.033228613 0.12282729 0.10627564 -0.10464214 0.10777502 -0.102651015 -0.016315771
-0.044599447 0.053716496 -0.09743807 0.085245326 -0.11791815 0.06672742 0.009728652 -0.10411976
0.037697673 0.0989174 0.08637113 0.06309354 -0.016317606 -0.042089425 -0.07004513 0.098799795
0.08487801 -0.079827175 -0.038016796 0.086999655 -0.039720457 0.12490933 0.09820552 0.11818815
0.06161091 0.024989542 -0.026354332 -0.07234235 0.07098326 0.0735578 0.049050953 -0.01278119
-0.014018743 0.049621563 -0.023139033 -0.05913148 -0.0029535994 -0.016560666 0.05528833 0.04228882
-0.062858015 0.040257804 -0.0034235732 -0.065263495 0.042722184 -0.046568822 0.05424069 0.059941765
0.033391774 -0.046439886 0.05192332 0.05396677 -0.062349215 0.08037322 0.008399582 0.04452999

decoder.bias_ih_l0 f4 [256]
00000000: bb86 843d 7a45 0c3d 433c a93d dae3 9fbc
00000010: 24be b8bb fe59 233e 50e5 c83c 4e8c 76bc
00000020: c829 ddbd 5cba 2bbd 7132 9b3d b3cf 0c3e
00000030: fefd e6bd 83a3 58bc f780 d8bb 1b5c 0d3e
00000040: 0a98 883d 64f7 03be 04a7 78bd 3826 4a3d
00000050: 7cb4 573d 9bbd 77bd 16db 073e 4f08 18be
00000060: 7ce9 ba3d 8a0a e1ba ef83 90bd 54ab 35be
00000070: dfc3 cf3d 8b1c dfbb 66c1 c43c 7bab 79bd
00000080: c141 ea3c 0319 9dbd d78b 273c 9a42 d2bd
00000090: c337 5d3d dc3f 933c 6353 803d b6c1 f53d
000000a0: 0bfe ecbd 1014 273d c8b6 37bd 0bba 8b3c
000000b0: dfcb 4f3d 0099 4b3d 5dbe 013e 00e9 a43d
000000c0: efd2 2bbd 6887 763c 6125 893d b624 6a3c
000000d0: 5fb8 fcbd b645 2b3d 04f8 873d bec1 3bbd
000000e0: a5a9 d83c ed22 fd3d 2645 ad3d 25b4 1dbd
000000f0: 1dc1 3bbd 4996 8ebb 025a 84ba cc22 c0bd
00000100: 4110 bc3d b3a9 a33d 96a2 533c deb6 c53d
00000110: b032 69bd cfb2 2cbd 4376 c8bc c0af 8dbd
00000120: fd5a fc3d 0e42 933d 4df1 dfbd 7e09 aabd
00000130: 8e42 bebb 67bf d63d 23c9 b1bb 670f d7bd
00000140: d965 973d cce9 16be 4c06 60bd 5f78 0c3d
00000150: 9947 c7bc 20ee 183e 24f8 f53d 2c18 92bb
00000160: 5ea4 a4bc 62a6 68bd 0806 cf3d 7b05 093d
00000170: 2cc8 a6bd ba55 16be 1c40 20bd 49f3 563d
00000180: 3772 bcbd 9c30 d03d 8380 ddbd a162 c6bd
00000190: 81bd fbbd 6735 adbd cd25 d83c 0b24 013e
000001a0: 6e2b 7a3d ae44 843c 6b7f 573d b55c b4bd
000001b0: e860 3ebd dce3 a43d 1999 dcbd 1910 f53c
000001c0: 68d8 d5bc 783e fc3c 0c38 e0bc f103 e8bd
000001d0: ba77 02bd aa04 ff3d 9b03 643c b82d b7bd
000001e0: ed57 94bb 65c1 45bd c948 c7bc 12f1 023e
000001f0: d3fe b7bc bc2a a5bd df83 11bc d648 583d
00000200: 21c2 ecbd 1cb3 083d 1231 a03d f4ea 44bc
00000210: d9aa 14be 7528 843d f71b da3d c117 003e
00000220: cae7 7ebd 3053 983d 7a6b 42bc d46f 29be
00000230: 880f abbc c566 da3d 500c b43a 200d 9a3c
00000240: 8866 abbd c13c 013c 31e5 f9bd df92 913d
00000250: 6d6e 9a3d 632c f2bd 13c2 23be 16ef cc3d
00000260: 8fa3 eabd 2bf3 603d 503b 1c3d 5615 d83d
00000270: 0b33 b0bd 0d3d 413c 057e 683d cb6a e03d
00000280: 1fa7 973d ac78 00bd ba54 373d f471 28be
00000290: f084 0e3c 7820 013d 1e0c 2ebd 3505 5abd
000002a0: 5b79 9cbc f6c1 d33d a489 0abd 2be3 b33c
000002b0: 30e4 34bd 0e20 b3bc 5601 9bbd 890c 01be
000002c0: 8853 113d 0e8a 593c 1a26 e7bd de5e 9d3d
000002d0: 9781 c03c 30e5 2dbd eeff 2fbe f724 85bd
000002e0: 62e0 6f3d a2e5 80bd 085d e33d 7616 c33c
000002f0: ff30 733d 5224 96bd 5173 d0bd be84 4c3d
00000300: 00d3 f93d be2c d8bc f2a9 a03d c1bd 973d
00000310: 2e93 093e d513 bfbc 855c 32bd 3cb3 d43c
00000320: 1974 e13c 5f62 f5bc d4aa 3dbd ccb4 973d
00000330: f6c7 8dbd 5115 e6bb 70db fa3c 0420 0cbd
00000340: 3ab1 f63c e74e 04bd 4b57 56bd 73a6 eebd
00000350: ecf7 b83d e860 ce3d a2ec 033e 742f c3bd
00000360: 617e c3bc dd11 72bd a477 173d e131 febd
00000370: 53b5 323d 9c65 7abd 4eb9 a4bd ee4d 153d
00000380: 3f66 00be f6a9 f6bc 9511 a93d 5968 0c3e
00000390: e56e a73d 61f1 cdbd aa67 30bd 9660 48bd
000003a0: 2c05 dabd ae77 d33d adbe dc3d 7ecd ae3d
000003b0: 7be5 05bc aa6d 943c 4022 d13d 5ed2 053e
000003c0: d4ee d9bc 0dd9 b0bd 99d4 013e f49b 5cbb
000003d0: 67d0 6cbd 9e5d 8b3d a8de bc3d 9ea2 a3bd
000003e0: 8ef6 943d 0bb3 7abd ad2c 633d 5c77 9fbb
000003f0: cbd4 30bb 7ea5 d53c 254c d0bd 3633 6abd
0.0647101 0.034245946 0.08263447 -0.019517828 -0.005637901 0.15952298 0.024523407 -0.0150481
-0.10798985 -0.041925773 0.0757798 0.13751106 -0.11278914 -0.013222578 -0.0066071707 0.13804667
0.06669624 -0.12887341 -0.060706154 0.049352854 0.052662358 -0.060483556 0.13267168 -0.1484692
0.09126565 -0.0017169279 -0.07056414 -0.17741138 0.10144781 -0.0068088225 0.024018 -0.060954552
0.028595807 -0.07670786 0.0102262115 -0.102666095 0.054008257 0.017974786 0.06265905 0.11999838
-0.11571892 0.040790617 -0.04485205 0.017056486 0.050731536 0.04970646 0.12670274 0.08052254
-0.04194921 0.015046932 0.066965826 0.014290979 -0.123398535 0.04181453 0.06639102 -0.045839064
0.02644808 0.12360177 0.08460455 -0.038501877 -0.045838464 -0.0043514115 -0.0010097625 -0.09381637
0.09182788 0.07991352 0.0129171815 0.0965402 -0.056933105 -0.042162713 -0.024470454 -0.06918287
0.12322042 0.07190333 -0.10934696 -0.08302592 -0.005806274 0.10485726 -0.0054255887 -0.10500985
0.07392473 -0.14737624 -0.054693505 0.034294482 -0.024326133 0.14934587 0.1201022 -0.004458448
-0.020097908 -0.0567993 0.10108572 0.033452492 -0.081436485 -0.1468114 -0.03912364 0.05247811
-0.09201472 0.101655215 -0.10815527 -0.09686781 -0.122920044 -0.08457451 0.026385212 0.12611406
0.061076574 0.01614603 0.05261175 -0.08806745 -0.046479136 0.08051273 -0.107713886 0.029914903
-0.026104167 0.030791506 -0.027370475 -0.11328877 -0.03185246 0.124520615 0.013916875 -0.08944267
-0.004527083 -0.04828014 -0.024326699 0.12787274 -0.022460377 -0.080647916 -0.008881538 0.052803837
-0.11560465 0.033373937 0.078218594 -0.012018908 -0.14518298 0.06453029 0.10649865 0.12509061
-0.06223277 0.07437742 -0.011866445 -0.16546565 -0.02088143 0.10664133 0.001373658 0.018805087
-0.08369166 0.00788802 -0.12201918 0.071080916 0.07540593 -0.11824872 -0.15992002 0.100065395
-0.114569776 0.054919403 0.038142502 0.105509445 -0.08603486 0.011794341 0.056760807 0.10957869
0.07404923 -0.03136508 0.044758536 -0.1644972 0.008698687 0.031525105 -0.042492025 -0.053227622
-0.019100836 0.103397295 -0.03382267 0.021958908 -0.04416293 -0.02186587 -0.07568614 -0.12602438
0.035480052 0.013277544 -0.11286564 0.0768411 0.023499293 -0.0424549 -0.17187473 -0.06501191
0.058563598 -0.06293799 0.11101729 0.023814421 0.0593729 -0.07331146 -0.10178245 0.04993128
0.12198448 -0.026388522 0.078449145 0.074092396 0.13435051 -0.023324886 -0.043545265 0.025964372
0.02752118 -0.029954134 -0.046305493 0.07407531 -0.06922905 -0.007021584 0.030622214 -0.03421022
0.030113805 -0.03230181 -0.052329343 -0.116528414 0.09031662 0.10077077 0.12883237 -0.09530535
-0.023863973 -0.059099067 0.036979333 -0.124118574 0.043629956 -0.06113206 -0.080431566 0.036451273
-0.12539004 -0.03011034 0.08255307 0.1371168 0.08175448 -0.10055805 -0.04306761 -0.048920237
-0.10645518 0.103255615 0.10778556 0.08535288 -0.008172388 0.018118698 0.10211611 0.1306853
-0.02660314 -0.08635149 0.12678756 -0.0033662291 -0.057815935 0.068049654 0.09222156 -0.07990001
0.07273589 -0.061205905 0.055462528 -0.0048665237 -0.0026982303 0.02607989 -0.101707734 -0.057177745
