lstm_real_data.pth (torch, 364437 bytes, 18 tensors)

encoder_lstm1.weight_ih_l0 f4 [256, 5]
000000 7c 4f aa bd b1 c5 6f be 71 b9 15 3d 0b 83 0f be
       -0.08315942 -0.23415257 0.036553804 -0.14014833
000010 69 d0 e7 3d de 03 29 3d d8 15 de 3d cf 5c 13 be
       0.11319048 0.041263454 0.1084401 -0.14390872
000020 b9 a2 86 3d 05 a4 ac 3c bd 7d 81 3e 7b 9b 41 bd
       0.06574006 0.021074304 0.25291243 -0.04726742
000030 43 23 88 3e fc da 90 3d e8 21 52 3d d6 47 01 3e
       0.26589403 0.07073018 0.051301867 0.1262506
000040 23 55 ac bd e9 bd 02 bd 44 51 1a be 62 78 4d bc
       -0.08414676 -0.031919394 -0.15070063 -0.0125409085
000050 c5 c7 14 be cd 1e 13 be a7 7a e4 3c ad 61 56 3e
       -0.14529331 -0.14367218 0.027890516 0.20935698
000060 5d a0 6b 3e d8 a9 07 be 70 ca ef bc 93 fc 57 3e
       0.23010392 -0.13248384 -0.029271334 0.21092443
000070 4e 74 85 be ea 2d 60 3e c9 e7 90 3d 6e 18 83 3d
       -0.26065296 0.21892515 0.070754595 0.06401144
000080 d8 71 23 3e f7 a6 3b bd 84 21 3b bd ab a6 df bd
       0.15961397 -0.045813527 -0.04568626 -0.10920461
000090 15 99 75 3c 61 4b 4e 3e 1e 93 67 3e 2e 05 b9 bd
       0.014990111 0.20145942 0.22614715 -0.09034191
0000a0 71 0f 1a 3e 0c 5f c6 3d 14 48 80 be d5 67 5c 3d
       0.15044953 0.096860975 -0.2505499 0.05380996
0000b0 7d bd f6 bd bf 01 71 3d 3a 2b 91 bd 91 ff 12 be
       -0.12047861 0.058839556 -0.07088323 -0.14355303
0000c0 f3 fb a7 bd 3f 7d 0c 3d cc fd 92 3d ff 65 38 3e
       -0.082023524 0.03429913 0.07177314 0.18007658
0000d0 42 f8 96 3e ef 84 0f be 20 27 17 bd 27 56 e2 ba
       0.2948628 -0.14015554 -0.036902547 -0.0017268107
0000e0 cc 36 e3 3d 0a ee b4 3e 12 23 4c 3e b0 60 bc bd
       0.11094436 0.3533786 0.19935253 -0.09198129
0000f0 b3 8b 16 be f3 3f 15 3e 85 41 82 3e 8b d0 1c bd
       -0.14701729 0.14575176 0.25440612 -0.03828482
000100 f1 95 80 bd e2 3f 01 be 19 25 11 3d 7f d1 ee 3c
       -0.06278599 -0.12622026 0.03543577 0.02915263
000110 65 06 fa 3d cf e7 0b 3e 0a 52 ec 3d 77 1b 4c be
       0.12208251 0.13662647 0.11539085 -0.19932352
000120 b7 27 2b bd 1f b9 31 be d0 d5 6c be 80 56 78 bd
       -0.041785922 -0.17355774 -0.23128438 -0.060629368
000130 0d 1d 73 3d 03 5b 89 be 71 36 24 be e2 4a 08 bd
       0.059353877 -0.2682725 -0.16036393 -0.03327454
000140 4b 43 84 bc 48 b1 dd bd 33 ec c1 bc 86 47 46 bd
       -0.016145369 -0.10824829 -0.023672199 -0.048408054
000150 1d b4 15 3d f3 c1 44 3e 98 6a 0f be 7e 27 9c bd
       0.036548723 0.19214611 -0.14005506 -0.0762472
000160 12 a8 e9 bc 29 77 88 3e 47 8d 7d 3e c8 a4 63 3c
       -0.028522525 0.26653412 0.24760924 0.013894267
000170 fe 9e 21 3e 10 0e 1f be e3 02 52 3e 69 ec e1 bd
       0.15783307 -0.15532708 0.20508914 -0.1103142
000180 da 49 a7 bd bd b1 a1 bd 85 3c c4 3d 3f 5f 8c 3e
       -0.08168383 -0.07895229 0.09581856 0.27416417
000190 fa c8 ae 3d ce f9 bb 3b 07 d2 cc 3b 5b 09 ae 3d
       0.08534427 0.005736566 0.006250623 0.08497878
0001a0 b9 51 64 be bd 4c 23 be 8c ec 29 bd 2c f4 da bd
       -0.222968 -0.15947242 -0.041485354 -0.10691103
0001b0 36 2f 6d be 41 42 80 bd ea 86 78 be 5a ff 74 be
       -0.23162541 -0.06262637 -0.24270216 -0.23925534
0001c0 da b2 bc bd a8 1f 92 3d e3 f0 d6 3b 7f 58 a2 3d
       -0.09213801 0.07134944 0.0065594777 0.079270355
0001d0 3a 74 46 be e1 f0 5d bc 7d f9 33 3e 35 a0 00 be
       -0.19380274 -0.0135462 0.17575641 -0.12561114
0001e0 cb 09 10 3d a9 1a 19 be 7c 39 34 3e 1f 46 80 bd
       0.03516559 -0.14951576 0.17600054 -0.062633745
0001f0 0a 5f 18 be 29 6e 02 bd ac b0 3a 3e 7e a8 81 3e
       -0.14880005 -0.03184334 0.18231457 0.25323862
000200 d0 7d 88 bd 1d 59 88 3e 7a 57 9b bc 2e c8 ca 3c
       -0.06664622 0.26630488 -0.01896261 0.024753656
000210 ac 2d 8f bc c8 13 fd bd a1 78 c4 bd c5 0f 87 bd
       -0.017477833 -0.123572886 -0.09593321 -0.06594805
000220 cd f0 25 3b 20 fc 7e bd 86 4a 6f 3d 84 de b5 3d
       0.002532053 -0.062252164 0.05842068 0.08880332
000230 d0 70 a7 bc 20 9a c1 bd 10 e6 ba 3c 72 44 da 3d
       -0.020439535 -0.09453225 0.02281478 0.10657586
000240 47 55 9c bc 47 6e 48 3e 57 23 59 bd a8 05 93 3d
       -0.019083632 0.19573317 -0.05301222 0.07178813
000250 4e c2 a7 3d 87 f7 62 bc c5 06 49 3d f4 e1 f3 bd
       0.081913576 -0.01385296 0.04907872 -0.119083315
000260 d2 b0 2f 3d d4 3c e4 bd c0 14 bc 3d 90 44 43 3e
       0.04289324 -0.111444145 0.09183645 0.19069123
000270 8d 07 24 be 90 ef 1c 3d cf 30 7a 3e d6 fb 25 3d
       -0.16018505 0.038314402 0.24432682 0.040523373
000280 57 63 98 be c1 28 0b bd 04 d5 33 be 57 b8 25 3e
       -0.2976329 -0.033974413 -0.17561728 0.16183601
000290 84 78 1d be 9b 3b 0b be 50 f8 fa 3b 88 d2 40 be
       -0.15378004 -0.13596956 0.0076589957 -0.18830311
0002a0 75 82 ee bd 91 8a 8f 3c 17 85 6c 3d f7 06 38 3b
       -0.116459765 0.017522128 0.057744112 0.0028080323
0002b0 d6 05 2f 3d 57 4b cf be 0d 5b cc bc 2f 47 72 3d
       0.042730175 -0.40487167 -0.02494576 0.059149917
0002c0 57 b1 19 bd e5 a0 1f 3d b1 d9 86 bc a4 f8 ea 3d
       -0.03752264 0.0389718 -0.016461225 0.11473206
0002d0 f8 25 07 bd e1 ed 77 be fb 87 8e bd ee d4 53 3e
       -0.032995194 -0.24211837 -0.0695953 0.20686695
0002e0 c2 03 10 be 52 b3 a2 3c 8f 72 8a 3d 43 2e 7f bd
       -0.14063933 0.019860897 0.067601316 -0.062299978
0002f0 49 e9 41 3e f1 ae 64 be d4 f7 1b 3e 8f bc 13 bc
       0.18936647 -0.2233236 0.15231258 -0.009017124
000300 40 9d a4 bd a7 ce 3d 3c 41 6b b8 3d e5 6f a9 bd
       -0.080378056 0.011584914 0.09004832 -0.08273295
000310 09 7b 43 bd e2 46 ae bd 81 de fa bd fe 8f 93 bd
       -0.047724757 -0.085096136 -0.122494705 -0.07205199
000320 c7 d0 7b 3b d4 c6 c4 bd 19 06 4b be 82 30 04 3e
       0.0038424002 -0.09608236 -0.19826545 0.1290913
000330 14 c3 81 be d6 ba ef 3d 45 f3 65 3e c0 29 35 3e
       -0.25344145 0.11705558 0.22456081 0.17691708
000340 7b 66 d6 3e ad e8 58 3c 94 03 44 be 4f c6 94 3d
       0.4187506 0.013239068 -0.1914199 0.07264387
000350 96 b6 92 be 3c f1 f0 3c af e4 ed 3d 36 13 4b 3e
       -0.28654927 0.029411905 0.116158836 0.19831547
000360 0f 7d 09 bd dc ba fb bc d8 41 23 3e 1d 83 b6 3b
       -0.03356653 -0.03072875 0.15943086 0.005569829
000370 b8 ce 47 bd c3 3c 06 bd 52 45 c5 bd cf b0 0d 3e
       -0.048781127 -0.03277279 -0.096323624 0.13836978
000380 a8 8e b1 bd d1 87 4f 3e 9e e5 9d bd 70 7d d3 3d
       -0.08669788 0.20266654 -0.07709812 0.1032666
000390 9b 8b 54 bd a2 aa 40 be 8d 89 31 3e 20 6a da bd
       -0.05189095 -0.18815091 0.17337628 -0.10664773
0003a0 1e 5b 0f bc 3b 47 69 3e 79 80 54 bd 5a 6d b4 bc
       -0.008749751 0.22781079 -0.051880334 -0.0220248
0003b0 52 c6 19 be 12 ba 4d bd b4 98 9f 3d 16 ff f3 3d
       -0.1501706 -0.05022628 0.07792798 0.11913888
0003c0 d2 ff 49 be 08 42 23 bd c4 0b bd bc 4a 36 dd 3d
       -0.19726494 -0.039857894 -0.0230769 0.108013704
0003d0 67 2d 18 be 4a a4 ff 3d 38 6b 20 3c af fc e7 3d
       -0.1486107 0.124825075 0.009791188 0.113274924
0003e0 d5 08 fc bd 68 60 42 be ca 3b d7 bc 6d e9 0c 3d
       -0.12306372 -0.18982089 -0.026273627 0.0344023
0003f0 a4 1b c4 3b 2f 4f 7c bc 7f 18 0f bd a2 e9 7b 3e
       0.0059847403 -0.015399738 -0.03493547 0.24600843

encoder_lstm1.weight_hh_l0 f4 [256, 64]
000000 7e 36 80 be c4 93 12 3d 9d 11 13 3c cc ee 43 3e
       -0.25041574 0.03578545 0.008976367 0.19134063
000010 67 33 0f 3d af a1 88 bd e7 a6 d5 3d 4f 65 13 3e
       0.03496113 -0.06671464 0.10432225 0.14394115
000020 0e 69 39 3d 69 8d 02 be a3 91 53 3c 9d cb 69 3e
       0.045266204 -0.12749256 0.0129131405 0.22831579
000030 39 7f 87 3d 14 4c 4a 3e 89 a8 89 bd bf f1 e2 3b
       0.06616063 0.19755584 -0.06721599 0.006925791
000040 e1 35 5a 3d 71 12 d1 bc 2d 3b 15 bd 79 1d ca bd
       0.05327404 -0.025521489 -0.036433388 -0.09868903
000050 ae af 6f be c0 84 03 3d b8 44 af bd 67 56 2a 3e
       -0.2340686 0.032109022 -0.08558029 0.16634522
000060 75 87 3c 3d 5a ae 6a bd 4b ff 34 bd b4 f6 c4 3c
       0.04602762 -0.05729518 -0.04418878 0.024043418
000070 bf c1 cf bb 35 29 f5 bc d8 37 62 bd e6 4a 29 3d
       -0.006340235 -0.029926876 -0.055229038 0.041331194
000080 19 32 cc 3d f4 08 39 3e 1b fa bc 3d ec 10 11 be
       0.09970493 0.18069822 0.09227391 -0.14166611
000090 0e 24 e1 3c 9c 40 33 bd 86 6f b2 3b a0 bd 63 be
       0.027483013 -0.04376279 0.0054454235 -0.22240305
0000a0 18 84 fa bd f8 85 41 3e 1c 38 c9 3d ee ec d3 3b
       -0.12232226 0.18898761 0.09825155 0.006467453
0000b0 50 38 cf bc c1 86 90 3d 5d f4 71 be 42 46 50 be
       -0.025295407 0.07056952 -0.23628373 -0.20339301
0000c0 19 4d 82 3c 66 39 9c 3e 38 db d3 3d 6d cd 90 bd
       0.015905904 0.30512542 0.10344547 -0.07070432
0000d0 08 2a 4f 3d ba e9 fb 3d 6a 3c da bc 46 d5 a3 3c
       0.050577193 0.12300439 -0.026640136 0.019999158
0000e0 5b 37 e1 bc 1a 4c 87 bc 8c 5d 22 3e 5f cb 1b bd
       -0.027492216 -0.01651578 0.15855998 -0.038035747
0000f0 8e f3 36 be 9e 65 68 3d 0d 34 71 bd 43 75 14 3e
       -0.17866346 0.056737535 -0.05888753 0.14497857
000100 a1 4a 3a be 73 95 09 be 0a 89 dd bd ff 70 55 bb
       -0.18192531 -0.13435917 -0.10817154 -0.0032568572
000110 e5 8b fa bd 2c 4e 52 be cf b7 bd 3d e6 16 64 3b
       -0.12233714 -0.20537633 0.09263574 0.0034803688
000120 17 43 04 be 98 5c 52 3c 60 05 96 3c d9 6b 2e bd
       -0.12916218 0.012839459 0.01831311 -0.04258332
000130 bc 4c 96 bc b0 09 c4 3d c3 2c 3b 3e 63 c2 1c bd
       -0.018347137 0.0957216 0.18278794 -0.03827132
000140 90 c4 1d 3e 07 9c b4 3d bb bd 58 3e cf 07 c8 3d
       0.15407014 0.08818822 0.21166126 0.09767114
000150 94 9c 15 3e 07 e9 78 3d ed f1 e5 3b f2 8d 75 bd
       0.14610511 0.060769107 0.007017365 -0.059949823
000160 7a 55 f9 3c 9d 34 4c be 1d 03 99 3c a3 82 92 bd
       0.030436266 -0.19941945 0.018678242 -0.07153823
000170 16 e7 4f 3c e0 4f e4 bd b7 27 42 be c3 06 86 bb
       0.0126893725 -0.111480474 -0.18960463 -0.0040901615
000180 a8 08 bc bc 59 83 bf bd e0 b4 a5 3d d6 22 69 bd
       -0.022953346 -0.093512245 0.0809114 -0.056917988
000190 65 c2 c2 bc 45 3c bd 3c 22 3f 26 3e 79 97 db bd
       -0.023774335 0.023100028 0.16235021 -0.107222505
0001a0 45 bd 33 3d db ac da 3d e6 ce ef bc 1a 44 fc bc
       0.043881673 0.10677501 -0.029273462 -0.030794192
0001b0 24 60 90 bd bc 66 1c be a0 b3 1c 3d dc c7 8c bc
       -0.07049587 -0.15273565 0.03825724 -0.017185144
0001c0 2f 6a dc 3d e0 9a d8 3d 5f bf 51 3e 41 4b e1 bd
       0.107624404 0.10576415 0.20483159 -0.11000682
0001d0 fb 5d 32 3e 7c d2 a7 3d 64 dc b3 bd 55 42 38 3d
       0.17418663 0.081944436 -0.087822706 0.044985134
0001e0 bd fb c2 bd 0e fb 43 3e 22 20 06 bc f3 6c 3b bd
       -0.095206715 0.19138739 -0.008186372 -0.0457582
0001f0 4c 00 99 bd da 9e bc 3d 16 b7 1c be bb 48 42 3e
       -0.0747076 0.09209986 -0.15304217 0.18973057
000200 36 3e 95 be 74 17 31 be f1 30 67 bd 4d 1d 64 3d
       -0.29149026 -0.17294103 -0.05644316 0.055692006
000210 d0 cf 49 be 3a 95 61 be 85 38 1b 3e 7f 05 38 3d
       -0.1970818 -0.22029582 0.15158279 0.044927116
000220 be 24 ca 3b 03 4f 1e be 17 3c 7b 3c 38 66 37 3e
       0.006168931 -0.15459828 0.015334151 0.17910087
000230 66 ea 48 be 4f f3 1d 3e 5f c6 1a 3e 6f ae 43 bc
       -0.19620666 0.15424846 0.15114735 -0.011943444
000240 4e 97 db 3d 97 b0 93 bd 8a 07 ef bc 3f d8 15 3d
       0.107222185 -0.07211416 -0.0291784 0.03658318
000250 1b c7 48 be f6 c9 f2 3d 6f c9 da bd 78 1c 2d be
       -0.19607203 0.11854927 -0.10682952 -0.16905391
000260 4a a1 2d 3e d9 ef 6e 3d e2 36 f3 3d 6d 2d cb 3d
       0.16956058 0.058334205 0.118757024 0.09920774
000270 8b c2 aa 3e 88 ca df 3d 07 bd 8b bd 11 11 1b 3e
       0.3335155 0.10927302 -0.068231635 0.15143229
000280 37 28 ec 3d ea fd 8b 3e df b7 54 3d c5 ac 49 bd
       0.11531108 0.2734216 0.051933166 -0.04923703
000290 f9 bd 47 3e 59 c5 b1 3d 34 3e 6d 3c ce 14 c6 bb
       0.19506063 0.08680219 0.014480162 -0.0060449606
0002a0 41 13 c6 bd 84 69 02 3e bb 6e b6 3d 77 62 a1 3d
       -0.09671641 0.12735564 0.08907839 0.07880109
0002b0 8e 4e 88 be df 00 26 3d 64 2a be bc ec 6b 65 3d
       -0.26622432 0.040528174 -0.023213573 0.056011125
0002c0 6f 0e 88 3e f8 d8 bf 3d 16 fe 83 3e 00 f3 2d be
       0.26573512 0.093675554 0.2577979 -0.16987228
0002d0 8c c3 03 3e 24 bc 9b 3c 58 80 79 bd af 7f 0b 3e
       0.12867564 0.01901061 -0.060913414 0.13622926
0002e0 8e db 81 be 64 d0 57 3e 03 fc 78 3e 19 22 26 3d
       -0.2536282 0.21075588 0.24314885 0.04055986
0002f0 e1 07 e6 bb f4 9a ff 3c 57 8f 61 be 3d a4 b4 bc
       -0.007019982 0.031201817 -0.22027336 -0.022050971
000300 bd c2 2e be 7d ad f0 bd 96 38 92 bd 4b bf c0 bd
       -0.17066474 -0.1175184 -0.07139699 -0.09411486
000310 90 c7 bf bd 9e 2e 6f be f2 31 bf 3d a6 1b 61 3e
       -0.093642354 -0.23357627 0.09335698 0.21983203
000320 36 0d af bd 18 16 5a be 14 f4 d9 ba 4c f1 01 3e
       -0.08547442 -0.2129749 -0.0016628527 0.12689704
000330 1f 47 77 bd 10 2b 34 3e 6d 4a 28 3e 7a b6 92 3d
       -0.06037056 0.17594552 0.16434641 0.07163711
000340 7c 42 34 3d 0c 17 0d 3e fd 7d 3b 3e c7 06 94 be
       0.044008717 0.13778323 0.1830978 -0.2891142
000350 90 c9 4b 3d 1c 02 01 3e 0d c0 19 bd 62 54 90 3d
       0.04975277 0.12598461 -0.03753667 0.07047345
000360 a1 5c b0 3d 4c 2c eb bd 99 72 7c 3e 7d 89 7d 3e
       0.086114176 -0.11483058 0.2465309 0.24759479
000370 10 9d 2d 3d a4 cb ec 3c 53 95 73 be 1f 0a 1a 3c
       0.042386115 0.028905697 -0.23787431 0.009401827
000380 04 96 f3 b9 08 46 b8 3d 27 df 0f bd 1b 76 d6 bd
       -0.00046460342 0.089977324 -0.035124924 -0.104717456
000390 79 f9 3f 3e fe a4 24 3d 42 4c 5a 3d 22 40 37 be
       0.1874751 0.04019641 0.05329538 -0.17895558
0003a0 4c b5 97 bd 07 f7 0f 3e 6b 14 df 3c 7e a6 11 3e
       -0.074076265 0.14059077 0.027231416 0.14223668
0003b0 2a 42 c3 bc ea 2c 1e be 85 fb 44 3d 6d e3 ed bd
       -0.02383526 -0.15446821 0.04809143 -0.11615644
0003c0 53 a6 2b bc b9 10 42 3e 12 f6 ee 3d 99 b4 0e bd
       -0.0104766665 0.18951692 0.11668028 -0.0348402
0003d0 b8 6e 4f 3e 66 b2 58 be 76 98 51 be 4f 18 ac 3d
       0.2025708 -0.21161804 -0.20468315 0.08403074
0003e0 dc 01 4d be 04 5c 80 3d a8 7e 08 3e 44 dd 05 be
       -0.2002024 0.062675506 0.13329566 -0.13072687
0003f0 ea 3c f6 bd 0c 32 d8 3d bb 2e af bd b5 24 a1 3d
       -0.12023337 0.10556421 -0.08553835 0.078683294

encoder_lstm1.bias_ih_l0 f4 [256]
000000 a0 0c 02 3e 35 4b 18 3e b6 3d 59 3e 59 73 a4 3e
       0.12700129 0.14872439 0.21214947 0.32119253
000010 b5 4d a9 3e f7 0e 52 3e 96 9e c1 3e 96 be 3f 3e
       0.33067098 0.20513521 0.37816304 0.18725047
000020 fc bf cf 3e 2f 6f d9 3d 28 fe a0 3e 91 36 ce 3d
       0.4057616 0.1061691 0.31443906 0.100690015
000030 18 10 4c 3e e6 db fe 3d 8b 26 66 3e 68 a4 91 bc
       0.19928014 0.12444286 0.2247564 -0.01777859
000040 46 29 51 3e 63 c5 da 3d 05 3b 9c 3e 53 fd 51 3e
       0.20425901 0.1068218 0.30513778 0.20506792
000050 3b 84 5f 3d 0c cd e1 3d aa 9c 11 3e f8 d5 5f 3d
       0.054569464 0.11025438 0.14219919 0.054647416
000060 d8 b5 6b 3d a1 de 78 3e 9e 38 86 3e 17 8d 87 3e
       0.057546467 0.24303676 0.2621507 0.2647483
000070 d2 cc 39 3e 1e 99 a5 3e 99 9c 30 3e a0 32 9a 3e
       0.18144539 0.32343382 0.17247237 0.3011675
000080 ef c9 ab 3e 80 14 88 3e 2c 09 dc 3e 9b b7 8b 3e
       0.335525 0.2657814 0.42975748 0.27288517
000090 90 3f c5 3e a1 df 9b 3e 71 a9 98 3e 88 d1 12 3e
       0.38525057 0.30444053 0.29816774 0.14337742
0000a0 fa e7 44 3e de 71 94 3e 01 39 67 3e 2f a2 b5 3e
       0.19229117 0.28993124 0.22580339 0.354753
0000b0 bf 26 8a 3e 71 81 77 3e 70 94 e6 3d ba aa 37 3e
       0.26982686 0.24170472 0.11258781 0.17936221
0000c0 14 41 f7 3d 6d 47 91 3d a5 6c 1d 3e 84 34 22 3e
       0.120729595 0.070937015 0.15373476 0.15840346
0000d0 ae aa 3a 3e ff 89 a5 3e 1d 89 82 3e d3 30 8a 3e
       0.18229172 0.32331845 0.25495234 0.26990375
0000e0 6e 05 69 3e 77 60 33 3e 1a c8 c9 3d 63 23 a7 3e
       0.22755978 0.17517267 0.098526195 0.32644185
0000f0 c5 90 09 3e b2 9b a3 3e 0a 9e 3a 3e 81 e4 83 3e
       0.13434131 0.31954724 0.1822435 0.25760272
000100 34 7f 36 be 12 21 2b bd 8c 74 31 bd 0c 3d 07 be
       -0.17821962 -0.041779585 -0.04332404 -0.13206881
000110 93 1d ad 3d 28 45 c6 3d 49 ad 1a be b9 da ce 3d
       0.084529065 0.09681159 -0.15105166 0.10100312
000120 c5 33 2f 3e bd 23 18 be 11 d7 4e 3e e8 e9 83 3b
       0.17109592 -0.14857383 0.20199229 0.0040256865
000130 a5 79 f9 bc b6 e0 0f be d9 66 0e 3e f5 f0 11 be
       -0.030453512 -0.14050564 0.13906421 -0.14252074
000140 18 7c 2e bd 27 18 c6 3d 65 cf 18 3d 00 54 9f bd
       -0.042598814 0.096725754 0.03730716 -0.077796936
000150 16 92 f5 bd fd 5a 60 3d b1 6e 40 bc 9c 5f 25 bc
       -0.11990754 0.054774273 -0.011745141 -0.010093596
000160 39 27 31 be 85 04 a4 bd 8a e9 66 be eb 1f 26 be
       -0.17300119 -0.080086745 -0.22550026 -0.16223113
000170 36 a4 2c be 75 3f e9 bd eb 4a 72 3d 07 65 0e 3d
       -0.16859517 -0.113890566 0.05915348 0.034764316
000180 c9 fc 1a 3e 9a c0 99 bd 06 e6 02 3c a1 82 86 bd
       0.15135492 -0.07507439 0.007989412 -0.06567884
000190 f4 5e 03 3e c0 52 e1 3d 31 d0 45 be fc 9a 22 be
       0.1282919 0.110021114 -0.193177 -0.15879434
0001a0 6c 86 a8 3d 5b 22 1e 3e 31 3a 48 3d bb b8 2e 3d
       0.08228764 0.15442793 0.04888362 0.04265664
0001b0 62 e1 4e 3c c7 4c f0 3d 50 44 16 bd 9d 6b ed bc
       0.012626978 0.11733394 -0.03668624 -0.028981978
0001c0 f5 21 8e 3c e1 e9 bd bb 8d 66 51 bd 15 51 c7 bd
       0.017350176 -0.005795703 -0.05112319 -0.09732262
0001d0 8f de 4c 3d d4 0d 3b be 7f 89 98 3c 6d fa 11 bd
       0.050016936 -0.18266994 0.01862025 -0.035639215
0001e0 fd e1 82 3c 61 01 b2 3d 0d 6c e0 3d f8 58 a9 bd
       0.0159769 0.08691669 0.10958109 -0.082689226
0001f0 ae fe 21 be f1 cd d3 bd 95 f1 6c be ed 0e 8b bd
       -0.15819809 -0.103420146 -0.23139031 -0.06789956
000200 2c ca f4 3c 7e d7 36 be 20 ec b6 be 57 5f 01 3e
       0.02988156 -0.17855641 -0.35727024 0.12634026
000210 e9 c3 ab be 27 13 c9 be 7b be 59 3e 84 81 bc 3e
       -0.33547905 -0.39272425 0.21264069 0.36817563
000220 9c e6 b5 be 21 ab 29 be 5a 81 c3 3e 2f 60 4b 3e
       -0.35527503 -0.16569187 0.38184625 0.1986091
000230 4c 13 57 bd 30 0b c8 3d e5 74 c1 3e 93 e5 6b 3d
       -0.052508637 0.09767759 0.37784496 0.057591986
000240 2a 85 73 3e a0 98 19 3e dd 90 9c 3e 08 87 4c 3d
       0.23781267 0.14999628 0.30579272 0.049933463
000250 bf e0 db bd b1 1b 01 3e 77 e8 8b be a8 a1 8e 3c
       -0.10736226 0.1260822 -0.27325794 0.017411068
000260 d2 65 31 3d cf bf 7b be f6 88 83 3e 7e 25 2f 3e
       0.043309994 -0.24584888 0.2569043 0.17104146
000270 ce e3 10 3e b9 e5 5d be ff b7 2b be 67 8a 9a 3e
       0.141494 -0.21669663 -0.16769408 0.30183718
000280 0b 77 ae 3e 05 81 c7 3d be 56 c5 3e 02 f6 71 3d
       0.34075198 0.097414054 0.38542742 0.059072502
000290 0c cc b5 3e 33 b9 bd 3e e5 61 24 3e 9a 7a 02 be
       0.35507238 0.37055358 0.16052969 -0.12742081
0002a0 41 75 a0 be 91 1c c1 3e e6 eb 97 3e 7a 1d a5 3e
       -0.31339458 0.37717107 0.29672164 0.3224905
0002b0 3e 9d 98 be a8 05 8d be 1f d4 b4 3d 21 90 2c bd
       -0.29807466 -0.27543378 0.088295214 -0.04212964
0002c0 51 a8 1d 3e 10 7c c9 3d de b6 64 3e 9e bd 94 be
       0.15396239 0.09838116 0.22335383 -0.29050916
0002d0 c7 fd 89 3e e6 d7 64 be 8c 31 53 be 59 e6 b5 3e
       0.2695143 -0.22347984 -0.2062437 0.35527304
0002e0 17 ce 5b be 0c c1 a3 3e 9b 06 4f 3e 11 1c 31 be
       -0.21465336 0.3198322 0.20217364 -0.17295863
0002f0 31 4d 43 be 7b 9a be 3e 04 55 e2 3d e2 86 70 3d
       -0.19072415 0.37227234 0.11051372 0.058722384
000300 ef ef a9 3e f0 db 01 3e cb fa 3f 3e f6 b0 4b 3e
       0.33190867 0.12681556 0.18748014 0.19891724
000310 02 e6 8b 3d f8 a6 a0 3d 0d dd 5e 3e 83 af b8 3c
       0.0683098 0.07844347 0.21764012 0.022544628
000320 97 ad 9e 3d 5c 17 ae 3e c2 c2 e5 3d 21 5d 70 3e
       0.077479534 0.34002197 0.11218788 0.23473026
000330 f2 08 d1 3d b5 b3 c7 3d 05 c4 c6 3d f2 7e 77 3d
       0.10206784 0.09751073 0.097053565 0.0604238
000340 54 b1 48 3e bc 1e 2c 3e 00 8c 1b 3d a6 20 03 3e
       0.19598895 0.16808599 0.03797531 0.12805423
000350 c5 8f fa 3d 75 03 22 3e 67 5c cd 3d cd 39 93 3e
       0.12234453 0.15821631 0.1002739 0.28755036
000360 98 f6 0f 3e 07 7f 90 3d f3 55 85 3e 4c 52 93 3e
       0.14058912 0.070554785 0.26042137 0.28773725
000370 dd 54 88 3e 1e 6a d7 3d 87 46 8e 3e 3f 28 17 3e
       0.26627246 0.10518287 0.27788183 0.14761446
000380 55 9b 96 3e 3b d0 bf 3d 3b 7c 85 3e be ab 96 3e
       0.29415384 0.09365889 0.26071343 0.29427904
000390 b1 de cf 3e c0 ed 8f 3e 46 9e cb 3e 08 f1 5f 3e
       0.40599588 0.28111076 0.3976919 0.2186929
0003a0 ca 8b 05 3e 57 78 d9 3d 06 7c 44 3e 5c 3c a1 3e
       0.13041607 0.10618656 0.19187936 0.31491363
0003b0 0a 91 8f 3e 21 2f ab 3d fe 68 21 3e 22 14 09 3e
       0.28040344 0.083585985 0.15762708 0.13386586
0003c0 d8 6f 78 3d 07 a3 92 3e dc c3 c5 3e b1 f3 6e 3e
       0.060653538 0.28640005 0.3862599 0.23335148
0003d0 22 bc 79 3e 02 94 72 3e fe 9a cf 3d 72 0b e1 3d
       0.24388173 0.23689273 0.10136984 0.10988511
0003e0 56 1a 03 3e be 20 27 bc 0a 6b 3d 3e c1 30 9b 3e
       0.12803015 -0.010200677 0.18497863 0.30310634
0003f0 9e 56 67 3e 2d 27 4c 3e 54 43 2b 3e 74 7c 53 3e
       0.22591636 0.1993682 0.16724902 0.20652944

encoder_lstm1.bias_hh_l0 f4 [256]
000000 64 86 34 3e a5 bc e3 3d f8 7c ae 3e b1 24 9a 3e
       0.17629391 0.111199655 0.3407972 0.30106118
000010 07 ca bb 3e 92 5c e5 3e d4 43 76 3e 7b 1c 9a 3e
       0.36677572 0.44797188 0.24049312 0.30099854
000020 55 23 98 3e ed 3c a5 3e de 51 97 3e 03 c3 00 bd
       0.29714456 0.32273045 0.29554647 -0.031435978
000030 48 22 f4 3d 84 e4 e1 3d 10 03 45 3e 9f 1d 42 3d
       0.11920601 0.11029914 0.1923945 0.04739153
000040 b5 cb df 3d ee 1b 3b 3e 34 25 a9 3e 47 df b6 3c
       0.10927526 0.18272373 0.33036196 0.022323264
000050 ce 51 17 3e 25 cb 2d 3e f7 39 9c 3e 74 4f 65 3e
       0.147773 0.16972025 0.30512974 0.2239359
000060 2e 6a b0 bc 81 86 89 3e 2d 74 c3 3e 4a fd 4f 3e
       -0.021535005 0.2686043 0.38174573 0.20311466
000070 16 37 06 3e b2 40 3d 3e e6 b2 ed 3d a0 0c 8b 3e
       0.13106951 0.1848171 0.11606388 0.2715807
000080 fe 38 b1 3e fe 8b 87 3e f1 f2 a5 3e 3f ab 2d 3e
       0.34613794 0.26473993 0.32411912 0.16959856
000090 aa 43 d8 3e 79 c2 3a 3e 89 a2 b7 3e 78 56 8e 3d
       0.42239124 0.18238248 0.35866192 0.06950086
0000a0 b8 d3 95 3e 43 d4 48 3e 77 49 3c 3e 1e 67 cd 3e
       0.2926309 0.19612221 0.183874 0.40117735
0000b0 1d 8a 52 3e 14 f6 98 3e 65 a4 46 3e 32 f3 c4 3d
       0.20560499 0.29875243 0.19398649 0.09616698
0000c0 f6 f5 be 3d 71 37 cc 3d fb 8b 4d 3e 81 18 9e 3e
       0.09324257 0.09971512 0.2007293 0.3087807
0000d0 d6 e6 92 3e dc 87 60 3e 11 57 76 3e c3 c6 aa 3e
       0.2869174 0.21926826 0.2405665 0.33354768
0000e0 37 13 9e 3e 47 07 6b 3e 8b 8a 5d 3e b5 59 b9 3d
       0.30874035 0.22951995 0.21634881 0.090503134
0000f0 71 5f d3 3c 81 73 49 3e 51 9d 95 3e 27 58 62 3e
       0.025802346 0.19672967 0.29221585 0.2210394
000100 29 4a 97 bd a4 e5 f5 bc 14 bb 22 bc 73 38 31 be
       -0.07387192 -0.030016728 -0.009932298 -0.1730669
000110 1b 4b 0b 3e 12 81 97 bd 2d 49 d1 bd 87 e7 0f bc
       0.13602869 -0.07397665 -0.10219035 -0.008783228
000120 fd aa 3f 3d fd 88 27 bd 20 23 4e 3e aa 6e 86 bd
       0.046793927 -0.040902127 0.20130587 -0.06564076
000130 5e a5 55 bd 66 af 21 be eb ac 09 3e 84 c4 b8 bc
       -0.05215966 -0.15789565 0.13444869 -0.022554643
000140 c5 ba 3e bd b3 27 fc 3c 9a 9d 86 bd 7c 05 30 3c
       -0.046564836 0.030780649 -0.06573029 0.010743495
000150 c2 a5 eb bd a6 4d 91 bd 23 2a f0 3d 9f dd 6a be
       -0.11506225 -0.070948884 0.11726787 -0.22936104
000160 42 82 52 3c 0a b3 01 3e fb 8c fb bd 7d 67 42 be
       0.012848439 0.12665954 -0.12282749 -0.1898479
000170 38 b0 76 bd 81 e8 01 be 77 9c 00 be b8 b7 e5 bc
       -0.06022665 -0.1268635 -0.12559687 -0.028041705
000180 cb 77 50 3c 1c 21 71 be 6e 08 8d bc 8e a9 e6 3a
       0.012723873 -0.23547786 -0.017215934 0.0017598139
000190 28 38 29 3e 1b 4b 0c 3e d7 df 49 bd 79 dc ae bc
       0.16525328 0.13700525 -0.049285736 -0.021345364
0001a0 92 94 bf bd f9 64 c8 3c 86 01 75 bc 4d 3d 30 3c
       -0.093545094 0.02446221 -0.0149539765 0.010756803
0001b0 b6 25 b8 bd 10 70 b5 bc fe 96 59 bc 17 56 50 be
       -0.08991568 -0.022148162 -0.013280628 -0.2034534
0001c0 ec 95 48 3c ae 9e f2 b9 bb d6 90 bc 66 b3 9d 3c
       0.012242775 -0.00046276062 -0.017680516 0.019250583
0001d0 ed 20 3b bd a0 c1 14 be 6d 5b ad 3d 63 60 d5 3c
       -0.045685697 -0.14526987 0.08464704 0.026046937
0001e0 bf 91 0b bd 7f 41 9c 3d ab de c7 3d 4c 96 25 be
       -0.03407454 0.0762968 0.097592674 -0.16170615
0001f0 0e 7d 9e bd 73 15 8c 3c 61 77 4a be de fe 13 3c
       -0.07738696 0.017100072 -0.19772102 0.009032933
000200 82 a8 e9 bd 60 52 13 be 5b 13 95 be 33 ea 4f 3d
       -0.114090934 -0.14386892 -0.2911633 0.05076046
000210 5c 1a 99 be dc b2 b1 be 61 ab 11 3e f9 da a9 3e
       -0.29902923 -0.3470677 0.14225532 0.33174875
000220 2f 01 a3 be ed 9b 00 be b6 9b 9b 3e c2 f4 db 3d
       -0.3183684 -0.12559481 0.30392236 0.10740043
000230 2b 5d 53 be a0 0b 28 bd 0e c6 4c 3e cd 00 9b bc
       -0.2064101 -0.04102671 0.19997427 -0.01892128
000240 87 bc 89 3c f7 9c a9 3e 2a 29 a6 3e c7 59 f5 bd
       0.01681353 0.33127567 0.3245328 -0.11980014
000250 c6 31 81 3c 17 d3 23 3e 41 46 c2 be 69 00 e6 bd
       0.015770804 0.15998493 -0.37944224 -0.11230547
000260 17 0c 00 3e f4 97 9b be 55 6d b4 3d ce 17 8e 3d
       0.12504612 -0.3038937 0.08809916 0.06938134
000270 ba b8 08 3e 3e 1a 27 be df d4 61 bd 3d cc 9d 3e
       0.13351718 -0.16318604 -0.05513465 0.30819884
000280 04 ad c2 3e cc 32 97 3c 03 9c b3 3e f7 69 d8 bd
       0.38022625 0.018456839 0.35079965 -0.10567086
000290 50 2c c7 3e 33 21 a3 3e a3 ae d3 3d 09 14 25 be
       0.38900995 0.31861266 0.10336044 -0.16120924
0002a0 45 ae b9 be dc fa b9 3e bd f9 91 3e 47 72 51 3e
       -0.3626577 0.36324203 0.28510848 0.2045375
0002b0 fd 3d ae be 7e 85 b6 be 4e a3 0b be 4f a2 de 3d
       -0.34031668 -0.3564872 -0.13636515 0.10870802
0002c0 76 42 86 3e ec 87 01 3e bd 43 fc 3b 2b 57 98 be
       0.2622258 0.12649506 0.0076985047 -0.29754004
0002d0 e5 5a be 3e 5e 72 76 bd 24 db 08 be 6e 1f c4 3e
       0.37178722 -0.060167663 -0.13364846 0.3830523
0002e0 93 48 54 be e8 b8 94 3e 2a 7c 4a 3e d2 6d 03 be
       -0.2073081 0.29047322 0.19773927 -0.12834862
0002f0 d9 14 aa bd 49 8c 8e 3e f4 5e a4 bd 48 fd 06 3e
       -0.083047576 0.27841404 -0.08025923 0.13182557
000300 0f 50 b0 3e ec 22 ed 3d a8 cd 88 3d 10 89 0c 3e
       0.3443608 0.115789264 0.06679851 0.1372416
000310 d6 c8 7f 3e ce 4e 5d 3e 3b 8a 17 3e 3f b9 44 3e
       0.24978957 0.21612093 0.14798824 0.19211291
000320 77 7f 9b 3d db b5 81 3e 04 f1 52 3e 8e 00 ee 3d
       0.07592671 0.25334057 0.20599753 0.116211995
000330 a3 ab 8e 3e fb c2 6b 3e 9b 15 a4 3d e7 96 42 3e
       0.27865323 0.23023598 0.080119334 0.19002877
000340 20 a2 e4 3d 65 52 7c 3e ff 07 54 3e a8 1c 38 3e
       0.111637354 0.24640806 0.20706175 0.17979681
000350 30 b0 2e 3e bf 15 dc 3d 50 bb 2c 3d 41 6f 83 3e
       0.17059398 0.10746335 0.042170823 0.25670817
000360 c9 25 6a 3e 35 03 17 3e 20 e4 39 3e 0b b8 45 3e
       0.22865976 0.14747317 0.18153429 0.19308488
000370 91 4d 22 3e 20 c8 08 3e 53 60 98 3d 7d 00 6d 3e
       0.15849902 0.13357592 0.074402474 0.23144718
000380 2b ed 8f 3e b7 a0 94 3e f1 a2 a7 3e 24 a8 b4 3e
       0.28110632 0.29028866 0.32741502 0.3528453
000390 50 26 9e 3e 1f b0 5a 3e 83 59 85 3e 07 9f 07 3e
       0.30888605 0.21356247 0.26044855 0.13244258
0003a0 01 02 57 3e 60 45 25 3e e2 32 46 3e e7 b5 2c 3e
       0.20996858 0.16139746 0.19355348 0.16866265
0003b0 0e d4 3c 3e 91 5a 6d bb 70 09 23 3e 1a 4c 99 3e
       0.18440267 -0.0036217312 0.15921569 0.29940873
0003c0 17 93 f0 3c 88 b5 52 3e c2 a0 cf 3e 97 5c 93 3e
       0.029367013 0.20577061 0.40552336 0.28781578
0003d0 11 56 25 3d 9a b8 60 3e 29 09 1d 3e 2d 47 6b 3e
       0.040365282 0.2194542 0.15335526 0.2297637
0003e0 89 51 42 3e 7b 5a 89 3d 5e b1 68 3e 1f 95 84 3e
       0.18976416 0.06706711 0.2272391 0.2589502
0003f0 87 45 2a 3e 28 86 86 3d d2 90 a8 3e 42 22 40 3e
       0.16628085 0.06568557 0.3292299 0.18763068

encoder_lstm2.weight_ih_l0 f4 [128, 64]
000000 f8 f2 97 be 0c 6b 99 be 23 eb 29 be db 0b a4 bc
       -0.29677558 -0.29964483 -0.16593604 -0.020025184
000010 18 a3 10 be 60 d7 6f be c6 91 9e 3e 70 a0 95 3e
       -0.14124715 -0.23422003 0.3097059 0.29223967
000020 c9 ae bc be 3a 41 7b be 20 f9 01 3e 54 f1 ae 3e
       -0.368521 -0.245366 0.1269269 0.34168494
000030 8b dc 9e be ab f9 e4 3d ab 18 05 3e 6a 53 38 3e
       -0.31027636 0.11180433 0.12997691 0.1800057
000040 6c 90 e4 bd f0 fe 48 3d a6 95 61 3e b3 5f d2 bd
       -0.11160359 0.049071252 0.22029743 -0.102721594
000050 60 da 58 be 78 fb ab 3e a1 70 32 be 35 eb 5f 3e
       -0.21177053 0.33590293 -0.17425777 0.21867068
000060 d1 61 53 3e 1f 3b 7f be 95 1f 88 3e df d9 1a 3e
       0.20642783 -0.24924897 0.26586595 0.15122174
000070 23 e1 51 3d 12 6e 82 be 4f 96 1f be 25 ea 6a 3e
       0.051240098 -0.25474602 -0.15584682 0.22940882
000080 64 d0 8e 3e 99 92 0e 3e 1b 00 91 3e b0 e4 38 be
       0.27893364 0.1392311 0.28320393 -0.18055987
000090 46 5d 01 3e 01 c5 96 3c d4 4a dd 3e 5b 70 34 be
       0.12633237 0.018404486 0.43221152 -0.17620985
0000a0 a2 4e 25 bd cd 66 b7 3d c8 89 7e 3d 8c 00 ea 3d
       -0.040358193 0.089551546 0.062143117 0.114258856
0000b0 72 da 58 bd 58 2b 03 bd b5 07 7f be a5 24 76 be
       -0.0529427 -0.032023758 -0.24905284 -0.24037416
0000c0 61 17 43 3e 94 50 4e 3e 20 16 2e 3e f6 3f 1c be
       0.19051887 0.20147926 0.17000628 -0.15258774
0000d0 4e 8d 29 3e 10 27 94 be dc 3f 9e bc 41 99 bc 3e
       0.1655781 -0.28936052 -0.01931756 0.36835673
0000e0 8a e6 a1 be 29 d7 00 3e 04 21 84 3e fc ec d8 be
       -0.316212 0.12582077 0.2580644 -0.42368305
0000f0 c3 45 8a be 32 89 bd 3e 57 bd 55 3e 85 a1 8e 3d
       -0.2700635 0.37018734 0.20873009 0.06964401
000100 36 1d 5d be e4 29 82 be 1f 75 b3 be d0 4e c1 bd
       -0.21593174 -0.25422585 -0.35050294 -0.094388604
000110 ba f2 0d be 7a 26 80 bd 88 ff b4 3d 7b 8e 54 3e
       -0.13862124 -0.06257339 0.08837801 0.20757477
000120 9f d2 cd bc 5a 71 99 be 66 b4 91 3e d4 ef 7a 3e
       -0.025124846 -0.29969293 0.28457946 0.2450555
000130 e9 5c 62 be 46 4b 06 3c 25 46 b9 3e a3 f7 24 3e
       -0.22105755 0.0081966575 0.3618633 0.16110091
000140 54 74 5c 3e db e1 45 3e ee b4 4b 3e f6 01 29 be
       0.2152875 0.19324438 0.19893238 -0.16504654
000150 a2 b3 de 3d 9a b1 38 3e 29 df 64 be 21 81 df bd
       0.10874106 0.180365 -0.22350754 -0.10913301
000160 61 f9 a4 3d 5b 78 4c be f2 0a e8 3d a7 4c 98 3e
       0.08055378 -0.19967787 0.11330213 0.2974598
000170 5c b4 11 3d 36 f1 73 bd 43 55 00 bd c4 33 48 3d
       0.035572395 -0.05955621 -0.031331312 0.048877493
000180 d7 16 7f 3e 7e 7b 9e bb 89 be 54 3d 16 3b 12 be
       0.24911056 -0.0048364988 0.05193952 -0.14280352
000190 24 a4 24 3e f2 9d a9 3e 2c 4e a4 3e 89 7e 09 be
       0.1607824 0.33128315 0.3209089 -0.13427176
0001a0 a2 5a bb bd 74 f2 fb 3d 5b ee 85 3e f9 e9 2d 3e
       -0.09148146 0.12302104 0.26158413 0.16983785
0001b0 a3 07 54 be 9f df 38 be 7a 7e 5b bd 75 ac 5a bc
       -0.20706038 -0.18054055 -0.053587414 -0.013346781
0001c0 2f 1c 9c 3e bf ab 5d 3d b7 27 4b bd e6 c3 4e be
       0.30490252 0.054118868 -0.049598422 -0.20191917
0001d0 2a 0f bc 3d 0c 45 b5 be 6f 10 c5 bb f1 42 92 3d
       0.0918258 -0.3540424 -0.006013922 0.07141674
0001e0 fd 38 1f be 85 ec a3 3e 45 24 96 3e 00 6a 07 be
       -0.15549083 0.32016388 0.29324546 -0.1322403
0001f0 19 81 2b be 56 5f bc 3d 9a 52 a1 bd 90 dc 2a 3e
       -0.16748466 0.091978714 -0.07877083 0.166857
000200 5a 95 2f be 37 48 4c be 5b 52 1a 3b cb dc ec 3d
       -0.17146817 -0.19949423 0.0023547623 0.115655504
000210 c4 5f 42 be dc 1f a2 be a0 af 16 3e e8 96 79 3e
       -0.18981844 -0.31664932 0.14715433 0.24373972
000220 f5 75 50 be 07 b9 8c 3e f4 e5 9f 3e ac 8d e3 3d
       -0.20357497 0.27484915 0.31230128 0.11111006
000230 c0 1e 49 bd 1f 63 15 be d5 11 a1 3d 24 0e 36 3e
       -0.04910159 -0.14588593 0.07864729 0.17778832
000240 5b f5 c1 3d 83 32 a6 3e 08 fe 4a 3e 8b e9 ac be
       0.09470626 0.32460412 0.19823468 -0.3377193
000250 1e d6 86 3d 2b b2 a0 3e 6c 28 9e be 57 1a 89 3d
       0.06583808 0.3138593 -0.30890214 0.06694477
000260 08 ac ac 3e 87 84 08 be bd ad 40 3e 09 11 1b 3e
       0.33725 -0.13331805 0.18816276 0.15143217
000270 95 bb dd 3e 6f 3e 8b be a3 5d 9d be 9d f1 40 3e
       0.43307176 -0.2719607 -0.30735502 0.18842168
000280 00 07 6e 3e 37 4f 7d 3e 30 2a f3 3d d8 df 41 be
       0.23244858 0.2473725 0.11873281 -0.18933046
000290 4d f4 24 3d 9e c0 95 3e 62 8e 4e 3e f0 82 24 be
       0.040272046 0.29248518 0.20171502 -0.16065574
0002a0 0f 23 a9 be c1 7f 57 bc cc 46 4e 3e 59 37 13 3e
       -0.3303456 -0.0131530175 0.20144194 0.14376582
0002b0 39 20 18 bd 2b 47 5c be 8a da 17 be eb 51 8f be
       -0.037140105 -0.21511523 -0.1482946 -0.27992186
0002c0 30 fc c7 3d c9 9a aa 3e 6b 8e fe 3b c1 bf 85 be
       0.09764898 0.33321217 0.0077684424 -0.2612286
0002d0 fc ad a3 3c 55 7e cc 3c 82 a8 d6 bd 86 66 8c 3e
       0.019980423 0.024962584 -0.10481359 0.2742197
0002e0 bc 26 c6 bd df 98 99 3e 7e a6 0a bd 1c 86 82 be
       -0.09675357 0.29999444 -0.033850186 -0.25492942
0002f0 44 21 8a bd 8f 02 c7 3d ae ca 2b be 61 af c9 3d
       -0.06744626 0.09717285 -0.16776535 0.09847904
000300 0d 11 06 be 5f ad 49 be 49 d8 bb bd f9 0e 69 3e
       -0.13092442 -0.19695042 -0.091721125 0.22759618
000310 bb 88 89 bd 3d e8 2a be 4a a5 2f 3d f6 48 1b 3e
       -0.067155324 -0.16690154 0.04288224 0.15164551
000320 9e 30 92 bd 0e c9 db be c4 9a 09 3e 22 98 a6 3e
       -0.07138179 -0.4292683 0.13437945 0.32537943
000330 bf 44 a3 be 12 68 fc 3d 2b 2a 5a 3e 06 65 1a 3e
       -0.31888387 0.12324537 0.21305148 0.150776
000340 40 2c 8d 3e 18 d8 40 3e 00 a2 98 3d b4 ee 91 bd
       0.27572823 0.18832433 0.07452774 -0.07125607
000350 4a 97 5e be 07 4b 37 3e 4e a6 64 be 19 63 be be
       -0.217374 0.17899714 -0.22329065 -0.3718498
000360 e8 30 2c 3e ca 53 96 bd 6b 0d 1d 3d 3e 28 86 3e
       0.16815531 -0.073402 0.038342874 0.26202577
000370 b2 f8 40 3d 0c e0 77 bd ea df 6d be d4 e7 9d 3d
       0.047112174 -0.060516402 -0.23229948 0.07710233
000380 59 48 cd 3e 71 86 95 3e 48 6c d6 3e b1 73 87 3c
       0.4009426 0.29204133 0.41879487 0.016534658
000390 b2 51 be 3e 17 62 a3 3e 3d 8f 1e 3e ac 7b b2 be
       0.37171704 0.31910774 0.15484329 -0.3485998
0003a0 66 2d 54 be f4 6f 7f 3e 52 b1 a8 3e 0a 6c a8 3e
       -0.20720443 0.2494505 0.32947785 0.32894927
0003b0 95 15 86 bd 07 cc b0 bd 41 76 8c be ce 72 dd 3d
       -0.06547085 -0.08632665 -0.2743397 0.10812913
0003c0 3e 41 a8 3e 45 4c ce 3e ae 44 8f 3e 1f d6 74 be
       0.32862276 0.40292564 0.27982086 -0.23909806
0003d0 3c 82 bf 3e 94 a0 81 be ef 5a 4d be f1 d7 d2 3e
       0.37404048 -0.25317824 -0.2005422 0.41180375
0003e0 89 ef 97 be 97 d4 21 3e 20 b6 b7 3e 35 98 ad be
       -0.29674938 0.15803753 0.35881138 -0.33905187
0003f0 55 51 be be 30 aa d7 3e 5a c0 2d be 43 46 46 3e
       -0.37171426 0.4212203 -0.16967908 0.1936274

encoder_lstm2.weight_hh_l0 f4 [128, 32]
000000 c8 88 2b 3e 12 2c 03 3e dd 27 12 be 80 91 90 3e
       0.16751397 0.1280978 -0.14273019 0.28236008
000010 d4 95 c9 3d bc e6 60 3e d6 08 ae bc 08 ba ed bd
       0.098430306 0.21963018 -0.021244448 -0.11607748
000020 61 7e 0e 3e 5e 54 d3 3d 8b 66 87 bd f3 56 38 be
       0.13915397 0.10318826 -0.066113554 -0.18001918
000030 07 9d 60 bc a5 5d d2 bd 3f ae 7b be 50 40 a5 bc
       -0.013709313 -0.102717675 -0.24578188 -0.020172268
000040 b2 38 61 be d0 0b 00 3c 65 0c 42 3e 8a 83 10 3e
       -0.21994284 0.007815316 0.1895004 0.14112678
000050 85 59 28 bd 76 fd a1 bc 7f 77 2e bc 3c a3 19 3d
       -0.041100997 -0.01977418 -0.010648607 0.037509188
000060 90 0c 28 be 7e 62 75 3e 41 ff 8d 3e 9d 6b b3 3b
       -0.16411042 0.23963353 0.27733806 0.005475475
000070 a0 7d 13 3e 57 72 81 bd c1 57 22 3e 01 a3 85 3e
       0.14403391 -0.06320637 0.15853788 0.26100925
000080 de b1 74 3e 2e d5 97 bc 54 61 1a be bf 46 d3 3b
       0.23895976 -0.01853427 -0.1507619 0.0064476426
000090 cc 64 5f 3e 80 82 5f 3e 4e f5 4d be 8e 87 14 be
       0.21815795 0.21827126 -0.20113108 -0.14504835
0000a0 c1 42 65 3d 05 30 08 3d 9a cf f7 bc 8c 87 a4 3d
       0.055971865 0.03324892 -0.03025036 0.08033666
0000b0 a1 78 83 be e0 d5 4f be 7b 91 63 be 04 1d 8e be
       -0.2567797 -0.2029643 -0.22223465 -0.27756512
0000c0 8f 21 1e be f7 04 42 3d e4 72 b3 3d f0 b1 0c bd
       -0.15442489 0.047368016 0.08762148 -0.034349382
0000d0 cc fe 83 bd 37 17 b8 bd 02 0c bf bb 99 7d c8 3b
       -0.06445083 -0.08988803 -0.005830289 0.006118488
0000e0 a2 91 2e be ba bd 1a 38 55 d1 4a 3e 50 44 e6 bd
       -0.17047742 3.6893158e-05 0.19806416 -0.11243498
0000f0 dc e9 c8 3d fd b6 7a 3d 7e 24 d8 3d 6f a0 2d bd
       0.0981023 0.061209667 0.10553835 -0.04238933
000100 8c 22 02 3d 33 fe 8a be c4 e0 3c be 09 d4 84 3e
       0.031771228 -0.27147064 -0.18445116 0.2594302
000110 1b 5f 51 3d 8a 96 66 3e 9a fe ac bd 31 08 28 3d
       0.05111609 0.22518364 -0.08446999 0.041023437
000120 21 84 9d bd 85 51 83 3e c0 50 f2 3d a0 f1 54 be
       -0.07691217 0.25648132 0.11831808 -0.20795298
000130 c9 60 fa bd 72 38 20 be 80 30 ea bd 87 4c 89 bc
       -0.122254916 -0.15646532 -0.11435032 -0.016760124
000140 fd 98 76 be 6d 85 5a 3e f8 a7 47 3d a5 f7 6b bd
       -0.24081798 0.2133996 0.04874417 -0.05760922
000150 db 46 7e bd 91 8b 2a be 6e ca eb 3d 8a e8 52 3d
       -0.06207929 -0.16654803 0.1151322 0.051491298
000160 b4 ec ba bd 86 3a 39 3e c4 76 7e 3d 39 1b 86 be
       -0.09127179 0.18088731 0.062124982 -0.26192644
000170 7c 89 39 3e a3 35 80 be be 5d 82 3b 0b f0 d5 3d
       0.18118852 -0.25040922 0.00397846 0.10446175
000180 57 65 8e 3d d8 31 17 be 21 d8 43 bc 7f 29 8b bc
       0.06952923 -0.14765108 -0.011953385 -0.01698756
000190 c0 4d 40 bc f5 3c 38 3e 1b cc cc bd b1 f7 85 be
       -0.011737287 0.17992003 -0.099998675 -0.26165536
0001a0 f0 28 70 3c bb c0 96 3e ac 7d 92 bd 91 de 81 bc
       0.014658198 0.29443917 -0.07152876 -0.015853198
0001b0 02 22 a3 3b 5c 27 dd bd dd b0 61 3d 57 50 f1 3c
       0.0049784193 -0.10798523 0.05510031 0.029457254
0001c0 cb e0 17 be 5a c0 2d 3e 0a 8d 40 3d 78 6d 5c bd
       -0.14831845 0.16967908 0.047009505 -0.053815335
0001d0 f5 6d dc 3b e2 72 36 3e 3c 01 5f be 23 88 2f 3e
       0.006726975 0.17817262 -0.21777815 0.17141776
0001e0 c8 66 28 be 19 e4 1d 3e 60 4a 60 3e 50 aa 09 be
       -0.16445458 0.15419044 0.21903372 -0.13443875
0001f0 93 43 8b 3e 60 2f 73 3d 4f fd bd 3d e1 4f 9b 3d
       0.27199993 0.059371352 0.092768304 0.07583595
000200 30 87 27 be 28 78 11 be e3 7c 35 3d 34 5f 2f bd
       -0.16360164 -0.14205992 0.044308554 -0.042815402
000210 6e 16 9b bd 7e 01 4d bd 4c 51 ce 3d 3d 50 59 be
       -0.075726375 -0.05005025 0.100741 -0.21222015
000220 d6 35 0c 3e 26 fe e8 bd 6a ce 09 3e 36 0e 69 3e
       0.13692412 -0.113766 0.13457647 0.22759327
000230 e0 d7 3e bd 11 09 d4 bd 9c 06 02 3e a9 a7 4d 3e
       -0.046592593 -0.10353292 0.12697834 0.20083489
000240 2d 70 f9 bd 2f 0a 27 3e 1d 3d 31 3e b8 e1 23 3e
       -0.12179599 0.16312478 0.17308469 0.16004074
000250 65 05 6d 3e cb 9c ae bd 21 95 6d be 04 a9 28 3e
       0.23146589 -0.08526 -0.2320142 0.16470724
000260 9e 26 c0 bc 22 0c c0 3d e7 bb ad bd bd fa 3a be
       -0.023455914 0.09377314 -0.08483105 -0.18259712
000270 53 57 a3 bd 3f 9c b3 bc fb c2 29 3e d8 10 0e be
       -0.0797564 -0.02192509 0.16578285 -0.13873613
000280 fb 10 d4 bd b9 09 a7 bc 5f fc 16 be 00 9e 04 3e
       -0.10354801 -0.020390378 -0.1474471 0.12950897
000290 45 be 7a 3c 0c 2b 23 be 41 3a 6b be 5e 64 91 3b
       0.015304153 -0.1593439 -0.22971441 0.0044370135
0002a0 ee ed b3 bd 78 76 08 3b 7e 3e 52 bc c2 71 06 be
       -0.08785616 0.0020822566 -0.012832282 -0.13129333
0002b0 6a e6 ad 3c 4a 35 d4 3a 04 99 44 3e 27 14 bc 3d
       0.021228034 0.0016190198 0.19198996 0.09183531
0002c0 82 0d 57 bd a1 fe 97 3c 3e 0f a3 3d 76 8e 89 3d
       -0.052503116 0.018554034 0.079618916 0.067166254
0002d0 73 1a 9b bc 82 43 d6 3d a1 01 1e be 41 d2 94 bd
       -0.01893351 0.10462095 -0.15430309 -0.07266665
0002e0 23 7c f0 3c 9c 25 59 3b 49 22 ad bc d5 25 46 be
       0.029356068 0.003313399 -0.021134512 -0.1935037
0002f0 49 41 91 3c 42 cd 0e 3e 1e d8 df 3c 82 d1 dd 3d
       0.017731326 0.13945487 0.027324732 0.10830976
000300 88 50 8b 3e 0e 1b fc bd 75 09 d7 3c ed 6d 24 3e
       0.27209878 -0.12309848 0.026249627 0.16057558
000310 38 44 5a 3e a0 62 65 3c ff cb ac bb b5 52 82 bd
       0.21315086 0.014000565 -0.0052733417 -0.06363431
000320 73 3d 2a bd 46 29 6a 3e e0 3b 0c be ce ca 27 bc
       -0.04156251 0.22867307 -0.13694715 -0.0102412235
000330 a5 44 3d be 6c 49 43 be 2d bb 47 be b9 a0 f2 bd
       -0.18483217 -0.19070977 -0.19504996 -0.11847062
000340 19 c5 03 be 02 8f 3f bc c8 f4 e1 3d 62 fb 21 3e
       -0.12868156 -0.011691811 0.110330164 0.15818551
000350 19 36 4d 3e f3 41 f5 3d a1 f5 4e be fc e1 e8 bc
       0.20040168 0.119754694 -0.20210887 -0.02842807
000360 3a 8e da bd bc db 41 3e b8 93 a5 bc 18 50 1a bd
       -0.10671659 0.18931478 -0.02021204 -0.03767404
000370 02 8e a1 3c 3c a2 22 be ad 30 b5 bc bc 56 18 3e
       0.019721035 -0.158822 -0.022117937 0.14876837
000380 1e bc 02 3d 1c 0d a2 3d e0 67 4d be ea 1c 4e 3e
       0.031917684 0.07912657 -0.20059156 0.20128217
000390 4d 8c 31 3e 62 18 0d 3e 06 6a d4 3d e0 51 0d 3d
       0.17338677 0.13778833 0.10371785 0.03450191
0003a0 82 c8 6d 3e 67 bd db ba 96 39 5b bc 4e 27 f9 bd
       0.23221019 -0.001676482 -0.013380429 -0.121657
0003b0 25 74 1f be 3a 72 fb bd 72 c8 80 3c b9 97 31 3d
       -0.1557165 -0.12277646 0.01572058 0.043357585
0003c0 ac 21 b9 bd cf 53 a8 bc 6e 51 4c bd 86 b4 0d 3e
       -0.090396255 -0.020547776 -0.049882345 0.13838395
0003d0 e1 10 bf bd 9e c9 2e 3e f2 22 18 3e cd e0 1f bb
       -0.09329391 0.17069098 0.1485708 -0.0024395466
0003e0 46 21 61 3d 45 c7 2d 3e 8e 9b 96 3d 4c c4 6a 3d
       0.054963373 0.16970547 0.073538885 0.05731611
0003f0 48 6f f1 3c cd d9 d1 3c 44 d5 2e bc 40 28 2b 3e
       0.029472008 0.02561655 -0.010670964 0.16714573

encoder_lstm2.bias_ih_l0 f4 [128]
000000 e6 b1 f0 3d cf 87 a9 3e b3 66 1f 3e 76 77 5a 3e
       0.117526814 0.33111426 0.1556652 0.21334633
000010 bd e3 1d 3e 04 a6 98 3d 19 b2 99 3e 71 13 26 3e
       0.15418907 0.0745354 0.3001869 0.16218354
000020 f4 fe e1 3e b2 34 1a 3e 14 f4 74 3e 5d 94 a7 3e
       0.44139826 0.15059164 0.23921233 0.3273038
000030 1c 62 44 3e 4f 5f 66 3e f0 d4 d7 3e da de a0 3e
       0.19178051 0.22497295 0.42154646 0.31420022
000040 ce f8 d1 3e 16 77 a1 3e 53 67 a4 3d b5 d1 0a 3e
       0.41010135 0.31536168 0.0802752 0.1355656
000050 d5 8a fb 3d a1 3b 5c 3e 48 a4 33 3e 30 ad 32 3e
       0.122823395 0.21507122 0.17543137 0.17448878
000060 4c ba 77 3e d7 28 a1 3d 25 5d bc 3e ec f3 01 3e
       0.2419216 0.07869118 0.36789814 0.12690705
000070 3c e3 8b 3e 09 7a 0d 3e 0b f3 83 3d 70 83 8c 3e
       0.27321804 0.13816084 0.06442841 0.2744403
000080 44 9d 99 bd 20 88 9b 3d 28 9b 1e be 4e 48 f7 3c
       -0.07500699 0.07594323 -0.15488875 0.030185845
000090 29 5f be 3d f3 b0 83 bd 7e b5 ea bd 29 13 8a 3d
       0.09295494 -0.06430235 -0.11460398 0.06741936
0000a0 5c 0b 61 bd 5b a0 ab bd 0d d6 83 be 8e 9d 3b 39
       -0.054942474 -0.08380195 -0.25749245 0.00017892403
0000b0 25 62 1e be dc 70 e4 3d cf d9 8a be d7 5c 6c be
       -0.15467127 0.11154339 -0.271193 -0.2308229
0000c0 d8 e1 60 be 11 06 ea 3c ba 33 71 3d 9d 76 22 be
       -0.21961153 0.028567346 0.05888722 -0.1586556
0000d0 52 b5 30 3d 17 51 49 be 04 82 35 3a 74 0d 4b 3e
       0.04314167 -0.1965984 0.0006923976 0.1982935
0000e0 79 23 10 bd ca d7 3a 3e 05 f1 c2 3d f1 13 29 bd
       -0.03519008 0.1824638 0.09518627 -0.041278783
0000f0 46 12 12 3d 62 17 32 be 4f 44 e0 bd 7c 7e f2 bd
       0.03566196 -0.17391732 -0.10950529 -0.11840531
000100 4e 8c 3c 3e 39 fa 16 3d 3f ab df bd cd ff 09 3e
       0.18412897 0.036859725 -0.109213345 0.13476487
000110 b2 42 9f 3e d6 0d 41 3e af e7 30 be 41 06 65 bd
       0.31105572 0.18852934 -0.1727588 -0.055914167
000120 4f c6 7c 3e 85 2c 8c 3e 07 f3 51 3c 27 10 eb bd
       0.24685024 0.27377716 0.01281429 -0.1147769
000130 74 4e c8 bb ed d4 dc bd 56 7a ad bb 8c 17 fb bc
       -0.006112868 -0.107828 -0.0052941246 -0.030650876
000140 25 d3 6b be e9 86 72 3e 98 e8 51 3e 58 f5 60 3d
       -0.23029764 0.23684277 0.20498884 0.054921478
000150 4c 5b 82 3e fe 82 de bd 1f 26 50 3c da 00 ab 3e
       0.2546028 -0.108648285 0.012704401 0.33399087
000160 dc 1c b1 be 21 00 19 3e 5b 02 28 3e 3d 0b 8e bd
       -0.3459233 0.14941455 0.16407149 -0.06935737
000170 f3 32 78 3e 4b 85 87 bd 1c 19 c9 bd 2a 99 7e 3e
       0.24238186 -0.066172205 -0.09819242 0.24863115
000180 9a f0 14 3e 54 73 49 3e 71 46 d0 3d c2 60 75 3e
       0.14544907 0.196729 0.10169686 0.23962691
000190 03 b1 1d 3e 99 83 48 3e 2a 1b c8 3e 13 a9 65 3e
       0.15399556 0.1958145 0.39083225 0.22427778
0001a0 fb ab db 3e ce df 9c 3d ee 5b 09 3e 7f 96 b3 3e
       0.42904648 0.07659875 0.13413975 0.35075757
0001b0 d6 0d e9 3e 92 24 d2 3e 65 dc bf 3e 17 7a 8d 3e
       0.45518368 0.41043526 0.37472835 0.2763221
0001c0 67 28 d9 3e 0c 9f 6d 3e 77 59 39 3e de 6a 22 3e
       0.42413637 0.23205203 0.18100534 0.15861079
0001d0 fd 75 b7 3e 83 8c 87 3e 60 4a 56 3e a0 3f c5 3e
       0.35832205 0.2647439 0.2092681 0.38525105
0001e0 f6 db b8 3d 74 c1 34 3e 28 15 a1 3e 7b 44 9f 3e
       0.09026329 0.17651922 0.31461453 0.31106934
0001f0 93 16 9b 3d 2d 20 6d 3e 6d 6f 72 3d f0 77 99 3e
       0.07572665 0.23156805 0.059188295 0.29974318

encoder_lstm2.bias_hh_l0 f4 [128]
000000 ae 0b 95 3e 1b 71 bb 3e 12 72 44 3e 62 7c a2 3e
       0.29110473 0.3660973 0.1918414 0.31735522
000010 cd 39 a0 3e 79 3a 14 3e 09 39 ad 3e e9 67 63 3e
       0.31294098 0.1447543 0.33832577 0.22207607
000020 3f ac 5b 3e d5 14 7a 3e 55 fe 4f 3e d6 06 22 3e
       0.21452425 0.2442201 0.20311864 0.1582292
000030 87 41 d3 3e 4b 49 b7 3e b0 e3 bb 3e 55 dc a3 3e
       0.4126093 0.35798106 0.3669715 0.32004037
000040 25 5c 94 3e 53 da 87 3e c4 11 6b 3e 89 dd 45 3e
       0.2897655 0.26533756 0.22955996 0.1932279
000050 8b 7f 31 3e 61 f5 83 3e 4f 6e 81 3e f8 22 41 3e
       0.1733381 0.25773147 0.2527947 0.18860996
000060 63 c3 9b 3d e9 c5 8d 3d 83 6a 67 3e bf bf a4 3e
       0.076056264 0.06922514 0.22599225 0.3217754
000070 e1 ef 06 3e 19 2f 26 3e a1 9e ca 3e 0a 62 ee 3d
       0.13177444 0.16228904 0.3957415 0.11639793
000080 e3 9b 8e bd 2b 9d 46 3d 0f a9 cb bc 64 2b ed bd
       -0.06963327 0.04848973 -0.024860887 -0.11580542
000090 ac 72 22 bd af 67 22 3d 96 f6 91 be 8f 57 25 3e
       -0.03966014 0.03964966 -0.28508443 0.16146682
0000a0 64 8b 34 bd 9b 1a 19 be a4 f1 0b be d7 76 1b be
       -0.044078246 -0.14951555 -0.13666397 -0.15182053
0000b0 3a aa b4 bc 42 4f 4c 3d 64 2d de bd c8 c3 0b be
       -0.022053827 0.049880274 -0.10848501 -0.13648903
0000c0 45 38 91 be 49 32 a9 bd b6 3c e4 3d 26 6e 5a bd
       -0.28363243 -0.08261544 0.11144392 -0.053327702
0000d0 de 91 d7 bd 97 d3 93 be 07 5d 89 be d2 00 ae bd
       -0.10525869 -0.28872368 -0.26828787 -0.0849625
0000e0 35 30 92 3d 05 2d 8f 3c a4 02 5b 3d 9c 51 e9 3d
       0.07138101 0.017477522 0.053469315 0.11392519
0000f0 dd 58 9d bd 0f 8b 86 bd 59 e5 47 be c1 61 05 be
       -0.07682965 -0.06569492 -0.19521083 -0.13025571
000100 5a 32 65 3e e2 aa 39 be 28 46 59 bd 1c 98 76 3e
       0.22382489 -0.18131593 -0.05304542 0.24081463
000110 80 8c 64 3e 08 2c 0f 3e d6 2f e4 3d 9e 23 95 be
       0.22319221 0.1398164 0.111419365 -0.29128736
000120 15 0e 8a 3e f8 7a 36 3e c3 10 22 3e 65 e8 14 3e
       0.2696387 0.17820346 0.15826707 0.14541776
000130 10 36 45 be 87 59 1f be 40 37 c3 bc 57 10 46 bd
       -0.19258904 -0.15561496 -0.023830056 -0.048355427
000140 a3 8b 88 3d f4 37 36 3e 59 d4 9c 3e 5d 2d 0c 3e
       0.066672586 0.17794782 0.30630758 0.1368918
000150 81 7f 2f 3e 5c fa ef 3d 3f cc da bd d0 d2 9f 3e
       0.17138483 0.11717674 -0.10683488 0.31215525
000160 b1 db 6f be ed 86 8a 3e 7a 3b 97 3e 07 3f 48 be
       -0.2342365 0.27056065 0.29537565 -0.19555293
000170 d7 ed 98 3e e7 79 ad be 34 ce 31 be 73 5d 13 3e
       0.29868957 -0.33882067 -0.17363816 0.14391117
000180 32 f6 21 3e 71 16 16 3e 7d 24 6a 3e 6d 82 c1 3e
       0.15816572 0.14656998 0.22865482 0.3779482
000190 28 1b ba 3e 69 f8 83 3d 5a 96 9d 3e 2a 04 21 3d
       0.36348844 0.06443865 0.30778772 0.03931061
0001a0 b2 17 51 3e dc 25 23 3e b6 34 1d 3e e9 0e 60 3e
       0.20419195 0.15932411 0.15352139 0.21880688
0001b0 08 43 c9 3e 40 54 96 3e 1b 75 c5 3e b2 53 89 3e
       0.39308953 0.29361153 0.38565907 0.26821667
0001c0 0d 9b a4 3e 1c 70 53 3e d8 77 1c 3e f3 26 57 3e
       0.32149544 0.20648235 0.15280092 0.21010952
0001d0 d2 a8 a9 3e a8 32 3a 3e 7d ba a1 3e 10 a5 bb 3e
       0.33136612 0.18183386 0.31587592 0.3664937
0001e0 f7 7c 91 3d 70 09 b5 3d 3a e3 b1 3d 21 50 ed 3e
       0.07103913 0.08839691 0.08685918 0.46350196
0001f0 77 f7 91 3e a9 24 17 3d 78 71 2b 3e 44 32 2b 3e
       0.28509113 0.036900196 0.16742504 0.16718394
