lstm_autoencoder.pth (torch, 364549 bytes, 18 tensors)

encoder_lstm1.weight_ih_l0 f4 [256, 5]
0	0x3e2e22bd	0.17005439
1	0x3e016837	0.12637411
2	0xbc763a10	-0.015028492
3	0x3e204ec9	0.15655054
4	0x3d718446	0.058964036
5	0xbe05901b	-0.13043253
6	0x3e10c8fc	0.1413917
7	0xbe017b5f	-0.12644719
8	0x3b8b29a3	0.004246907
9	0xbe09269e	-0.13393638
10	0xbd024fe1	-0.03181446
11	0xbc77dbbe	-0.015128074
12	0xbe1f336e	-0.15546963
13	0xbd8adb9f	-0.06780171
14	0x3d1d9192	0.038468905
15	0xbc387a7b	-0.01125967
16	0xbe2bc227	-0.16773282
17	0xbe0f562b	-0.13997714
18	0xbd22959e	-0.039693467
19	0xbd148832	-0.0362627
20	0x3e6cae20	0.23113298
21	0x3dbe60ad	0.09295783
22	0xbd7c45b0	-0.061589897
23	0xbe05dc29	-0.13072266
24	0x3d4dd54a	0.050252236
25	0xbe304037	-0.17211996
26	0x3c108a7f	0.008822083
27	0x3ced816f	0.028992383
28	0xbd4bc47e	-0.049747936
29	0x3e7f67e0	0.24941969
30	0x3e3af681	0.18258096
31	0x3d38b64e	0.045095734
32	0x3d5c9412	0.05385215
33	0x3dc30815	0.09523026
34	0xbdaaa285	-0.083317794
35	0xbd7c780b	-0.06163792
36	0x3e08b6ce	0.13350984
37	0x3e46c49e	0.19410941
38	0x3e1282a4	0.14307648
39	0x3e025bfa	0.12730399
40	0x3e329de8	0.17443049
41	0x3d465d3e	0.048428766
42	0x3d42bf91	0.047545973
43	0xbe289a6a	-0.16465154
44	0xbe1d7915	-0.1537822
45	0x3e14a93e	0.14517686
46	0xbc638a0e	-0.013887895
47	0xbe158896	-0.14602885
48	0x3d701c43	0.058620702
49	0xbc3f0325	-0.011658465
50	0xbd7e2884	-0.062050357
51	0x3ddd44db	0.10804149
52	0x3d983702	0.07432367
53	0xbc056a40	-0.008143008
54	0xbbc1e755	-0.0059174695
55	0xbe0d34e4	-0.13789707
56	0x3dc51763	0.09623601
57	0x3e2ae2c8	0.16688073
58	0xbe0d919d	-0.13825078
59	0x3b92e177	0.004482444
60	0xbe5afbd3	-0.21385126
61	0xbda18fad	-0.07888732
62	0x3df42b10	0.11922276
63	0x3e1a63af	0.15077089
64	0xbdd992b1	-0.10623682
65	0xbe14c3e9	-0.14527859
66	0xbdb3092e	-0.08741985
67	0x3a40c7b5	0.00073539774
68	0xbda685a3	-0.08130958
69	0x3e197cd4	0.14989024
70	0x3e0f771b	0.14010279
71	0xbe1211be	-0.1426458
72	0xbb9740d8	-0.0046158843
73	0xbd040e9e	-0.032240503
74	0x3d656564	0.056004897
75	0x3c910b86	0.01770569
76	0x3d943c09	0.07238013
77	0xbd0a6ff7	-0.033798184
78	0x3ba90942	0.0051585743
79	0xbcc3ae33	-0.023886776
80	0xbda19194	-0.07889095
81	0x3ddb2e34	0.10702172
82	0xbde24707	-0.11048704
83	0xbd8f8804	-0.07008365
84	0xbd617562	-0.055043586
85	0x3d8adc35	0.067802824
86	0xbe7288be	-0.23684976
87	0x3d4b7d08	0.049679786
88	0xbdcc7b5c	-0.099844664
89	0x3e35f1bc	0.17767996
90	0x3d746ba1	0.059672955
91	0xbe04f3d3	-0.12983637
92	0x3ddfcc60	0.10927653
93	0xbc6b681a	-0.014368081
94	0x3c3fb210	0.011700168
95	0xbe09b4e9	-0.13447918
96	0x3d93558d	0.07194052
97	0xbbc5c951	-0.0060359617
98	0x3d933079	0.0718698
99	0xbbf024ed	-0.0073286206
100	0xbdba61f4	-0.09100714
101	0x3d9961b2	0.07489337
102	0x3e4e75b8	0.20162094
103	0x3d67b66c	0.056570455
104	0xbe3b92ff	-0.18317793
105	0xbd61a5fc	-0.055089936
106	0xbd6c1d94	-0.057645395
107	0xbdb94a84	-0.09047416
108	0x3b2039c1	0.0024448487
109	0x3d0d9472	0.034565397
110	0x3c05e6c5	0.0081726955
111	0xbe1af360	-0.15131903
112	0x3e68b2cb	0.22724454
113	0x3dace750	0.08442557
114	0xbdadba5f	-0.08482813
115	0xbcc15f52	-0.023605023
116	0xbd210ac6	-0.039316915
117	0x3cbdc3c8	0.023164645
118	0x3b25d5ac	0.002530436
119	0xbdd953ff	-0.10611724
120	0xbdb31276	-0.087437555
121	0x3dd4cb5c	0.1039035
122	0xbd766032	-0.060150333
123	0x3dd848cd	0.10560761
124	0x3d335994	0.0437866
125	0x3e928bfe	0.2862243
126	0x3e0b6201	0.13611604
127	0xbdfab158	-0.12240857
128	0x3d31e96e	0.043435507
129	0x3e33e247	0.17566787
130	0x3dc59e1b	0.09649297
131	0xbdb1be9b	-0.08678933
132	0xbd2fff86	-0.042968296
133	0x3d16e71c	0.036841497
134	0xbd211188	-0.03932336
135	0xbe82b3ab	-0.255277
136	0xbe7970a2	-0.24359372
137	0x3dea8616	0.11451356
138	0x3dc6207a	0.09674163
139	0x3dbb9108	0.09158522
140	0x3c10a510	0.0088284165
141	0x3db293cb	0.087195955
142	0x3cf03eff	0.029326914
143	0x3c11f409	0.00890828
144	0xbe2b510e	-0.16730139
145	0xbbd42745	-0.006474408
146	0xbe256809	-0.16152968
147	0xbdb21c91	-0.08696855
148	0xbd62b5ee	-0.055349283
149	0xbdcad5e2	-0.09904076
150	0x3ced96f2	0.02900264
151	0xbdb89ced	-0.09014306
152	0xbc34d153	-0.011036235
153	0x3ce81d5d	0.028334314
154	0x3d6212af	0.0551936
155	0x3e361ba7	0.17783986
156	0xbe51d197	-0.20490108
157	0x3c70928e	0.014683379
158	0x3db152ab	0.08658346
159	0xbd68c484	-0.056828037
160	0x3b97ac14	0.0046286676
161	0xbd17ba09	-0.03704265
162	0xbd6df088	-0.058090717
163	0x3b82e892	0.0039950097
164	0x3bd0f331	0.006376647
165	0xbbe1801e	-0.006881728
166	0xbd292c98	-0.041302294
167	0x3da4ed5a	0.08053084
168	0xbd843724	-0.0645583
169	0x3df9c594	0.12195888
170	0x3e693e89	0.22777762
171	0xbe557f01	-0.2084923
172	0x3d06b606	0.032888435
173	0x3e05f0ac	0.1308009
174	0x3d537fe9	0.051635657
175	0xbd2aae9d	-0.04167043
176	0xbe02a90b	-0.12759797
177	0x3e09e47c	0.13466066
178	0x3d54dc16	0.051967703
179	0x3e4690c3	0.1939116
180	0x3b6b2b29	0.003588388
181	0x3e5ea1b0	0.21741366
182	0x3db48ffd	0.08816526
183	0x3e43a517	0.19105946
184	0xbdde7286	-0.10861687
185	0xbd3a64f8	-0.045506448
186	0xbd920eae	-0.07131706
187	0xbe3baf00	-0.18328476
188	0xbcc3ec80	-0.023916483
189	0xbd072366	-0.032992743
190	0xbce9f22f	-0.028557865
191	0x3d9766ff	0.07392692
192	0xbdc5448f	-0.09632217
193	0xbd872d03	-0.06600382
194	0xbdc57a83	-0.09642508
195	0xbd492728	-0.049109608
196	0xbc7795c7	-0.015111393
197	0xbdc97e1b	-0.09838506
198	0xbcc6ac3d	-0.024252051
199	0x3db7795b	0.089586936
200	0x3b8e2410	0.004337795
201	0x3d5563ce	0.052097134
202	0x3dd191f2	0.10232915
203	0xbd9f8eba	-0.07790895
204	0xbc805242	-0.015664224
205	0x3de47da8	0.111567795
206	0x3d8c4ec1	0.068509586
207	0xbd59fd73	-0.053220224
208	0xbd3e45a3	-0.04645313
209	0xbdb01bac	-0.08599028
210	0xbe1a3803	-0.1506043
211	0xbdd49241	-0.10379458
212	0x3e4b8fc4	0.19879061
213	0x3dd04987	0.10170274
214	0xbd1f0802	-0.038825996
215	0x3b7a6910	0.0038209595
216	0xbdbb5dbe	-0.09148739
217	0x3c46397f	0.012098669
218	0x3d2589a7	0.04041448
219	0x3cf86010	0.030319244
220	0xbe71ce33	-0.23613815
221	0xbd0dfe22	-0.034666188
222	0x3d0f12a0	0.03492987
223	0x3c828546	0.01593269
224	0xbe6eb4c2	-0.23311141
225	0x3e11f303	0.14252858
226	0xbdb7cc36	-0.08974497
227	0xbe0e96a3	-0.13924651
228	0x3d855492	0.06510271
229	0x3d9b7101	0.07589913
230	0x3e0e64ef	0.1390569
231	0xbd7a1ae6	-0.06106081
232	0x3dc743e6	0.097297475
233	0xbe1e0d00	-0.15434647
234	0x3ca7451f	0.020418702
235	0xbc11e4f2	-0.0089046825
236	0xbca29d8d	-0.019850517
237	0x3ca5aaff	0.020223139
238	0xbd489199	-0.048966978
239	0x3c3228e5	0.010874008
240	0xbd7291c2	-0.059221037
241	0x3da807ad	0.08204589
242	0x3e1faa1d	0.15592237
243	0x3db74d81	0.089503296
244	0xbdae3cf5	-0.085077204
245	0xbe5170e4	-0.2045322
246	0x3d3fc9d9	0.046823356
247	0xbdbd7fe4	-0.09252909
248	0x3c3a2b0c	0.011362802
249	0xb9cfda18	-0.0003964461
250	0xbd84a26d	-0.06476293
251	0x3b81324a	0.0039427625
252	0x3dee8cf2	0.11647977
253	0x3deaccba	0.1146483
254	0x3e33a56e	0.17543575
255	0xbe050198	-0.12988889

encoder_lstm1.weight_hh_l0 f4 [256, 64]
0	0xbd0e04d5	-0.034672577
1	0xbdffd392	-0.12491526
2	0xbd35324f	-0.04423743
3	0x3dc30568	0.095225155
4	0xbd89b042	-0.06723072
5	0xbcf81bc3	-0.030286675
6	0xbd534a02	-0.05158425
7	0xbcf195c5	-0.029490361
8	0x3d436fbc	0.04771398
9	0x3dcc4cba	0.09975572
10	0xbd86869c	-0.065686435
11	0x3db47b95	0.08812634
12	0x3dcd18b2	0.10014476
13	0xbe58b49b	-0.21162646
14	0x3d7767f7	0.060401883
15	0xbdbde273	-0.092717074
16	0x3affdc66	0.001952064
17	0xbddbe5a5	-0.107371606
18	0x3d01f21b	0.03172503
19	0xbd6cf60e	-0.057851844
20	0xbbdc9136	-0.0067311777
21	0x3e0a6195	0.13513787
22	0xbd71899d	-0.05896913
23	0xbdc43eb3	-0.095822714
24	0x3d67cb71	0.0565905
25	0x3e07da71	0.13266923
26	0x3d3e84f5	0.046513516
27	0xbd6d30f0	-0.057908
28	0x3d8e0949	0.06935365
29	0xbb48992f	-0.0030608883
30	0xbdef141b	-0.11673757
31	0xbb40f24a	-0.002944129
32	0x3d764e71	0.0601334
33	0xbca1278a	-0.019672174
34	0x3d3097b0	0.04311341
35	0x3d813aab	0.06310018
36	0xbde1491b	-0.11000272
37	0x3ced5992	0.028973375
38	0xbd26b593	-0.040700506
39	0xbdeb6cdf	-0.11495375
40	0xbdd23b30	-0.10265195
41	0x3d24441f	0.040104028
42	0xbd215303	-0.039385807
43	0x3de569d1	0.112018235
44	0x3da8ec6c	0.08248219
45	0xbd5a7afc	-0.053339943
46	0x3da4b646	0.080425784
47	0xbd81c6bb	-0.06336733
48	0x3d998539	0.07496113
49	0x3de4cb85	0.11171631
50	0xbcba7741	-0.022761943
51	0xbb217d6b	-0.0024641405
52	0x3d23e8ab	0.04001681
53	0x3d91a9bb	0.07112452
54	0x3ded1491	0.11576188
55	0xbe629656	-0.22127661
56	0xbd21dc34	-0.039516643
57	0x3d587b60	0.052852035
58	0x3d4e719e	0.050401323
59	0x3db00db5	0.085963644
60	0x3e439a09	0.19101728
61	0x3e066cfb	0.1312751
62	0x3d544e48	0.051832467
63	0xbc8775a8	-0.016535595
64	0xbe09c8e6	-0.13455543
65	0x3c109296	0.008824011
66	0xbdada7ae	-0.08479248
67	0x3d998f56	0.07498042
68	0xbe0fe768	-0.14053118
69	0xbda1992d	-0.07890544
70	0xbdafdbc2	-0.08586837
71	0xbe015ce9	-0.12633099
72	0x3e512977	0.20425974
73	0xbd9fa1b9	-0.07794518
74	0xbe4ae3c5	-0.1981345
75	0xbd943518	-0.07236689
76	0x3c0de285	0.0086599635
77	0xbe539d77	-0.20665537
78	0x3df533ec	0.11972794
79	0xbd262267	-0.040560152
80	0x3dbe9b9e	0.093070254
81	0xbe1da678	-0.15395534
82	0x3e92bcc2	0.28659636
83	0xbda9f28f	-0.082982175
84	0x3e076829	0.13223328
85	0x3e9035e4	0.28166115
86	0xbe2aa5c0	-0.16664791
87	0x3e06a063	0.1314712
88	0x3e2ddbc9	0.16978373
89	0xbe158c9d	-0.14604421
90	0x3cd193e3	0.025583213
91	0x3d956aee	0.07295786
92	0x3da15399	0.07877273
93	0x3d87cd4a	0.06630953
94	0xbe0848c2	-0.13309005
95	0x3e26dfcd	0.1629631
96	0x3c217da1	0.009856612
97	0x3d91ab47	0.07112747
98	0xbe1c3892	-0.15255955
99	0x3e227170	0.15863585
100	0x3daaa7b2	0.083327666
101	0x3e1d477f	0.15359305
102	0x3e67f0f5	0.22650512
103	0x3e36b3c7	0.17842017
104	0x3e3d7976	0.18503365
105	0xbd4bbfb2	-0.04974336
106	0xbe297c9f	-0.16551445
107	0xbe0eb0a4	-0.1393457
108	0xbe18369c	-0.14864582
109	0x3e370e00	0.17876434
110	0xbe79928c	-0.2437231
111	0xbd954f92	-0.072905675
112	0x3d23b23d	0.039964903
113	0x3d30921f	0.043108102
114	0xbe67726a	-0.22602239
115	0xbcc9bc2d	-0.024625862
116	0xbd121ac4	-0.035670057
117	0xbe099caa	-0.13438669
118	0x3e11b870	0.14230514
119	0xbe2da7db	-0.16958563
120	0x3d8da1f5	0.069156565
121	0x3d92c8dd	0.07167218
122	0x3c485edb	0.012229647
123	0xbd2d45e3	-0.042302977
124	0x3e35def8	0.17760837
125	0x3e05bd32	0.13060454
126	0xbccf58f8	-0.025310978
127	0x3d346193	0.044038367
128	0x3cdb5217	0.026772542
129	0xbe27eb75	-0.16398413
130	0xbddec142	-0.10876705
131	0x3d6b3edf	0.057433005
132	0xbe5011e1	-0.2031932
133	0xbc3ebe19	-0.0116420025
134	0xbe3645d1	-0.1780007
135	0xbda903ac	-0.082526535
136	0x3e49809b	0.19677965
137	0xbd649499	-0.055805776
138	0x3c17e4c8	0.009270854
139	0xbe51fb05	-0.20505913
140	0xbd44e40a	-0.048069037
141	0xbdea34f8	-0.11435884
142	0x3e767d97	0.24071346
143	0xbc051bc4	-0.008124296
144	0x3e3af58d	0.18257733
145	0xbe23b83a	-0.15988246
146	0x3d48db9d	0.049037565
147	0x3e21c197	0.15796505
148	0x3e142d8c	0.144705
149	0x3e794f15	0.24346574
150	0xbe732e5c	-0.23748153
151	0x3e31e5e9	0.1737286
152	0x3debc85e	0.115128264
153	0xbe470151	-0.19434096
154	0x3d21c22a	0.03949181
155	0x3e68369f	0.22677086
156	0xbc975d7d	-0.018477196
157	0x3c816a88	0.015797868
158	0x3ab0bb5f	0.0013483575
159	0x3de894ef	0.11356532
160	0xbdf49ac5	-0.119435824
161	0xbd1179b5	-0.03551646
162	0xbe086f02	-0.13323596
163	0x3da06738	0.078321874
164	0xbd14ff03	-0.03637601
165	0x3e28eb5d	0.16496034
166	0x3d3217bb	0.043479662
167	0x3e3fbe81	0.18725015
168	0x3d30561a	0.043050863
169	0x3e6583bc	0.22413534
170	0xbe342c0a	-0.17594925
171	0xbe271e9e	-0.16320273
172	0xbe7b7cae	-0.2455928
173	0x3e6f50e7	0.23370706
174	0xbdf11ca7	-0.11773043
175	0x3ca0e5b9	0.01964079
176	0x3d867ab6	0.06566374
177	0x3e620983	0.22073941
178	0xbdcb8693	-0.09937777
179	0xbe608d07	-0.21928798
180	0xbe4594cf	-0.19295047
181	0x3e6afa1a	0.22946969
182	0x3ca3cbeb	0.019994697
183	0xbe2df366	-0.1698738
184	0x3dd2b468	0.10288316
185	0x3d716ce8	0.05894175
186	0xbcb7e292	-0.022446904
187	0x3e517402	0.2045441
188	0xba78369f	-0.00094685884
189	0x3c7bd533	0.015370655
190	0xbe1a952a	-0.15095964
191	0x3c097af0	0.008391127
192	0x3c98a571	0.018633576
193	0xbe0cd8e4	-0.13754612
194	0xbd8a227d	-0.06744859
195	0x3d9dda8d	0.07707701
196	0xbd9a2484	-0.07526496
197	0xbcadde20	-0.021224082
198	0xbd3cc66b	-0.046087664
199	0xbe5a3f51	-0.21313216
200	0x3d94d9e2	0.0726812
201	0xbe15c52f	-0.14626001
202	0xbe40591e	-0.18783996
203	0x3dc8fd98	0.09813994
204	0xbe169039	-0.14703454
205	0xbe338fe5	-0.1753536
206	0x3dff0080	0.12451267
207	0xbe1b7346	-0.15180692
208	0x3e706c72	0.23478869
209	0xbccf3cf7	-0.025297625
210	0xbd6bc10f	-0.057557162
211	0x3dbc800b	0.0920411
212	0x3dd02a47	0.10164314
213	0x3de9ed48	0.11422211
214	0xbdcf2ca1	-0.10115934
215	0x39e18db9	0.00043020936
216	0x3e9af153	0.3026224
217	0xbdc12e0f	-0.09432613
218	0x3de5a8d6	0.112138435
219	0x3e18ab6e	0.14909145
220	0xbd650778	-0.055915326
221	0xbd5558e3	-0.052086722
222	0xbe2ff02d	-0.17181464
223	0x3e479974	0.19492131
224	0xbe59c749	-0.21267428
225	0xbd698ac6	-0.05701711
226	0x3c5f0a85	0.013613348
227	0x3dda4313	0.10657325
228	0xbd9367e4	-0.0719755
229	0x3ae89164	0.0017743525
230	0x3e0dc5fe	0.1384506
231	0x3c04e8ba	0.008112127
232	0x3e1529e0	0.14566755
233	0xbe21b2d5	-0.15790875
234	0xbda1d5a2	-0.07902075
235	0xbdefd8df	-0.11711287
236	0xbe642938	-0.22281349
237	0x3dcae4b5	0.09906904
238	0xbe166f3f	-0.14690875
239	0xbe045127	-0.12921582
240	0x3d62ab37	0.055339064
241	0x3e03ff29	0.12890305
242	0xbe74406f	-0.23852704
243	0xbe21cf55	-0.15801747
244	0xbe5a3a5f	-0.2131133
245	0xbd482c52	-0.048870392
246	0x3c7aecde	0.015315263
247	0xbd86b305	-0.06577114
248	0x3dc4dd68	0.096125424
249	0x3e2c0bd2	0.16801384
250	0x3d8637dd	0.06553624
251	0xbb9a388e	-0.004706449
252	0x3e4d537b	0.20051377
253	0x3e3cb2c4	0.18427569
254	0xbe0728e3	-0.13199191
255	0x3dc2596e	0.094897136

encoder_lstm1.bias_ih_l0 f4 [256]
0	0x3e32fe0b	0.17479722
1	0x3e0cec54	0.13762027
2	0x3e0b059d	0.1357636
3	0x3ebdae0c	0.3704685
4	0x3ea8bf76	0.32958573
5	0x3ec48343	0.38381395
6	0x3e9988bc	0.29987133
7	0x3ebb24fa	0.36551648
8	0x3e901122	0.2813807
9	0x3e310f56	0.17291006
10	0x3e5e58d8	0.21713579
11	0x3d64644d	0.055759717
12	0x3ea1f700	0.3163376
13	0x3e000840	0.12503147
14	0x3da9030a	0.08252533
15	0x3ecc4242	0.398943
16	0x3e9af0e8	0.30261922
17	0x3e8948cb	0.2681335
18	0x3e82d313	0.25551662
19	0x3ec731bb	0.3890513
20	0x3e33ce5b	0.17559187
21	0x3e38f218	0.18061101
22	0x3e88c51f	0.2671289
23	0x3e8bfec3	0.27342805
24	0x3ea3a7d1	0.3196397
25	0x3cbe9376	0.023263674
26	0x3e55b43f	0.2086954
27	0x3e507981	0.2035885
28	0x3e81df14	0.25365508
29	0x3e06d848	0.13168442
30	0x3d9f0b40	0.07765818
31	0x3ea27c05	0.31735244
32	0x3e9a90de	0.3018865
33	0x3ec617ae	0.3868994
34	0x3e46b479	0.19404782
35	0x3e55f461	0.20894004
36	0x3e69d202	0.22834018
37	0x3e0c9f3e	0.13732621
38	0x3e379c5c	0.1793074
39	0x3e2b50bd	0.16730018
40	0x3e452235	0.1925133
41	0x3df80616	0.12110536
42	0x3e258f36	0.16167912
43	0x3e2f781c	0.17135662
44	0x3e8045b0	0.25053167
45	0x3ecffe81	0.4062386
46	0x3de48258	0.111576736
47	0x3e8165d8	0.25273013
48	0x3d727cdb	0.059201103
49	0x3e1c53ff	0.15266417
50	0x3e0cfa2b	0.13767307
51	0x3ed44ae4	0.41463387
52	0x3e790992	0.24320057
53	0x3c65fe3e	0.014037667
54	0x3eb3a036	0.3508317
55	0x3e6a7c2b	0.22898929
56	0x3e558457	0.20851265
57	0x3e50b954	0.20383197
58	0xbd7f7a5a	-0.062372543
59	0x3ea0359f	0.3129091
60	0x3ec1f618	0.37883067
61	0x3e816eec	0.2527994
62	0x3e421bb9	0.18955888
63	0x3e874e47	0.26426908
64	0xbe3bcc08	-0.1833955
65	0xbd02191e	-0.031762235
66	0xbe18894c	-0.14896125
67	0xbdd70aff	-0.10500144
68	0x3cb0b49b	0.021570494
69	0x3ddcfdb4	0.107905775
70	0x3c3dd92d	0.011587423
71	0x3e258f79	0.16168012
72	0x3d6239d3	0.055230927
73	0xbc0cd11c	-0.008594777
74	0x3d7ffd00	0.06249714
75	0xbd9fdbb2	-0.078055754
76	0x3e049b9e	0.12949988
77	0xbdd5fd35	-0.10448686
78	0xbd841083	-0.06448462
79	0x3c3fb7cc	0.011701535
80	0xbe5eef6e	-0.21771023
81	0x3d40f5ec	0.04710953
82	0x3be9a852	0.007130661
83	0xbe1e7787	-0.15475284
84	0xbdd9f138	-0.10641712
85	0x3c90f39b	0.017694285
86	0x3d1c520c	0.038164183
87	0x3c541cbf	0.012946307
88	0xbd059b94	-0.032619074
89	0x3d7c261f	0.061559793
90	0x3cf87b6e	0.030332293
91	0x3cefd00d	0.029274011
92	0xbe1c5c6e	-0.15269634
93	0xbd9d1de7	-0.07671719
94	0xbe176ab8	-0.14786804
95	0xbdeb429e	-0.114873156
96	0xbc6888c3	-0.014192763
97	0xbdb06e45	-0.08614782
98	0xbd928e51	-0.07156051
99	0xbe0425d3	-0.12905054
100	0x3d4237b3	0.0474164
101	0xbcb269d2	-0.021778975
102	0x3d6112a2	0.05494941
103	0xbda95fdb	-0.08270236
104	0xbe0259ff	-0.12729643
105	0xbe1691be	-0.14704034
106	0x3c7f69ba	0.015589172
107	0xbcad8aaa	-0.021184284
108	0x3d24514d	0.040116597
109	0xbdadd10c	-0.08487138
110	0xbd963b01	-0.07335473
111	0xbd144226	-0.036195897
112	0xbe4ab912	-0.19797161
113	0xbc9b7693	-0.018977439
114	0x3d49d9bf	0.049279924
115	0x3e0b8acd	0.13627167
116	0xbe2cb525	-0.16865976
117	0xbe6350de	-0.22198817
118	0xbe602592	-0.21889332
119	0xbd5c2e8b	-0.053755324
120	0xbe063cd6	-0.13109145
121	0xbd6ccf86	-0.057815097
122	0xbd992f77	-0.07479756
123	0xbcd3eb49	-0.025869029
124	0x3c91cc30	0.01779756
125	0xbdecd90b	-0.11564835
126	0x3d08365c	0.033254966
127	0x3ce9c1bb	0.02853476
128	0x3e4f4be3	0.20243792
129	0xbe90cafa	-0.2827986
130	0xbd8e5034	-0.06948891
131	0x3e8c11f9	0.27357462
132	0xbe207a18	-0.15671575
133	0xbedd240f	-0.43191573
134	0xbeac9e8e	-0.33714718
135	0xbec92766	-0.3928787
136	0x3e3b9e97	0.18322216
137	0xbe2a4c80	-0.16630745
138	0xbe7e6f43	-0.2484713
139	0xbe72c579	-0.23708142
140	0xbe9eb0ac	-0.30994165
141	0xbd1fb83c	-0.03899406
142	0x3e4f7c87	0.20262347
143	0xbe706aae	-0.23478195
144	0x3e08d3cb	0.13362043
145	0xbd1b4f3d	-0.037917364
146	0x3dfeadd7	0.12435501
147	0x3e483d35	0.19554599
148	0x3e003a8a	0.12522331
149	0x3e085906	0.1331521
150	0xbec2e670	-0.38066435
151	0x3e2a1408	0.16609204
152	0x3dd95d4b	0.10613497
153	0xbe12f601	-0.14351656
154	0x3e0e4b9a	0.13896027
155	0x3eae70c4	0.34070408
156	0x3e24271b	0.16030543
157	0x3d2ea64a	0.042639054
158	0xbde84cf8	-0.113428056
159	0x3e9157ca	0.2838729
160	0xbe4ea732	-0.20180967
161	0xbde57b50	-0.112051606
162	0xbe355256	-0.1770719
163	0x3e9755db	0.2955769
164	0xbe3f2b61	-0.18668891
165	0x3b744c64	0.0037276978
166	0x3d8f2f06	0.06991391
167	0x3eaa9fd4	0.33325064
168	0x3e53af5f	0.20672368
169	0x3dfdd38a	0.123938635
170	0xbe7e69cd	-0.24845047
171	0xbe9013b1	-0.28140023
172	0xbebff4b0	-0.3749137
173	0x3e88418d	0.2661251
174	0xbe86bdfc	-0.26316822
175	0xbdc81343	-0.09769299
176	0xbe163f30	-0.14672542
177	0x3e067984	0.13132292
178	0xbe84770b	-0.25872073
179	0xbe87455a	-0.264201
180	0xbe0ba26b	-0.13636176
181	0x3c6d8418	0.014496826
182	0x3df0779b	0.11741563
183	0xbdc1ca47	-0.094624095
184	0x3d8dabd8	0.06917542
185	0x3e97570a	0.29558593
186	0x3d91aa74	0.071125895
187	0x3e031647	0.12801467
188	0x3e97beb3	0.2963768
189	0x3eb7919b	0.35853276
190	0xbdd8d945	-0.10588316
191	0x3e903ab9	0.28169802
192	0x3ddeb1d3	0.10873761
193	0x3e0111c6	0.12604436
194	0x3ea20dbf	0.31651112
195	0x3dde2d2a	0.10848458
196	0x3dd3b787	0.103377394
197	0x3e64d28d	0.22345944
198	0x3e71d1bb	0.23615162
199	0x3ddb15ff	0.10697555
200	0x3e2ea3c4	0.17054659
201	0x3e8c8de2	0.27451998
202	0x3e190eed	0.149471
203	0x3e874875	0.26422468
204	0x3eb085f9	0.34477213
205	0x3d0089d2	0.031381436
206	0x3e525509	0.20540251
207	0x3e27bc7f	0.163805
208	0x3e4e543a	0.20149317
209	0x3e664e25	0.22490747
210	0x3dc38190	0.095461965
211	0x3e95c203	0.29249582
212	0x3d7f1b5c	0.06228195
213	0x3eb52a73	0.3538395
214	0x3e3194ca	0.17341915
215	0x3ea1dd56	0.31614178
216	0x3e91e09f	0.28491685
217	0x3dab39c4	0.08360627
218	0x3ea67bc7	0.3251631
219	0x3e531887	0.20614825
220	0x3e573916	0.2101787
221	0x3e7265fa	0.23671713
222	0x3e046776	0.12930092
223	0x3df09233	0.11746635
224	0x3e80bde9	0.2514489
225	0x3ec87451	0.39151242
226	0x3df2fe48	0.118649065
227	0x3e95e77f	0.2927818
228	0x3d432ccd	0.047650147
229	0x3ea23cbe	0.31686968
230	0x3e3e23cb	0.18568341
231	0x3e881334	0.2657715
232	0x3ead0488	0.3379252
233	0x3e8a5322	0.2701655
234	0x3e15c8b8	0.1462735
235	0x3e35f630	0.17769694
236	0x3e5c7824	0.21530205
237	0x3ee73f45	0.45165458
238	0x3d90b6a6	0.070660874
239	0x3e51e6bd	0.20498176
240	0x3e2f31c9	0.17108835
241	0x3e17abaf	0.14811586
242	0x3e848fbf	0.2589092
243	0x3e5e12b4	0.21686822
244	0x3e9a530c	0.30141485
245	0xbca1df9d	-0.019759947
246	0x3e725adb	0.23667471
247	0x3deefa7f	0.11668872
248	0x3df87583	0.121317886
249	0x3d8e5048	0.06948906
250	0x3ceb333f	0.02871096
251	0x3df17aa8	0.11790973
252	0x3ea8d38c	0.32973897
253	0x3e0a9374	0.13532811
254	0x3d8f26a2	0.069897905
255	0x3dcba6f0	0.0994395

encoder_lstm1.bias_hh_l0 f4 [256]
0	0x3e12a2e7	0.14319955
1	0x3e171830	0.1475532
2	0x3dd46ceb	0.10372337
3	0x3ebe1391	0.37124303
4	0x3de2ec9a	0.110802844
5	0x3ec9d850	0.39422846
6	0x3eab5d72	0.3346973
7	0x3e432c07	0.19059764
8	0x3d98d786	0.07462983
9	0x3e11cbe6	0.14237937
10	0x3e6847bd	0.22683616
11	0x3e150691	0.14553286
12	0x3e7ec958	0.24881494
13	0x3d9c6aad	0.07637534
14	0x3e6f66e6	0.23379096
15	0x3ed0534a	0.40688545
16	0x3e93eb75	0.28890577
17	0x3dcc0195	0.09961239
18	0x3e0cb4b7	0.13740812
19	0x3e8c8f67	0.27453157
20	0x3df2434e	0.118292436
21	0x3eb94cb6	0.36191338
22	0x3e8df51d	0.2772607
23	0x3e9b0179	0.3027456
24	0x3e62b009	0.22137465
25	0x3e8483d7	0.25881836
26	0x3e37be9f	0.1794381
27	0x3e6e5665	0.23275144
28	0x3e06d343	0.13166527
29	0x3e0c0316	0.13673052
30	0x3e50fc7d	0.20408817
31	0x3ebdeb3d	0.37093535
32	0x3e6f3d40	0.23363209
33	0x3e75ff63	0.24023204
34	0x3eb9b2d9	0.36269262
35	0x3e3f620c	0.18689746
36	0x3e8626a0	0.26201344
37	0x3e227222	0.1586385
38	0x3df715e5	0.12064723
39	0x3def699f	0.116900675
40	0x3ead302e	0.3382582
41	0x3e132113	0.14368086
42	0x3e975f29	0.2956479
43	0x3e9cd276	0.3062932
44	0x3ea449a7	0.32087442
45	0x3ea51232	0.32240444
46	0x3e9f8ae9	0.31160668
47	0x3e8317b0	0.2560401
48	0x3e67bef8	0.22631443
49	0x3dc1b3a1	0.094580896
50	0x3e5599ef	0.20859502
51	0x3ea43bbc	0.32076824
52	0x3ddc1205	0.107456245
53	0x3d7a6651	0.061132733
54	0x3eb0d5ee	0.34538215
55	0x3e224b30	0.15848994
56	0x3e5bf8fd	0.214817
57	0x3e859d04	0.26096356
58	0xbdaedbb6	-0.08538
59	0x3da13d61	0.07873035
60	0x3eba7d2e	0.3642363
61	0x3ed0ca46	0.40779322
62	0x3e15acc0	0.1461668
63	0x3e729b12	0.23691967
64	0xbe22ebb9	-0.15910234
65	0x3e296644	0.16542917
66	0xbe86a231	-0.26295617
67	0xbd773e7b	-0.06036232
68	0xbdb86cf4	-0.09005156
69	0x3d93a6e6	0.07209568
70	0x3dfb145c	0.122597426
71	0x3dc42877	0.095780306
72	0xbd4b7cb7	-0.049679484
73	0x3c2f8a40	0.010714114
74	0xbd71d5c5	-0.059041757
75	0xbe239ca7	-0.15977727
76	0x3dc5b616	0.09653871
77	0xbdfae1ee	-0.12250124
78	0xbe1a4869	-0.15066685
79	0x3db563cf	0.088569276
80	0xbded8f59	-0.11599607
81	0xbd20fc4c	-0.03930311
82	0xbdd06f99	-0.101775356
83	0xbe494fc3	-0.19659333
84	0x3dbe3406	0.092872664
85	0x3d0797c6	0.033103727
86	0x3d30cdac	0.043164894
87	0xbe0d4fc8	-0.13799965
88	0xbdf62947	-0.12019592
89	0xbd17701f	-0.03697216
90	0xbe23e737	-0.1600617
91	0xbd77ed3d	-0.060528982
92	0x3d2d5f9f	0.04232752
93	0xbde3529b	-0.1109974
94	0x3cdcf110	0.026970416
95	0x3da25ca2	0.079278246
96	0x3cea5b59	0.028608011
97	0xbd1d7464	-0.038441077
98	0x3d4dc655	0.050237972
99	0xbe09151d	-0.1338696
100	0xbcc59306	-0.024117958
101	0xbdc5d672	-0.09660043
102	0x3d2caee2	0.04215897
103	0xbd125dd9	-0.03573403
104	0x3d111895	0.035423834
105	0xbd4c49de	-0.049875133
106	0xbcb97b25	-0.022641728
107	0xbdf1dab6	-0.11809294
108	0x3dd36805	0.103225745
109	0x3c93542f	0.017984478
110	0xbcedf1d6	-0.02904598
111	0xbe26961b	-0.16268198
112	0xbe62c8f1	-0.22146966
113	0xbe05c9b4	-0.13065225
114	0x3b1aae2f	0.0023602357
115	0x3cd00e43	0.025397426
116	0x3c8822cb	0.016618153
117	0xbe2ecbd7	-0.17069946
118	0xbdb1cea5	-0.086819924
119	0xbdf86b40	-0.12129831
120	0x3ce46fb1	0.02788529
121	0x3ce6f6d0	0.028193861
122	0xbe07c35a	-0.13258114
123	0xbe0f09df	-0.1396861
124	0x3d60e0b7	0.054901805
125	0xbd64e4b2	-0.055882163
126	0xbc5a4f84	-0.013324622
127	0xbdac78fd	-0.08421514
128	0x3d8388f4	0.06422606
129	0xbebe1635	-0.37126318
130	0xbe27c8a0	-0.16385126
131	0x3ea9c73f	0.33159825
132	0xbe931658	-0.28727984
133	0xbeb3ccb7	-0.35117123
134	0xbe9bdb82	-0.3044091
135	0xbebc2fbb	-0.36755165
136	0x3e8792b6	0.2647912
137	0xbdb49184	-0.088168174
138	0xbe9a950c	-0.3019184
139	0xbdd5a127	-0.10431128
140	0xbec3f914	-0.3827597
141	0xbe2bbfe9	-0.16772427
142	0x3deee146	0.11664061
143	0xbe8aec56	-0.27133435
144	0x3df531de	0.11972402
145	0xbe85d6ca	-0.26140434
146	0x3db69339	0.08914799
147	0x3ec62f68	0.38708043
148	0x3e85cd31	0.2613311
149	0x3e11ab00	0.14225388
150	0xbec7cf4a	-0.39025337
151	0x3e971489	0.29507855
152	0x3e16cb28	0.14725935
153	0xbe4b629d	-0.19861837
154	0x3e82aba2	0.2552157
155	0x3eb27928	0.3485806
156	0x3dbba248	0.09161812
157	0x3e662a7e	0.22477147
158	0xbdee61e2	-0.116397634
159	0x3eb1b6bd	0.3470973
160	0xbe3f9298	-0.18708265
161	0xbe660a36	-0.22464833
162	0xbeacbdcc	-0.33738554
163	0x3e858c07	0.26083395
164	0xbda7fd36	-0.08202593
165	0x3e5ce8ae	0.21573135
166	0x3e6f27db	0.23355047
167	0x3e6430fa	0.22284308
168	0x3db45d43	0.08806851
169	0xbcb60987	-0.02222134
170	0xbeebe1ed	-0.46070805
171	0xbe89c0ad	-0.26904812
172	0xbe8e8aa9	-0.27840164
173	0x3e1b61b7	0.15173994
174	0xbe80034c	-0.25002515
175	0xbe818b44	-0.25301564
176	0xbb1e8c0b	-0.0024192359
177	0x3e85d2c2	0.26137358
178	0xbe0b288b	-0.13589685
179	0xbec0d293	-0.37660655
180	0xbe2d19c9	-0.16904368
181	0x3e4349ad	0.19071074
182	0x3de8ca31	0.1136669
183	0xbe06baf6	-0.13157257
184	0x3e32cb87	0.17460452
185	0x3eb80346	0.35939997
186	0x3e4f167b	0.2022342
187	0x3e309c91	0.17247225
188	0x3e694e51	0.22783782
189	0x3e9230dd	0.28552905
190	0xbea8ca95	-0.32967058
191	0x3e5e49dd	0.21707864
192	0x3dbdd53b	0.09269186
193	0x3e5d1210	0.21588922
194	0x3e9a9539	0.30191973
195	0x3df4dc3c	0.11956069
196	0x3e6ac4e3	0.22926669
197	0x3e9a7388	0.30166268
198	0x3e6b420a	0.2297441
199	0x3e5d2b37	0.21598516
200	0x3e062590	0.13100266
201	0x3e23a9f7	0.15982805
202	0x3e8a98ce	0.27069706
203	0x3e4bf1e8	0.19916499
204	0x3e9e719f	0.3094606
205	0x3e5a9c90	0.21348786
206	0x3c30f71c	0.010801103
207	0x3e8f7d8d	0.28025475
208	0x3e849e90	0.25902224
209	0x3d7b0f5a	0.061293937
210	0x3dcc6570	0.09980285
211	0x3e3577e3	0.17721514
212	0x3e7c37e0	0.2463069
213	0x3ec68b7d	0.38778296
214	0x3e1709e0	0.14749861
215	0x3ea5175a	0.32244378
216	0x3e8be2e3	0.27321538
217	0x3e43a60e	0.19106314
218	0x3e9cde20	0.30638218
219	0x3e97c476	0.29642075
220	0x3e29d358	0.16584527
221	0x3e5ec75c	0.21755737
222	0x3e2f12c4	0.17097002
223	0x3d43a1b6	0.04776164
224	0x3e871884	0.2638589
225	0x3e9d44fe	0.307167
226	0x3d91c3c2	0.07117416
227	0x3e09cd95	0.1345733
228	0x3d2ecd65	0.04267635
229	0x3e4a0ce9	0.19731487
230	0x3ea7fde9	0.32810906
231	0x3e960db1	0.2930732
232	0x3e772905	0.24136741
233	0x3e803f84	0.2504846
234	0x3de08ac7	0.1096397
235	0x3ea191fc	0.3155669
236	0x3e4a090e	0.19730017
237	0x3ef1ab6a	0.4720109
238	0x3daf8cb6	0.0857176
239	0x3e2bed73	0.16789798
240	0x3e37a74b	0.17934911
241	0x3e5b593d	0.2142076
242	0x3e6ce7a9	0.23135246
243	0x3e2b1b48	0.16709626
244	0x3ea159c4	0.31513798
245	0x3d17188a	0.036888637
246	0x3eacad2e	0.33725876
247	0x3e753eaa	0.23949686
248	0x3e7ce59e	0.24696967
249	0x3dd91642	0.105999485
250	0x3e5a751d	0.21333738
251	0x3e59371d	0.2121243
252	0x3eddc4bc	0.4331416
253	0x3eaff240	0.3436451
254	0x3d7379c1	0.059442285
255	0x3dabeb4a	0.08394487

encoder_lstm2.weight_ih_l0 f4 [128, 64]
0	0x3e312fc9	0.17303385
1	0xbd412c41	-0.047161344
2	0xbe7ca657	-0.24672829
3	0x3e7cf576	0.24703011
4	0xbea7089c	-0.32623756
5	0xbe91a849	-0.28448704
6	0xbdd798a7	-0.10527163
7	0xbe1b1008	-0.15142834
8	0x3e10e58d	0.14150067
9	0x3d4498e7	0.04799738
10	0xbdeab055	-0.11459414
11	0xbeda0cf9	-0.42588022
12	0xbdbea67c	-0.09309098
13	0xbe96a0fb	-0.29419693
14	0x3e38b05e	0.18036029
15	0xbe837ae2	-0.2567969
16	0x3df31c12	0.11870588
17	0xbe29aba6	-0.16569385
18	0x3e0a5432	0.1350868
19	0x3eb0cb58	0.3453014
20	0x3e4706dd	0.19436212
21	0x3e97ea15	0.29670778
22	0xbe8f9756	-0.28045148
23	0x3d2a4fdc	0.041580066
24	0x3e2ac02e	0.16674873
25	0xbe20d570	-0.1570642
26	0x3e49819b	0.19678347
27	0x3c975701	0.018474104
28	0x3e50afa9	0.20379509
29	0xbda05148	-0.07828003
30	0xbe235fcf	-0.15954517
31	0x3e3e9666	0.1861206
32	0xbea26879	-0.3172033
33	0xbeb70fff	-0.35754392
34	0xbe3d7f91	-0.18505694
35	0x3eafb9ae	0.3432135
36	0xbdc81a48	-0.09770638
37	0x3c5c019f	0.013428121
38	0x3ea1bc0e	0.31588787
39	0x3e97dcb1	0.29660562
40	0x3e632396	0.22181544
41	0x3e8906c2	0.26762968
42	0xbe5798b4	-0.21054345
43	0xbe44abe1	-0.19206192
44	0xbd739a19	-0.05947313
45	0x3e5335f9	0.20626058
46	0xbe962af9	-0.2932966
47	0xbe4b4f13	-0.19854383
48	0xbe7d3580	-0.2472744
49	0x3ebd4fdc	0.3697499
50	0xbe55f949	-0.20895876
51	0xbe955383	-0.29165277
52	0xbda01a54	-0.07817522
53	0x3e2cbf52	0.16869858
54	0x3e8ee738	0.2791078
55	0xbe537aa2	-0.2065225
56	0x3e62e720	0.2215848
57	0x3d9b84e6	0.07593708
58	0x3ea65e1b	0.32493672
59	0x3e8cdbd4	0.27511466
60	0x3e1158ef	0.14194082
61	0x3e25aa20	0.16178179
62	0xbea336d4	-0.31877768
63	0x3e866ef7	0.26256534
64	0x3e910996	0.28327626
65	0xbde2d9fd	-0.11076734
66	0x3e48f4b0	0.19624591
67	0x3e397bba	0.18113604
68	0xbec4489e	-0.38336653
69	0xbec25c50	-0.37961054
70	0xbe083b57	-0.13303886
71	0xbe1cfcdc	-0.15330833
72	0x3e0624cb	0.13099973
73	0xbea26aeb	-0.31722197
74	0xbeb97b9c	-0.3622712
75	0xbd124784	-0.035712734
76	0xbe049600	-0.12947845
77	0xbe6653c4	-0.22492892
78	0x3ec69f5c	0.38793457
79	0xbecb42f3	-0.39699516
80	0x3db1c291	0.08679689
81	0xbe939e51	-0.28831723
82	0x3d984ba6	0.07436304
83	0x3e84224e	0.25807422
84	0x3e9c5d19	0.30539778
85	0x3e2cd479	0.16877927
86	0xbd87f39d	-0.066382624
87	0x3eb94750	0.3618722
88	0x3e85d1c7	0.2613661
89	0xbee3401d	-0.44384852
90	0x3e93f8b1	0.28900674
91	0x3ec79050	0.3897729
92	0x3e9c6941	0.30549052
93	0x3ea40968	0.32038426
94	0xbe6a0f7b	-0.22857468
95	0x3e98c666	0.29838866
96	0xbe321070	-0.17389083
97	0xbea29cba	-0.31760198
98	0xbd612448	-0.05496624
99	0x3ed50c54	0.41610968
100	0xbe83a53b	-0.25711998
101	0x3e5932db	0.21210806
102	0x3ec11f1a	0.3771904
103	0x3e929890	0.2863202
104	0x3e2a86eb	0.1665303
105	0xbdfbfd74	-0.12304202
106	0xbe3165a9	-0.17323937
107	0xbec06236	-0.3757493
108	0xbed5fdc2	-0.41795164
109	0x3e896141	0.2683201
110	0xbeba9fa9	-0.36449936
111	0xbdcbf879	-0.09959502
112	0xbdf706f1	-0.12061871
113	0x3ea193f1	0.31558183
114	0xbdebe603	-0.11518481
115	0xbdf1ee99	-0.11813087
116	0xbe7865a6	-0.24257526
117	0x3dcf3d6a	0.10119136
118	0x3dd15890	0.1022197
119	0xbed92c36	-0.42416543
120	0x3e73f3fc	0.23823541
121	0x3e954575	0.29154554
122	0x3e96da77	0.2946355
123	0x3e1d4391	0.15357806
124	0x3e2d96b9	0.16952027
125	0x3e139498	0.14412153
126	0xbe7d62b1	-0.24744679
127	0x3e2d7df3	0.16942577
128	0x3d4d265d	0.050085414
129	0xbe4bc735	-0.1990021
130	0xbe2693e7	-0.16267358
131	0x3ec36fb3	0.38171157
132	0xbe8fc9d5	-0.28083673
133	0xbd75da01	-0.060022358
134	0xbdc4dd90	-0.09612572
135	0xbe53e2fa	-0.20692053
136	0x3e303415	0.17207368
137	0xbde028d8	-0.1094529
138	0xbeac1d99	-0.3361633
139	0xbdc442fc	-0.09583089
140	0xbe000f0f	-0.12505744
141	0xbe8e1a23	-0.27754316
142	0x3ebcd089	0.3687785
143	0xbe9b0934	-0.3028046
144	0x3d9c0c83	0.07619574
145	0xbd8557d0	-0.065108895
146	0x3e139109	0.14410795
147	0x3e88a9c4	0.2669202
148	0x3daafcbe	0.08348988
149	0x3ebc2988	0.36750436
150	0xbda9455c	-0.082651824
151	0x3e4bd9a0	0.19907236
152	0x3d60ae0e	0.05485349
153	0xbe87113d	-0.2638034
154	0x3e7937c0	0.24337673
155	0x3eb662c9	0.35622242
156	0x3eb48037	0.3525407
157	0xbe68ac87	-0.22722064
158	0xbe9fcc89	-0.31210735
159	0x3e7c75c9	0.24654306
160	0xbeb51d75	-0.35374036
161	0xbe5904a7	-0.21193181
162	0xbe8bd802	-0.27313238
163	0x3e6c5c63	0.23082118
164	0xbe294f27	-0.165341
165	0x3ed287fe	0.4111938
166	0x3e9418fe	0.28925318
167	0x3eb981ec	0.36231935
168	0x3eb5e7f0	0.35528517
169	0x3e402402	0.18763736
170	0xbe3de38e	-0.18543836
171	0xbec7a194	-0.38990462
172	0xbea873b3	-0.32900771
173	0x3e34f9c0	0.17673397
174	0xbe0f0730	-0.13967586
175	0xbd0490f5	-0.032364804
176	0xbd679202	-0.05653573
177	0x3e2223c9	0.15833963
178	0xbd3418bf	-0.043968912
179	0xbeb0fc7e	-0.34567636
180	0xbeb51e61	-0.3537474
181	0xbe2092cb	-0.15680997
182	0x3e1a1ac9	0.1504928
183	0xbe7cd2a0	-0.24689722
184	0x3e2cdb92	0.16880634
185	0x3e8d67b9	0.27618197
186	0x3eb98fe9	0.36242607
187	0x3d8b5769	0.068037815
188	0xbc7e725b	-0.015530194
189	0x3d8f2c05	0.06990818
190	0xbea37924	-0.3192836
191	0x3e83de35	0.25755468
192	0x3ea06574	0.31327403
193	0xbdc764ae	-0.09736
194	0xbe5858d3	-0.21127634
195	0x3eb0dfc9	0.34545735
196	0xbeb7374f	-0.35784385
197	0xbe431fbc	-0.19055074
198	0xbe440b3d	-0.19144912
199	0xbe959a08	-0.2921908
200	0x3e10e014	0.14147979
201	0xbd04b4e8	-0.03239909
202	0xbc9a4397	-0.018831057
203	0xbe686e92	-0.22698429
204	0xbd940c3f	-0.07228898
205	0xbc7e91eb	-0.015537719
206	0x3ec11e79	0.3771856
207	0xbec520ff	-0.38501737
208	0x3e259904	0.16171652
209	0xbda19b5a	-0.07890959
210	0x3ebbe1a7	0.36695597
211	0x3eb623ab	0.35574088
212	0x3e196e08	0.1498338
213	0x3e441d43	0.19151787
214	0xbe50a43b	-0.20375149
215	0x3eaeb71f	0.34124085
216	0x3e89ef2e	0.26940292
217	0xbe6bf250	-0.23041654
218	0x3df61b76	0.120169565
219	0x3da718c4	0.081590205
220	0x3eadd0a5	0.33948246
221	0x3d0ac485	0.033878822
222	0xbe93c80f	-0.2886357
223	0x3df66e97	0.12032812
224	0xbe1dadd5	-0.15398343
225	0xbec5ff6b	-0.3867143
226	0xbddf6d11	-0.10909475
227	0x3d9a1f9f	0.075255625
228	0xbec54af0	-0.38533735
229	0x3e6d46d8	0.23171556
230	0x3e0fa1b4	0.14026529
231	0x3d93574e	0.071943864
232	0x3ec87d3e	0.39158052
233	0x3ea99d40	0.33127785
234	0xbe822955	-0.2542216
235	0xbe5c2f7e	-0.21502492
236	0xbe87b18c	-0.26502645
237	0x3e2a08e0	0.16604948
238	0xbde6b165	-0.11264304
239	0xbf10fc38	-0.56634855
240	0x3d537bc9	0.051631723
241	0x3db2aa94	0.087239414
242	0xbe63e205	-0.22254188
243	0xbe14613a	-0.14490214
244	0xbed01963	-0.4064437
245	0x3e997206	0.29969805
246	0x3ecd8dac	0.4014715
247	0xbdb1efd7	-0.08688324
248	0x3e40818e	0.18799421
249	0x3ec7a9bf	0.38996693
250	0x3d89c855	0.067276634
251	0x3e178407	0.14796458
252	0x3e93c5eb	0.28861937
253	0x3e43146c	0.19050759
254	0xbe65b769	-0.22433247
255	0x3ebe6eab	0.37193808

encoder_lstm2.weight_hh_l0 f4 [128, 32]
0	0x3dda2471	0.10651482
1	0x3cf521a1	0.029923262
2	0x3e375622	0.17903951
3	0x3c53aa5f	0.012919038
4	0x3d1b8853	0.037971806
5	0xbe30a192	-0.17249134
6	0x3d54020f	0.051759776
7	0xbe3cf96f	-0.18454526
8	0x3e458f93	0.1929305
9	0x3dd1e3f4	0.10248557
10	0xbdff8ea8	-0.124783814
11	0xbdc0fe77	-0.09423535
12	0x3d66bf33	0.056334686
13	0x3da3e7a6	0.08003168
14	0xbc99caef	-0.018773524
15	0x3e0e261c	0.13881725
16	0x3dadf086	0.08493142
17	0xbe7b8fd2	-0.24566582
18	0xbdfd2479	-0.12360472
19	0xbea0fd96	-0.3144347
20	0x3d581f32	0.052764125
21	0xbdfec4d6	-0.12439887
22	0xbe731f53	-0.23742418
23	0x3e7e7971	0.24851014
24	0xbd008f8f	-0.03138691
25	0x3e36648f	0.17811798
26	0x3d92f52c	0.07175669
27	0x3db1d2f6	0.08682816
28	0xbb6fc00e	-0.003658298
29	0xbd81602e	-0.06317173
30	0xbdf01309	-0.11722381
31	0x3d162fda	0.03666673
32	0xbd210a7b	-0.039316636
33	0x3d92363a	0.07139249
34	0x3e096131	0.13415982
35	0xbdc48d91	-0.09597314
36	0xbd2f7f5b	-0.042846065
37	0xbe4725e4	-0.19448048
38	0xbc89e749	-0.016833918
39	0xbdeeb55c	-0.11655685
40	0x3e28e077	0.16491877
41	0x3e6fe111	0.234257
42	0xbe183bad	-0.14866515
43	0xbe6818bb	-0.22665684
44	0xbe1ecf53	-0.15508775
45	0xbdbd3368	-0.092383206
46	0x3ddbcdf5	0.107326426
47	0x3e8241dc	0.25440872
48	0x3e82503e	0.25451845
49	0xbe3058d9	-0.17221393
50	0xbdd9e77c	-0.10639855
51	0x3b0156f0	0.0019735657
52	0xbd6ac23d	-0.057314146
53	0xbe27a6c1	-0.16372205
54	0xbe093878	-0.13400447
55	0x3dbb72d6	0.091527626
56	0xbc84bbe1	-0.016202869
57	0x3d390a88	0.04517606
58	0x3e81054d	0.25199357
59	0x3d27a978	0.040933102
60	0xbd7999b9	-0.060937617
61	0xbe3d4d02	-0.18486407
62	0xbdfdab55	-0.123861946
63	0xbe697c61	-0.22801353
64	0xbd3957a8	-0.04524961
65	0xbe2d0a09	-0.1689836
66	0x3c009994	0.007849116
67	0x3d986c58	0.0744254
68	0xbdcdc5af	-0.10047471
69	0x3d8da783	0.06916716
70	0x3def716e	0.11691557
71	0xbccf1bce	-0.025281813
72	0x3e69d101	0.22833635
73	0x3dcd7347	0.10031753
74	0x3d06970d	0.032858897
75	0xbe752047	-0.23938094
76	0xbcb1e42e	-0.02171525
77	0xbd28bcc6	-0.041195653
78	0x3cca1cc1	0.024671914
79	0xbd37b1ab	-0.04484717
80	0xbe75679f	-0.2396531
81	0xbe44a6ba	-0.19204226
82	0x3dbca554	0.09211221
83	0xbd851735	-0.06498567
84	0xbe10177f	-0.14071463
85	0xbca0dc71	-0.019636365
86	0xbe0fdc8e	-0.14048979
87	0xbd27ab40	-0.0409348
88	0xbe7bf303	-0.2460442
89	0x3d8a1462	0.06742169
90	0xbcd51368	-0.02601023
91	0x3dc44a09	0.095844336
92	0xbd53f1dc	-0.051744327
93	0x3c689cfc	0.014197584
94	0x3d7da4d4	0.06192477
95	0x3d621cc3	0.05520321
96	0x3e502638	0.2032708
97	0xbb942b2f	-0.0045217494
98	0x3e474dcb	0.1946327
99	0xbb44ab38	-0.003000928
100	0xbe6b9d02	-0.23009112
101	0xbe621be7	-0.22080956
102	0xbe607322	-0.2191892
103	0xbe574291	-0.21021487
104	0x3dc48785	0.09596161
105	0x3d2eb29e	0.04265081
106	0xbe8dc131	-0.27686456
107	0xbe8ad190	-0.27113008
108	0x3d965a2e	0.07341419
109	0x3e136e85	0.14397629
110	0x3e1ce1c3	0.15320496
111	0x3e4fd45a	0.2029585
112	0x3d10a4b9	0.03531334
113	0xbe277e4c	-0.16356772
114	0xbd3878d9	-0.045037124
115	0x3bf2e507	0.007412556
116	0x3cefc145	0.029266963
117	0x3de9735c	0.11398956
118	0xbe3d9acd	-0.18516083
119	0xbd68f85d	-0.056877483
120	0xbe2cec22	-0.16886953
121	0x3d99d47f	0.075112335
122	0x3e619287	0.22028552
123	0x3e83b5ff	0.2572479
124	0xbd8ee8fd	-0.06978033
125	0xbbae5034	-0.0053196196
126	0x3d738b41	0.059458975
127	0xbd2c7bdf	-0.04211032
128	0xbde2ea88	-0.110798895
129	0xbc8016dd	-0.015635902
130	0xbd0f6fee	-0.035018854
131	0xbe7ccdcc	-0.2468788
132	0x3d11f246	0.03563144
133	0xbd9f6bfc	-0.07784268
134	0x3cf3987c	0.029735796
135	0xbd733bd6	-0.059383236
136	0x3e470b83	0.19437985
137	0x3d3f857f	0.04675817
138	0xbd8514c1	-0.06498099
139	0x3d1f2576	0.038854085
140	0x3df8a93f	0.12141656
141	0x3db3e58b	0.08784016
142	0x3d87a73d	0.06623695
143	0xbdb4c5f1	-0.08826817
144	0x3d00e7d4	0.03147109
145	0xbe36e088	-0.1785909
146	0xbe1aed47	-0.15129577
147	0xbe24fe61	-0.16112663
148	0x3e1da939	0.15396585
149	0xbd52d1ca	-0.0514696
150	0xbe49f0d3	-0.19720773
151	0x3de4e94e	0.11177312
152	0x3d93c06c	0.07214436
153	0x3e805ba4	0.25069916
154	0x3dadfcff	0.08495521
155	0x3e345d0d	0.17613621
156	0x3dd9447d	0.10608766
157	0x3de7317e	0.11288737
158	0xbd2fbb18	-0.042903036
159	0x3e2b9da7	0.16759358
160	0xbd64f0ae	-0.055893593
161	0x3d6e7418	0.058216184
162	0x3e67457a	0.22585097
163	0xbdf064b1	-0.11737955
164	0xbe74049d	-0.23829885
165	0xbe5461c1	-0.20740415
166	0xbe600c2f	-0.21879648
167	0x3dc3c74d	0.09559498
168	0x3caeb0ee	0.021324601
169	0x3e200751	0.15627791
170	0xbe57f5cc	-0.21089858
171	0xbe497686	-0.1967412
172	0xbdd1a300	-0.10236168
173	0x3e247e2d	0.16063757
174	0x3dfc7fcf	0.12329065
175	0x3e846d6f	0.2586474
176	0x3d8a6ab4	0.06758633
177	0xbe87e33e	-0.2654056
178	0xbbcb0625	-0.006195801
179	0xbc232fac	-0.009960096
180	0x3d0db06d	0.03459208
181	0xbd704e4a	-0.058668412
182	0xbe868408	-0.26272607
183	0x3c8193c5	0.015817532
184	0xbe3b6991	-0.18301989
185	0x3e5e68c8	0.21719658
186	0x3db44e9a	0.088040546
187	0xbc94c794	-0.018161573
188	0x3d96293f	0.07332086
189	0x3caa8bd9	0.020818638
190	0xbdb43913	-0.087999485
191	0x3d66d149	0.056351934
192	0x3db5b88d	0.08873091
193	0xbe68b888	-0.22726643
194	0xbca7ae06	-0.020468723
195	0xbe3cb370	-0.18427825
196	0xbe24c9a0	-0.16092539
197	0x3d438d53	0.0477422
198	0xbe2cc563	-0.16872172
199	0xbe364b1a	-0.17802086
200	0x3de79680	0.113080025
201	0x3de8a73b	0.11360022
202	0x3dba7a10	0.09105313
203	0x3d83ddef	0.06438815
204	0x3d1fc85e	0.039009444
205	0x3cbb6f1a	0.022880126
206	0x3e8803b2	0.2656532
207	0x3e038de4	0.12847096
208	0xbd848f30	-0.06472623
209	0x3c43466d	0.011918646
210	0x3da1526c	0.07877049
211	0x3db9a129	0.09063942
212	0x3e16b39a	0.1471695
213	0xbe36ea8a	-0.17862907
214	0xbe83ffaf	-0.2578101
215	0x3df9f12c	0.12204203
216	0xbd523d46	-0.051327966
217	0xbc1ea01f	-0.0096817305
218	0x3e813e16	0.2524268
219	0xbd7ef86e	-0.06224864
220	0xbe868f30	-0.26281118
221	0x3d42ecda	0.04758916
222	0xbcd1b37e	-0.025598284
223	0xbdbbb455	-0.09165255
224	0xbb990d3e	-0.004670768
225	0xbc5aedc8	-0.0133623555
226	0x3e3cf72c	0.18453664
227	0xbe3e565c	-0.18587631
228	0xbe833f5b	-0.25634274
229	0xbe4216b2	-0.1895397
230	0xbe6060c6	-0.21911916
231	0xbe34ecdc	-0.1766848
232	0x3e4eea11	0.20206477
233	0x3d9cc1f9	0.07654185
234	0xbd0796bd	-0.03310274
235	0xbd8d27b3	-0.06892338
236	0xbe42bb8b	-0.19016854
237	0xbc882719	-0.016620206
238	0x3c656837	0.014001898
239	0x3d8a4570	0.067515254
240	0x3e2c2591	0.16811205
241	0xbe8d1bd9	-0.2756031
242	0xbe988972	-0.29792362
243	0xbd66b2e1	-0.056322936
244	0x3db46db6	0.08809988
245	0xbdeee930	-0.11665571
246	0xbe174b0e	-0.14774725
247	0x3dae9061	0.08523632
248	0x3e4418af	0.19150041
249	0x3dc17633	0.09446373
250	0x3e3f0b69	0.18656696
251	0x3d0a0d3d	0.03370403
252	0x3c3796c0	0.011205375
253	0xbe3ea8b0	-0.18619037
254	0xbbbb4305	-0.0057147765
255	0xbdfe5bc5	-0.124198474

encoder_lstm2.bias_ih_l0 f4 [128]
0	0x3e0310b9	0.12799348
1	0x3eb9efaa	0.36315662
2	0x3eb05b05	0.34444442
3	0x3ec4138c	0.38296163
4	0x3de11c07	0.10991674
5	0x3e9f7b96	0.31148976
6	0x3e79e64f	0.24404262
7	0x3e980584	0.29691708
8	0x3e3c09bb	0.18363087
9	0x3ec03b78	0.3754537
10	0x3ed5d26a	0.41762096
11	0x3debdd89	0.11516864
12	0x3eb85575	0.360027
13	0x3ea2fbff	0.31832883
14	0x3ec0b816	0.37640446
15	0x3e082fd5	0.13299496
16	0x3e03e832	0.12881544
17	0x3e83cc8c	0.25741994
18	0x3e7feb68	0.24992144
19	0x3e6242d4	0.22095805
20	0x3e1d18bd	0.15341468
21	0x3da1aa62	0.07893826
22	0x3edafa73	0.42769203
23	0x3e1a953a	0.15095988
24	0x3de50a14	0.11183563
25	0x3dfe90f1	0.12429989
26	0x3e9d59fc	0.30732715
27	0x3ec04cc4	0.37558568
28	0x3ecd6d28	0.40122342
29	0x3ec5ba99	0.38618925
30	0x3e9121a0	0.28345966
31	0x3ed9a747	0.42510435
32	0xbe71fa35	-0.23630603
33	0x3da1e0d5	0.079042114
34	0xbc9c5283	-0.019082313
35	0xbdf862f6	-0.1212825
36	0x3d224462	0.039615996
37	0xbdac8049	-0.08422906
38	0x3b8d51ba	0.004312721
39	0xbd5fe8c6	-0.05466535
40	0x3dcf00f4	0.10107604
41	0xbe6ed60a	-0.23323837
42	0xbd58ba62	-0.052912124
43	0x3da70717	0.08155649
44	0x3c1bdcde	0.009513108
45	0xbe05600a	-0.13024917
46	0xbcb6aeba	-0.022300113
47	0xbe887328	-0.26650357
48	0xbe859d55	-0.26096597
49	0x3de13fe0	0.10998511
50	0xbd778861	-0.060432795
51	0xbeaa2ac2	-0.33235747
52	0xbe80981a	-0.25116044
53	0xbd3e613b	-0.046479445
54	0x3dd59c41	0.10430194
55	0xbd7987d1	-0.06092054
56	0xbe344529	-0.17604508
57	0xbe0a8ca1	-0.13530208
58	0xbcde04bf	-0.027101872
59	0xbe32a19e	-0.17444465
60	0xbd97886a	-0.07399066
61	0xbe44fb2c	-0.1923644
62	0xbdc68f30	-0.096952796
63	0xbe056212	-0.13025692
64	0x3e32fde6	0.17479667
65	0xbeb26646	-0.34843653
66	0x3eb05bef	0.3444514
67	0xbeb2a55a	-0.34891778
68	0xbe70439c	-0.23463291
69	0xbdb1a0f8	-0.086732805
70	0xbe70c944	-0.23514277
71	0xbe376181	-0.17908289
72	0x3e17da89	0.14829458
73	0x3be8dc66	0.0071063517
74	0xbe976e30	-0.29576254
75	0xbe9ce0ae	-0.30640167
76	0x3d037138	0.032090396
77	0x3d1bb1c6	0.038011335
78	0x3e4f3727	0.20235883
79	0x3e4c271e	0.19936797
80	0x3c986793	0.018604076
81	0xbe493e4a	-0.19652668
82	0xbe76102a	-0.24029604
83	0xbe4b3b1a	-0.19846764
84	0xbd94d33d	-0.07266853
85	0xbe14e099	-0.14538802
86	0xbe18dec8	-0.14928734
87	0x3e290add	0.1650805
88	0xbd55cd9a	-0.05219803
89	0x3e515f42	0.20446494
90	0x3eb10e8c	0.3458141
91	0x3dffe0e9	0.1249407
92	0x3c32e277	0.010918251
93	0xbe6061cb	-0.21912305
94	0xbe7ff0dd	-0.24994226
95	0xbe8c94a3	-0.2745715
96	0x3e4f4a70	0.2024324
97	0x3eebaf61	0.4603224
98	0x3eada8fc	0.33917987
99	0x3dbab512	0.09116568
100	0x3e5b2b27	0.2140318
101	0x3e44be36	0.19213185
102	0x3ec1599b	0.37763676
103	0x3eb0489e	0.34430403
104	0x3e5e8418	0.21730077
105	0x3ee3a317	0.44460365
106	0x3eea2533	0.45731506
107	0x3e8bfa9b	0.27339634
108	0x3e96dd9f	0.29465958
109	0x3ea67c41	0.32516673
110	0x3e90de27	0.2829449
111	0x3dac2dc2	0.08407165
112	0x3dbe147a	0.09281249
113	0x3ecd37ad	0.4008154
114	0x3bd7dc21	0.0065875207
115	0x3e9aa773	0.3020588
116	0x3e230f19	0.15923728
117	0x3ea046b2	0.31303936
118	0x3eac1d59	0.3361614
119	0x3e0ed623	0.13948874
120	0x3e7aad37	0.24480139
121	0x3ebb7e14	0.36619627
122	0x3e7fb23f	0.24970339
123	0x3efd6f48	0.49498963
124	0x3eb27ed6	0.34862393
125	0x3ebf91c2	0.37415892
126	0x3ef376c3	0.47551546
127	0x3e3fde5d	0.18737169

encoder_lstm2.bias_hh_l0 f4 [128]
0	0x3eb97143	0.36219224
1	0x3eb9d040	0.36291695
2	0x3eab52b3	0.33461532
3	0x3e5fe6ad	0.2186534
4	0x3e08c4e4	0.13356358
5	0x3e81c9d8	0.25349307
6	0x3eb6d49d	0.35709086
7	0x3e616378	0.220106
8	0x3e199ccd	0.15001221
9	0x3ddacf9d	0.1068413
10	0x3e81816e	0.2529406
11	0x3e20a02a	0.15686098
12	0x3ea107f0	0.31451368
13	0x3ea7ab83	0.3274804
14	0x3ec0d470	0.37662077
15	0x3eb063e9	0.34451225
16	0x3e9bc48e	0.30423397
17	0x3ece0381	0.40237048
18	0x3e8161ef	0.2527003
19	0x3ecaaf2e	0.39586776
20	0x3e8736ad	0.26408902
21	0x3eab284a	0.33429176
22	0x3e6493b9	0.22321977
23	0x3ee4391c	0.4457482
24	0x3e11abcc	0.14225692
25	0x3ddcfa5b	0.10789939
26	0x3e382067	0.1798111
27	0x3e3872bd	0.18012519
28	0x3e953e14	0.29148924
29	0x3edbb075	0.42908064
30	0x3e04cd0e	0.12968847
31	0x3ed0bde0	0.40769863
32	0xbe36aa0d	-0.17838307
33	0xbe015343	-0.12629418
34	0xbd1fdf36	-0.03903123
35	0xbe24f009	-0.16107191
36	0x3e23f007	0.16009532
37	0xbe264d15	-0.16240342
38	0x3c2d428d	0.010574949
39	0x3dcdc2e8	0.10046941
40	0x3d635151	0.05549747
41	0xbdca0896	-0.09864919
42	0xbd466c1a	-0.048442937
43	0x3e1527c7	0.14565955
44	0xbe3478ce	-0.17624208
45	0xbe63dbe4	-0.2225185
46	0x3da0bd48	0.078486025
47	0xbd95c823	-0.07313564
48	0xbdb918ab	-0.09037908
49	0xbdf933d8	-0.121680915
50	0x3e38d057	0.18048225
51	0xbe299691	-0.16561343
52	0xbe9bb662	-0.30412585
53	0xbe79107c	-0.24322695
54	0xbd1b84ad	-0.037968326
55	0xbe3466f8	-0.17617404
56	0xbd9fe9bf	-0.078082554
57	0xbd4b8861	-0.049690608
58	0x3e2e5459	0.17024364
59	0x3caef807	0.021358503
60	0xbe677d1c	-0.22606319
61	0x3cc9fd5b	0.024656942
62	0xbd5c0d91	-0.053723875
63	0xbe0a37a6	-0.1349779
64	0x3dafd4e3	0.08585527
65	0xbdcdad6d	-0.10042844
66	0x3e8b13c3	0.27163514
67	0xbea325b8	-0.31864715
68	0xbe62b2fa	-0.22138587
69	0xbe22130b	-0.15827577
70	0xbe607268	-0.21918643
71	0xbb5dd588	-0.0033849198
72	0x3e85b8ee	0.26117653
73	0x3de06e4b	0.10958537
74	0xbe7a84b4	-0.24464685
75	0xbe7759d3	-0.24155359
76	0xba959127	-0.0011411057
77	0x3bf9cde2	0.00762342
78	0x3e7619d3	0.24033289
79	0xbd664696	-0.05621966
80	0xbd360b6f	-0.044444498
81	0xbea960cb	-0.3308166
82	0xbdde808b	-0.108643614
83	0xbda24830	-0.07923925
84	0x3e0978e4	0.13425022
85	0x3c922598	0.017840192
86	0xbc0e2bdc	-0.008677449
87	0xbe3bcfcf	-0.18340991
88	0x3c787216	0.015163919
89	0xbbeb31f1	-0.0071775843
90	0x3e0caaa8	0.13736975
91	0x3e6d9652	0.23201874
92	0xbe99418a	-0.29932815
93	0xbe7ab9ed	-0.24484988
94	0xbdd11a94	-0.102101475
95	0xbb697597	-0.0035623068
96	0x3e8ab6c8	0.27092576
97	0x3e5fcfa9	0.2185656
98	0x3d8b9da5	0.06817178
99	0x3de57478	0.11203855
100	0x3e8b0000	0.27148438
101	0x3e63d12a	0.22247759
102	0x3e234e4e	0.1594784
103	0x3ea4c0ef	0.32178447
104	0x3eb8dd9a	0.3610657
105	0x3e46ec1a	0.19426003
106	0x3e80d096	0.25159138
107	0x3ea789c1	0.32722285
108	0x3e85bab4	0.26119006
109	0x3e8c66cb	0.27422175
110	0x3e9e156c	0.3087572
111	0x3ea46441	0.32107738
112	0x3d5566e9	0.052100096
113	0x3de5a88c	0.112137884
114	0x3eaef4fe	0.3417129
115	0x3eafd454	0.3434168
116	0x3e3f5bc8	0.18687356
117	0x3ec2ebee	0.38070625
118	0x3e4f7395	0.20258935
119	0x3ea9d710	0.33171892
120	0x3eb44db0	0.3521552
121	0x3eab1a55	0.33418527
122	0x3e19e0f3	0.15027218
123	0x3eb06de0	0.34458828
124	0x3edaa5e7	0.42704698
125	0x3eba5250	0.36390924
126	0x3ea714a5	0.32632938
127	0x3eaaf180	0.33387375
